models/saved_models/drl_agent.pth (torch, 105955 bytes, 11 tensors)

actor.0.weight f4 [128, 32]
0	0xbe2739fd	-0.16330715
1	0x3d97bd90	0.07409203
2	0x3dfa4856	0.12220828
3	0xbd330934	-0.04370995
4	0xbe27cf60	-0.16387701
5	0x3dc32008	0.09527594
6	0xbdf09771	-0.11747635
7	0xbd99506d	-0.07486043
8	0x3deee793	0.11665263
9	0xbbba545d	-0.0056863264
10	0xbe1075fb	-0.14107506
11	0xbe291d07	-0.1651498
12	0xbdf8fbb6	-0.12157385
13	0xbe2768eb	-0.16348617
14	0xbe0af2ab	-0.13569133
15	0x3e13d1cb	0.14435498
16	0xbdc09b1c	-0.09404585
17	0xbdb97466	-0.09055404
18	0xb8ac5026	-8.216528e-05
19	0xbde2a3d0	-0.11066401
20	0x3d000f8c	0.031264827
21	0xbe1fc3ff	-0.1560211
22	0xbc7466d7	-0.014917097
23	0xbe21ca97	-0.15799938
24	0xbe2f7f6a	-0.17138448
25	0xbe18a0c9	-0.14905085
26	0xbe100b4e	-0.14066812
27	0xbd99237b	-0.074774705
28	0x3d9fa98e	0.07796012
29	0x3d435bc3	0.047694933
30	0x3d44a61d	0.04800998
31	0xbdc44b15	-0.09584633
32	0x3da655df	0.08121847
33	0xbd9bec1c	-0.07613394
34	0x3e1eff3a	0.15527049
35	0xbdde7d57	-0.108637504
36	0x3a885834	0.0010402263
37	0xbe20c25c	-0.15699142
38	0x3e1daa83	0.15397076
39	0x3d40746a	0.04698602
40	0x3beff3c7	0.0073227617
41	0xbdb6c4a9	-0.08924229
42	0xbdb3bbef	-0.0877608
43	0xbe0aa61f	-0.13539933
44	0x3dac1195	0.08401791
45	0x3daff6c2	0.08591987
46	0x3e044bad	0.12919493
47	0x3e1fedc8	0.1561805
48	0xbd520ccc	-0.051281735
49	0x3dcb1e31	0.09917868
50	0xbd9fd76e	-0.07804762
51	0xbe244524	-0.16042
52	0x3e332f86	0.17498598
53	0xba1b7c74	-0.0005931326
54	0xbe112c29	-0.14177002
55	0x3c9c3875	0.01906989
56	0xbd3230eb	-0.043503683
57	0xbcdb9571	-0.026804658
58	0x3e2cbd68	0.16869128
59	0x3e13d630	0.14437175
60	0x3dd69fb0	0.10479677
61	0xbd7bab86	-0.061442874
62	0x3d3d38b4	0.046196654
63	0xbccf8390	-0.025331289
64	0xbdf79549	-0.12089021
65	0x3c173ec8	0.009231277
66	0x3dee5307	0.1163693
67	0xbcf480df	-0.029846607
68	0xbe1213ca	-0.14265361
69	0x3d5c04e6	0.05371561
70	0xbd10f4fc	-0.035389885
71	0xbe12abc9	-0.14323343
72	0xbd89e0a9	-0.06732304
73	0xbdb61a5b	-0.08891746
74	0xbb812a42	-0.003941805
75	0xbe0ac32d	-0.13551016
76	0xbc4681d2	-0.0121159125
77	0xbd8b9128	-0.06814796
78	0x3e095f00	0.13415146
79	0x3a0bfc2c	0.0005340006
80	0xbe0dee87	-0.13860522
81	0xbd902494	-0.07038227
82	0x3e0ffd0a	0.1406137
83	0x3e2a911e	0.1665692
84	0xbc447e84	-0.011993054
85	0x3ca65089	0.020302074
86	0x3e1269e8	0.14298213
87	0x3d26e4ac	0.040745422
88	0x3e133a40	0.1437769
89	0xbdf051ba	-0.11734338
90	0xbd807d2c	-0.06273875
91	0xbe2783f3	-0.16358928
92	0x3db097f4	0.08622733
93	0xbd5749cd	-0.052560616
94	0x3d042501	0.032261852
95	0x3e07181f	0.13192795
96	0xbd9996a6	-0.07499437
97	0xbdfcb86a	-0.12339862
98	0x3e34955f	0.17635106
99	0x3dd5cb94	0.1043922
100	0x3dfb3839	0.12266583
101	0xbe29c910	-0.16580606
102	0xbdabc4f3	-0.083871745
103	0x3e09dd43	0.13463311
104	0xbc89ee37	-0.016837223
105	0x3e197b6c	0.14988488
106	0xbd52bdf8	-0.0514507
107	0x3e2ec4a7	0.17067204
108	0x3d884bf1	0.0665511
109	0xbbe33d7f	-0.006934821
110	0x3da41c87	0.08013254
111	0x3dfc19e9	0.123096295
112	0xbd8e948e	-0.06961928
113	0x3e15ac5f	0.14616536
114	0x3b32ab34	0.002726269
115	0x3d0de128	0.034638554
116	0x3e28ef82	0.16497615
117	0x3e0fd963	0.1404777
118	0x3dc20473	0.09473505
119	0xbcea2544	-0.028582223
120	0x3d2bab0a	0.041911162
121	0xbd941067	-0.07229691
122	0xbdc90193	-0.098147534
123	0xbde1588b	-0.11003216
124	0x3dca40ab	0.09875616
125	0xbd27719c	-0.04087983
126	0xbdf5b8d9	-0.119981475
127	0x3e1aa6a5	0.15102632
128	0xbd55117d	-0.05201863
129	0x3da31aad	0.079640724
130	0xbd64250d	-0.055699397
131	0xbd10313a	-0.035203196
132	0x3dd31947	0.10307556
133	0xbe228861	-0.15872337
134	0xbe05ce49	-0.13066973
135	0xbe12d70e	-0.1433985
136	0x3d3cd9af	0.046106037
137	0xbda78c50	-0.08181059
138	0x3d22e6f8	0.03977105
139	0xbdd4322f	-0.10361134
140	0x3d3891b1	0.045060817
141	0x3d642f54	0.055709198
142	0x3db97320	0.090551615
143	0x3ce6bf59	0.028167414
144	0x3c7f713c	0.015590962
145	0xbd01d835	-0.03170033
146	0x3dc0cb88	0.094138205
147	0xbe128aac	-0.14310712
148	0x3c8f9e31	0.017531486
149	0x3e12caee	0.14335224
150	0x3cc27774	0.0237386
151	0x3d8180a0	0.063233614
152	0x3de97225	0.113987245
153	0x3e0b9f82	0.13635066
154	0xbe113515	-0.14180405
155	0xbe348ccf	-0.17631839
156	0xbd439690	-0.04775101
157	0xbe2e106c	-0.16998452
158	0x3e05027f	0.12989233
159	0xbe2a80d5	-0.16650708
160	0x3cc81380	0.02442336
161	0xbe33fcfa	-0.17576972
162	0xbe064fdb	-0.131164
163	0x3d49580a	0.049156226
164	0xbca1629d	-0.019700343
165	0xbe23d861	-0.16000511
166	0xbd938ea6	-0.072049424
167	0xbe29c326	-0.1657835
168	0xbdb59f27	-0.088682465
169	0xbdffecbc	-0.124963254
170	0x3b719115	0.0036860157
171	0xbdad94ef	-0.084756725
172	0x3ca89747	0.020579947
173	0x3e27fb54	0.16404468
174	0x3d82ac12	0.06380476
175	0xbe013c0d	-0.12620564
176	0xbe174a0b	-0.14774339
177	0x3d9eb0a5	0.07748536
178	0x3e1e03ec	0.15431184
179	0x3e23b104	0.15985495
180	0xbe0891e5	-0.13336904
181	0xbd80bdaf	-0.06286179
182	0xbde5af6b	-0.11215099
183	0xbe012fc0	-0.12615871
184	0xbdd085e0	-0.10181785
185	0xbde15be4	-0.11003855
186	0xbd7358ba	-0.059410788
187	0x3e013f04	0.12621695
188	0x3db44c27	0.088035874
189	0xbca467d6	-0.020069044
190	0x3d2090ef	0.03920072
191	0xbe2c74bb	-0.16841404
192	0xbe0b45ee	-0.13600895
193	0x3d26f336	0.040759288
194	0x3e335d1e	0.1751599
195	0x3db52f00	0.08846855
196	0x3e2132e2	0.15742067
197	0x3e1e72fb	0.15473549
198	0x3e19064a	0.14943805
199	0x3ceefcb1	0.029173227
200	0x3e000cc7	0.12504874
201	0x3cb7f9a4	0.022457905
202	0x3e1378cd	0.1440155
203	0x3dc4babe	0.09605931
204	0xbdc2c307	-0.09509855
205	0xbbdd6625	-0.0067565613
206	0x3e13ce8c	0.1443426
207	0x3c3d1285	0.01154006
208	0xbd9dc875	-0.0770425
209	0xbd36cc04	-0.04462816
210	0xbe0e7d12	-0.13914898
211	0x3e18eca5	0.14934023
212	0xba0e49e6	-0.0005427882
213	0x3deb3279	0.11484236
214	0xbd481f91	-0.04885823
215	0x3d07ae9c	0.033125505
216	0x3c615719	0.013753676
217	0x3d267444	0.040638223
218	0xbdee2b8a	-0.11629398
219	0x3d586f95	0.052840788
220	0x3dc87e98	0.09789771
221	0xbe0feb73	-0.1405466
222	0x3dfbde5f	0.12298273
223	0x3d5d7b0c	0.054072425
224	0x3d8e7e80	0.06957722
225	0x3e023b5b	0.12717955
226	0xbdec452f	-0.11536633
227	0xbe2018dc	-0.15634483
228	0xbd25dc91	-0.04049355
229	0x3dedb4ab	0.11606725
230	0x3dc21c75	0.09478084
231	0x3cbb06af	0.022830335
232	0x3e1ffdf0	0.15624213
233	0x3dd0bf7f	0.10192775
234	0x3d89fab3	0.0673727
235	0x3dceeb7d	0.101035096
236	0x3d73c506	0.059514068
237	0x3d4c8e79	0.04994056
238	0x3df9b12e	0.121919975
239	0xbda34ca1	-0.079736
240	0x3c94d7d1	0.018169316
241	0xbd8951fd	-0.06705091
242	0xbd76948c	-0.06020026
243	0x3d9050fe	0.07046698
244	0xbd8738fa	-0.06602664
245	0x3e2fc268	0.17164004
246	0xbd31512f	-0.043290313
247	0x3e1e544e	0.15461847
248	0xbb9bcfb7	-0.004754986
249	0xbddb6920	-0.107134104
250	0xbe041de5	-0.12902029
251	0x3dcc2b77	0.09969228
252	0xbdd9e9b8	-0.106402814
253	0xbdfa830a	-0.12232025
254	0xbda1031f	-0.078619234
255	0x3e17a9a9	0.14810814

actor.0.bias f4 [128]
0	0x3d7661ae	0.06015175
1	0xbdc5c6fa	-0.096570924
2	0x3e05b6a7	0.13057958
3	0xbdf2ce49	-0.11855752
4	0xbd41785e	-0.04723393
5	0x3dc399bc	0.09550807
6	0xbd6e304b	-0.058151525
7	0x3d485fde	0.04891955
8	0x3dbecf1a	0.09316845
9	0xbdcd2a14	-0.100177914
10	0xbccf997b	-0.02534174
11	0xbe2ff1b9	-0.17182054
12	0xbdf6a785	-0.120436706
13	0xbd351da2	-0.044217713
14	0x3c0a4b55	0.008440812
15	0x3e2b190a	0.1670877
16	0xbd9aa880	-0.0755167
17	0xbe01b8e5	-0.12668188
18	0x3dfbdbc3	0.122977756
19	0xbdc55e34	-0.096371084
20	0x3e0ba500	0.13637161
21	0xbe2c5237	-0.16828237
22	0x3c80390c	0.015652202
23	0x3db9e202	0.09076311
24	0x3d348d73	0.04408021
25	0x3ddc2866	0.10749893
26	0x3e029a47	0.12754165
27	0x3e339bc1	0.17539884
28	0xbd3d6c3c	-0.0462458
29	0x3d024470	0.03180355
30	0x3d9268cd	0.071488954
31	0x3cdcf03c	0.026970021
32	0xbd51271e	-0.051062696
33	0x3e08a839	0.13345422
34	0x3df155cc	0.117839426
35	0x3dac757e	0.08420847
36	0xbd8999a7	-0.0671876
37	0x3d4c8a3b	0.049936514
38	0x3da77103	0.08175852
39	0xbe0ebd42	-0.13939384
40	0xbd85563e	-0.0651059
41	0xbc59baee	-0.013289196
42	0x3e2dd18f	0.16974472
43	0x3d586587	0.0528312
44	0x3e04c878	0.12967098
45	0xbe2074ff	-0.1566963
46	0xbdc99b0d	-0.09844027
47	0x3df005e9	0.11719877
48	0x3def44cb	0.11683043
49	0x3da4edb9	0.080531545
50	0xbdf378c1	-0.11888266
51	0xbe12358b	-0.14278238
52	0x3e203c90	0.15648103
53	0x3d2f57cd	0.042808343
54	0xbb752743	-0.0037407435
55	0x3dee3a39	0.11632199
56	0xbdfaab85	-0.12239746
57	0x3abcaf2c	0.0014395467
58	0x3db90247	0.090336375
59	0x3ca638a0	0.020290673
60	0x3c47c5da	0.012193168
61	0x3b7f61ad	0.0038968131
62	0x3d7ee1ea	0.062227167
63	0xbe2b4912	-0.16727093
64	0xbddbe380	-0.107367516
65	0xbdc5c33b	-0.09656378
66	0x3d272eb8	0.04081604
67	0x3dd5caaf	0.104390495
68	0xbe142a8f	-0.1446936
69	0xbe0ad8dc	-0.13559288
70	0x3cfc01dc	0.030762605
71	0x3d87a321	0.06622911
72	0x3daf9c9f	0.08574795
73	0x3e26c0cc	0.16284484
74	0xbe243c23	-0.16038565
75	0x3e1e7aa5	0.15476473
76	0xbdc88f7a	-0.09792991
77	0x3df452cc	0.11929855
78	0x3e2de54a	0.16981998
79	0xbd9330c2	-0.07187034
80	0x3d5ea589	0.054357085
81	0xbb9331e6	-0.0044920323
82	0xbdec50a4	-0.115388185
83	0x3dc79a96	0.09746282
84	0xbd66dfad	-0.056365658
85	0x3d75c8a9	0.060005818
86	0xbde14ffb	-0.11001583
87	0x3e03c398	0.12867582
88	0xbc14e1c3	-0.009087029
89	0x3c45c560	0.012070984
90	0xbd556920	-0.05210221
91	0xbd623f56	-0.055236183
92	0xbc2dd4cb	-0.010609816
93	0xbd03029b	-0.031984907
94	0xbdc146ea	-0.09437354
95	0x3ce7a9d7	0.028279228
96	0x3ced53e5	0.028970668
97	0x3deab8b8	0.114610136
98	0x3d5784a0	0.052616715
99	0x3df45420	0.11930108
100	0xbe240731	-0.16018368
101	0x3e2d44ef	0.16920827
102	0xbe1d5d2f	-0.15367578
103	0x3e200d91	0.15630175
104	0x3df8a906	0.12141614
105	0xbdfb0cae	-0.12258278
106	0x3e23c111	0.15991618
107	0x3d38ffa6	0.04516568
108	0x3db0c114	0.08630577
109	0x3d94e85c	0.072708815
110	0xbdc736a9	-0.097272225
111	0xbe0acaa0	-0.13553858
112	0x3d876adc	0.06612179
113	0xbe103cbd	-0.1408567
114	0x3dbe90e9	0.09304983
115	0xbd89b30d	-0.06723604
116	0x3e2da42b	0.16957156
117	0x3c2435c3	0.010022583
118	0xbc29f705	-0.010373835
119	0x3e2532f6	0.16132721
120	0x3e27874a	0.16360202
121	0x3ccce22d	0.025010193
122	0xbdb3f046	-0.08786063
123	0x3c039bf5	0.0080327885
124	0xbe01dcf5	-0.12681945
125	0xbd9e56cf	-0.07731401
126	0x3e152b39	0.1456727
127	0x3e21ee8c	0.15813655

actor.2.weight f4 [64, 128]
0	0x3d8ccb0d	0.06874666
1	0xbd8f337d	-0.069922425
2	0x3d33d359	0.04390273
3	0xbd6a423c	-0.057192072
4	0xbce2cbeb	-0.027685126
5	0xbda8b523	-0.08237674
6	0x3bd5c7c4	0.006524058
7	0x3d809ba3	0.06279685
8	0xbcb47b1c	-0.02203136
9	0xbd83421a	-0.06409092
10	0xbd0aefde	-0.03392016
11	0x3d89f7bb	0.06736704
12	0xbd4e4377	-0.05035731
13	0x3ce2b205	0.027672777
14	0xbd8ca001	-0.06866456
15	0xbd9c9954	-0.076464325
16	0xbd14ab1e	-0.036296003
17	0xbcc8eadc	-0.024526052
18	0x3d859e75	0.06524364
19	0x3c18f46f	0.009335621
20	0x3d594fbc	0.053054556
21	0xbd823a2e	-0.06358753
22	0x3d88f43d	0.0668721
23	0x3d5aa567	0.053380396
24	0x3daac2db	0.08337947
25	0x3be88ead	0.0070970864
26	0xbd45b1b0	-0.04826516
27	0x3dafff09	0.08593566
28	0x3d215698	0.039389223
29	0x3d874d63	0.06606557
30	0xbd4f61d7	-0.050630417
31	0xbd4bd5a1	-0.04976428
32	0x3d7a1aa4	0.061060563
33	0x3cddbaff	0.027066706
34	0x3d1d75e4	0.038442507
35	0xbd83d5d5	-0.064372696
36	0x3cfd642a	0.030931551
37	0x3ca0b357	0.019616766
38	0xbda1b013	-0.078949116
39	0xbd87980c	-0.066207975
40	0x3d9dac0f	0.07698833
41	0x3da331e1	0.07968498
42	0x3d141d4c	0.036160752
43	0xbdabc39e	-0.083869204
44	0x3c339b22	0.0109622795
45	0xbc8e7ec7	-0.017394437
46	0xbd1fc7f6	-0.039009057
47	0xbd4e89c7	-0.050424363
48	0x3d1ddae0	0.038538814
49	0x3d2c57c9	0.042075906
50	0x3d3a0733	0.045417022
51	0xbd760030	-0.060058773
52	0xbc3c9880	-0.011510968
53	0x3d8191ea	0.06326659
54	0x3d9f2211	0.077701695
55	0x3d4a4f62	0.04939211
56	0x3c37575c	0.011190262
57	0xbd9a638d	-0.07538519
58	0xbc8e2c7d	-0.017355198
59	0xbcfaf8ac	-0.030636154
60	0x3d8a5025	0.067535676
61	0x3cec17ff	0.028820036
62	0xbd853d32	-0.06505813
63	0x3cde9b59	0.027173685
64	0x3d898348	0.06714493
65	0x3c8733a9	0.016504126
66	0x3d8ae85c	0.067826
67	0xbd70a4e6	-0.05875101
68	0xbd409c4d	-0.04702406
69	0xbcd73825	-0.026271889
70	0xbda04db1	-0.078273185
71	0xbdaca4a6	-0.08429842
72	0xbd376e1c	-0.044782743
73	0x3d856e65	0.06515197
74	0xbd8580dd	-0.06518719
75	0xbcdccecd	-0.026954079
76	0x3d8c0678	0.06837171
77	0xbc6c3bb4	-0.014418531
78	0x3cfa3f14	0.030547656
79	0xbd15c283	-0.036562454
80	0xbdb030ae	-0.08603035
81	0xbc9fee41	-0.019522788
82	0xbc31b48e	-0.01084627
83	0xbb6411a1	-0.0034800547
84	0x3d893d9f	0.067012064
85	0xbd5c07c8	-0.05371836
86	0x3d076d9c	0.033063516
87	0x3c76dbd0	0.015067056
88	0x3d3ac506	0.045598052
89	0xbce4ab0d	-0.027913595
90	0x3d49c590	0.049260676
91	0xbd6b7937	-0.057488646
92	0x3cb00817	0.021488233
93	0xbd7b0be0	-0.06129062
94	0x3cae9548	0.021311417
95	0x3bd586fa	0.0065163346
96	0x3cf93195	0.03041915
97	0xbb463738	-0.0030245315
98	0x3c1308aa	0.008974234
99	0x3d8a23c8	0.06745106
100	0x3d892541	0.06696559
101	0xbd54912e	-0.051896267
102	0x3d54f88d	0.05199485
103	0x3d3d584d	0.04622679
104	0x3d844c11	0.06459821
105	0xbda815b1	-0.08207262
106	0xbd993adf	-0.07481932
107	0x3d38b9ad	0.04509895
108	0x3d01caf8	0.031687707
109	0xbd95e666	-0.07319336
110	0x3cd98005	0.026550302
111	0xbd51502d	-0.051101852
112	0xbd9d6335	-0.07684938
113	0x3d72ca60	0.05927503
114	0xbda63e30	-0.0811733
115	0xbdb0601b	-0.08612081
116	0x3ca4fa9a	0.020139027
117	0x3d9d30c9	0.07675321
118	0xbcb40702	-0.021975998
119	0x3da7c29e	0.08191417
120	0xbb307bb4	-0.0026929202
121	0xbac7fe11	-0.0015258213
122	0xbd5cb4f8	-0.053883523
123	0x3db43507	0.08799177
124	0x3d7efd26	0.06225314
125	0x3ced6d2d	0.028982723
126	0xbd9b819c	-0.075930804
127	0x3cb55918	0.02213721
128	0xbd8eb261	-0.06967617
129	0xbd22937f	-0.039691444
130	0xbccfc049	-0.025360243
131	0xbd5a9ac6	-0.05337026
132	0x3d8f0cc9	0.069848605
133	0x3d9b0e6c	0.0757111
134	0x3d116063	0.035492312
135	0x3baa7296	0.005201648
136	0xbd16643b	-0.03671668
137	0xbc35d03e	-0.011097012
138	0xbc49e4b0	-0.01232259
139	0x3c8714b4	0.016489364
140	0xbc998adf	-0.018742977
141	0x3daa8023	0.083252214
142	0xbbc456eb	-0.0059918067
143	0xbd629eb2	-0.055327125
144	0xbd8a847d	-0.067635514
145	0x3d525f16	0.051360212
146	0xbda31617	-0.07963198
147	0xbd905905	-0.07048229
148	0x3db4da9f	0.08830761
149	0x3d511757	0.05104765
150	0xbda508f6	-0.0805835
151	0xbbcf709a	-0.006330562
152	0xbda97de2	-0.08275963
153	0xbd6e9f79	-0.058257554
154	0x3d9a8545	0.075449504
155	0x3c6506e8	0.013978697
156	0x3dadf03e	0.08493088
157	0x3da476ae	0.08030449
158	0x3d067c58	0.032833427
159	0x3da8f331	0.0824951
160	0x3d4dd37c	0.050250515
161	0x3cfb84a2	0.030702893
162	0x3d2c6973	0.04209275
163	0x3d818566	0.06324272
164	0x3d7e12ee	0.06202977
165	0x3d7f24de	0.06229102
166	0xbdaa7df2	-0.083248034
167	0xb9aba671	-0.0003273967
168	0xbd28ee7c	-0.04124306
169	0x3baa4e86	0.005197349
170	0x3d5257f8	0.051353425
171	0x3d94395b	0.07237502
172	0xbd9983e7	-0.074958615
173	0xbd37dea4	-0.04489006
174	0x3cc85915	0.02445654
175	0xbce3351f	-0.027735291
176	0x3d4a67e6	0.04941549
177	0xbdb390f5	-0.08767883
178	0xbbf64576	-0.0075156046
179	0xbc345a0d	-0.011007798
180	0x3cbe2d57	0.02321498
181	0xbcc74e81	-0.024329426
182	0x3da08149	0.07837159
183	0x3d0c5043	0.03425623
184	0x3c26382f	0.010145231
185	0x3d102e11	0.035200182
186	0x3d3dd8d7	0.046349373
187	0x3d15e548	0.036595613
188	0x3b2109ea	0.002457256
189	0x3cc2f2e3	0.023797458
190	0x3da94e96	0.08266942
191	0x3db48b71	0.08815659
192	0x3b740cf3	0.0037239164
193	0xbba58c01	-0.00505209
194	0x3ce7a4b7	0.028276784
195	0x3d8980dc	0.06714031
196	0x3d31b3f8	0.043384522
197	0xbc51f094	-0.012813706
198	0xbd249599	-0.04018173
199	0xbcd363a2	-0.025804345
200	0xbd5118e6	-0.051049136
201	0x3a76744f	0.00094014866
202	0xbc2439df	-0.010023563
203	0x3d9b6d32	0.07589187
204	0x3d85cc89	0.065331526
205	0xbce3bc23	-0.027799672
206	0xbda87b41	-0.08226634
207	0xbbdd307e	-0.0067501655
208	0x3da36d48	0.07979828
209	0xbd681ee6	-0.056670092
210	0xbc0f5831	-0.008749054
211	0xbd97551f	-0.073892824
212	0x3a7104b9	0.0009194124
213	0x3cb16359	0.021653818
214	0x3b887d81	0.004165352
215	0x3d16e3e5	0.03683843
216	0xbd2d3157	-0.042283382
217	0xbd17504b	-0.036941808
218	0x3c26b5c8	0.010175176
219	0xbc8d0ad1	-0.017217072
220	0x3d5e02b9	0.054201815
221	0x3d8bf306	0.068334624
222	0x3d83e588	0.06440264
223	0xbd234c9e	-0.03986799
224	0x3d4d1ccc	0.05007629
225	0xbd8e4da6	-0.06948404
226	0xbdb26f02	-0.08712579
227	0x3b92273b	0.004460243
228	0x3cf98111	0.030457051
229	0x3d1ad051	0.037796322
230	0xbcad827b	-0.021180382
231	0x3d49689a	0.04917202
232	0x3d9217af	0.071334235
233	0xbd1699ea	-0.036767878
234	0xbcd7f82c	-0.026363455
235	0x3d46a59e	0.04849779
236	0xbd866518	-0.06562251
237	0x3d4c8f22	0.04994119
238	0xbbd7ba30	-0.0065834746
239	0x3cac51ac	0.021035038
240	0x3d859c68	0.06523973
241	0xbdb053f0	-0.0860976
242	0xbaf0f1a1	-0.0018382558
243	0x3c483d9e	0.012221722
244	0x3da0e765	0.07856635
245	0x3d1cad02	0.03825093
246	0x3da2783c	0.07933089
247	0xbd368439	-0.04455969
248	0x3d43b9eb	0.047784727
249	0x3d5c453c	0.053776965
250	0xbd504880	-0.05085039
251	0x3d39be66	0.045347594
252	0xbd9ea4ed	-0.07746301
253	0x3d134a6f	0.035959657
254	0x3bc472ac	0.0059951153
255	0xbd7a64e3	-0.06113137

actor.2.bias f4 [64]
0	0xbcaeaa35	-0.021321395
1	0xbd93e40a	-0.072212294
2	0x3d409932	0.0470211
3	0x3d8212bb	0.06351229
4	0x3ad30e07	0.0016102203
5	0xbcb0ba43	-0.021573192
6	0xbda705a3	-0.08155372
7	0xbc075c90	-0.008261815
8	0x3d8dba0f	0.069202535
9	0xbcefd3a1	-0.029275717
10	0x3d9d1ca3	0.07671478
11	0x3d8e9c2f	0.069633834
12	0xbd88db20	-0.0668242
13	0x3d9ad7f8	0.07560724
14	0x3c025d0e	0.007956756
15	0x3a97fce7	0.0011595757
16	0xbda79c6f	-0.08184134
17	0x3d9e96bf	0.07743596
18	0xbd084e35	-0.03327771
19	0x3d84a6e1	0.06477142
20	0xbd32052a	-0.043461956
21	0x3d3b1f7d	0.045684326
22	0x3d9d4440	0.07679033
23	0x3d2a64f1	0.04160017
24	0x3d8761b9	0.06610436
25	0xbb22a327	-0.0024816485
26	0x3da618a5	0.08110169
27	0x3d309f17	0.04312047
28	0xbce02af4	-0.027364232
29	0xbce3e9e0	-0.027821481
30	0x3cc3e556	0.023913067
31	0xbdacc664	-0.084362775
32	0xbd06eba0	-0.032939553
33	0x3d9a40a7	0.07531863
34	0xbd50d428	-0.050983578
35	0x3dacda36	0.08440058
36	0xbda42e2c	-0.08016619
37	0x3b6bd27a	0.0035983608
38	0x3d18b4f3	0.03728194
39	0xbcd5a014	-0.026077308
40	0xbd14c736	-0.036322795
41	0xbd654c78	-0.05598113
42	0xbd9abc8b	-0.07555493
43	0xbd0db409	-0.034595523
44	0xbaedad7a	-0.0018133365
45	0x3d2d77fc	0.042350754
46	0xbcba05cf	-0.022707848
47	0xbd725379	-0.059161637
48	0x3c842b75	0.016134003
49	0x3da86b8e	0.082236394
50	0xbd33a5a1	-0.043859128
51	0x3c34c49a	0.011033202
52	0x3caf434b	0.021394392
53	0xbd6fe17e	-0.058564655
54	0xbd43a2c8	-0.047762662
55	0x3a934cf1	0.001123814
56	0x3dac0ba4	0.08400658
57	0xbcafd205	-0.02146245
58	0xbc1148d8	-0.008867465
59	0xbaf2987b	-0.0018508577
60	0xbd7c1c7c	-0.061550602
61	0x3c23c5a4	0.009995852
62	0x3d88523d	0.06656311
63	0x3ca751fd	0.020424837

actor.4.weight f4 [4, 64]
0	0xbd7ceb14	-0.061747625
1	0x3d3ead84	0.046552196
2	0x3d092c84	0.03348972
3	0xbdb269d2	-0.0871159
4	0x3d3187c8	0.04334238
5	0xbd2d62e0	-0.042330623
6	0xbdc88652	-0.097912446
7	0xbdc2c7de	-0.09510778
8	0xbc899588	-0.016794935
9	0x3d07d9bc	0.033166632
10	0x3d0b9aac	0.034083053
11	0xbdecb8c6	-0.1155868
12	0x3d542d94	0.05180128
13	0x3c6fe800	0.014642715
14	0x3daa5992	0.083178654
15	0xbca813b8	-0.020517215
16	0x3d152544	0.036412492
17	0x3d1953dc	0.03743349
18	0x3cd5fb10	0.026120692
19	0xbd064d70	-0.032788694
20	0xbd29c804	-0.041450515
21	0x3dc4e8b0	0.09614694
22	0x3df2a43a	0.1184773
23	0xba3c9800	-0.00071942806
24	0xbdfaed94	-0.12252346
25	0xbd501b94	-0.05080755
26	0xbde83c78	-0.113396585
27	0xbdb9b4b6	-0.09067671
28	0xbd3a3308	-0.045458823
29	0xbd7cb06c	-0.061691687
30	0xbd131104	-0.0359049
31	0xbda29aee	-0.07939707
32	0x3dd13b1e	0.10216354
33	0x3dac615a	0.08417006
34	0x3dcf7880	0.101304054
35	0x3da0548e	0.078286275
36	0xbd6a33c4	-0.057178274
37	0x3de1c33c	0.11023566
38	0x3dde2c7e	0.1084833
39	0xbd4c5138	-0.049882144
40	0x3c30eef0	0.010799155
41	0xbd0914c8	-0.033467084
42	0xbd5358f4	-0.051598504
43	0x3d9652b8	0.07339996
44	0xbdde464c	-0.10853252
45	0xbdd368ba	-0.103227094
46	0xbdb85e32	-0.09002341
47	0x3d514128	0.05108753
48	0x3d7c4ad4	0.0615948
49	0x3df92860	0.12165904
50	0xbc3d7ad0	-0.011564925
51	0xbd79ba28	-0.060968548
52	0xbdb7e624	-0.08979443
53	0xbc577af0	-0.013151869
54	0x3db629a6	0.088946626
55	0x3d4a54e0	0.04939735
56	0xbcf53710	-0.029933482
57	0x3de14098	0.109986484
58	0xbdaf00d8	-0.08545083
59	0x3dc1fbd8	0.094718635
60	0xbdb44c6a	-0.08803637
61	0xbd220128	-0.039551884
62	0x3d4be270	0.049776495
63	0x3dee1d7a	0.11626716
64	0x3b486c40	0.00305821
65	0x3ca42498	0.02003698
66	0xbdad2abc	-0.084554166
67	0xbd810c76	-0.06301205
68	0x3d753210	0.059862196
69	0x3dcb8644	0.099377185
70	0xbd95698e	-0.072955236
71	0xbd82b024	-0.063812524
72	0x3d995fc6	0.074889705
73	0x3b83b1a0	0.0040189773
74	0x3d2e1ee4	0.04250993
75	0xbc819978	-0.01582025
76	0xbc82cd30	-0.015966982
77	0xbc9f7998	-0.01946716
78	0xbdf60b18	-0.12013835
79	0xbddee734	-0.10883942
80	0xbd402ab8	-0.04691574
81	0x3d9f54fc	0.07779881
82	0x3de85e96	0.11346166
83	0x3d26ee74	0.04075475
84	0xbdec9584	-0.11551955
85	0xbcc39e90	-0.02387932
86	0xbda0826a	-0.078373745
87	0x3d8cce58	0.068752944
88	0xbc3f7870	-0.011686429
89	0xbb1a4e00	-0.0023545027
90	0xbd126980	-0.035745144
91	0x3d873a82	0.06602956
92	0x3dc58ed8	0.09646386
93	0x3bbe3680	0.0058048368
94	0xbda6c534	-0.08143082
95	0x3d0620a0	0.032745957
96	0x3da937b4	0.08262578
97	0x3c89bb68	0.016812995
98	0xbda34064	-0.07971266
99	0x3c122160	0.00891909
100	0x3d8783bc	0.06616923
101	0xbdd5801c	-0.104248255
102	0x3d9f7d16	0.0778753
103	0x3d059794	0.03261526
104	0x3c61b370	0.013775691
105	0xbd76ea54	-0.060282066
106	0x3d49528c	0.04915099
107	0x3dfb030a	0.12256439
108	0x3de0ded2	0.109799996
109	0x3df9396a	0.12169154
110	0x3d037d40	0.03210187
111	0x3b85b1c0	0.0040800273
112	0x3daecce8	0.085351765
113	0xbd874e28	-0.06606704
114	0xbd761e94	-0.060087755
115	0xbd5b3c50	-0.053524315
116	0x3dc6e394	0.09711376
117	0xbdadfcb0	-0.08495462
118	0xbd8a97ee	-0.067672595
119	0xbcd59150	-0.026070267
120	0xbca67080	-0.020317316
121	0x3dab694a	0.08369692
122	0xbc8e91e0	-0.017403543
123	0x3de71672	0.11283578
124	0xbab21f80	-0.001358971
125	0x3d68bcbc	0.056820616
126	0x3da49872	0.08036889
127	0x3de851a2	0.11343695
128	0xbdd0d5f8	-0.10197061
129	0x3d930f02	0.07180597
130	0xbdbc824e	-0.09204541
131	0x3bcec220	0.0063097626
132	0xbc85dd68	-0.016340926
133	0xbc889f40	-0.016677499
134	0xbcc0c570	-0.023531646
135	0xbd754548	-0.059880525
136	0xbcd6a9f0	-0.02620408
137	0x3deb0138	0.11474842
138	0xbcd84070	-0.026397914
139	0x3d9ddfa4	0.07708672
140	0xbce4c088	-0.027923837
141	0xbd47016c	-0.04858534
142	0xbdeb1ad4	-0.114797264
143	0x3d851454	0.06498018
144	0x3d6692ac	0.05629222
145	0xbdcc3cd6	-0.09972541
146	0x3d5732ac	0.05253856
147	0xbc142aa0	-0.009043366
148	0x3da97fcc	0.082763284
149	0x3d040b4c	0.032237336
150	0xbb940660	-0.0045173615
151	0xbd205be8	-0.03915015
152	0xbd125e78	-0.035734624
153	0xbdc79cc0	-0.097466946
154	0x3dc640fe	0.09680365
155	0xbdc84038	-0.09777874
156	0x3ca3ef78	0.020011649
157	0x3c6ec080	0.014572263
158	0x3c591b70	0.0132511705
159	0x3dc744d6	0.09729926
160	0xbd608d64	-0.05482234
161	0xbd8e9fac	-0.06964049
162	0xbbacffc0	-0.005279511
163	0xbd3117d4	-0.043235615
164	0xbd6baf58	-0.057540268
165	0xbd3d46e8	-0.0462102
166	0xbd373f40	-0.044738054
167	0xbd019720	-0.031638265
168	0xbd4736d0	-0.048636258
169	0x3c9c4e10	0.019080192
170	0x3dcba8e6	0.09944324
171	0x3dac1642	0.08402683
172	0x3dc5b49e	0.096535906
173	0x3d38393c	0.044976458
174	0xbbc163e0	-0.0059017986
175	0x3dd89fe2	0.1057737
176	0xbd4d9f88	-0.05020097
177	0xbc9b7960	-0.018978775
178	0x3da70a30	0.0815624
179	0x3d8cef0a	0.068815306
180	0xbd862a5a	-0.06551047
181	0xbdc06f4c	-0.09396228
182	0xbcca2030	-0.024673551
183	0xbd5bfd38	-0.053708285
184	0xbddf9800	-0.109176636
185	0xbdc2a7fa	-0.09504695
186	0xbd0c20b4	-0.034210876
187	0x3c7539e0	0.014967412
188	0xbded1784	-0.11576751
189	0x3d80888c	0.06276044
190	0xbdf11bd6	-0.117728874
191	0x3dec80be	0.11547993
192	0x3df40d28	0.11916572
193	0x3cca8df0	0.024725884
194	0x3c69ab60	0.01426205
195	0x3dee1fea	0.11627181
196	0x3da14ede	0.07876371
197	0x3da76e4c	0.08175334
198	0xbcd1c2d0	-0.02560559
199	0x3d830bba	0.06398721
200	0xbdc637da	-0.096786216
201	0xbc92d448	-0.01792349
202	0x3d3771e8	0.044786364
203	0x3b0cb3c0	0.0021469444
204	0x3da920d6	0.08258216
205	0x3dee8c5e	0.11647867
206	0x3d2490a8	0.040177017
207	0x3db17524	0.08664921
208	0x3d4c410c	0.04986672
209	0xbdf8b952	-0.12144722
210	0x3d9404f0	0.07227504
211	0x3df11374	0.117712885
212	0x3de08cfa	0.10964389
213	0x3d5a35a4	0.053273812
214	0xbc99f800	-0.018795013
215	0x3dd02d90	0.1016494
216	0x3d84d746	0.06486373
217	0x3c2e3810	0.0106334835
218	0xbd6a039c	-0.05713235
219	0xbdc12db6	-0.09432547
220	0x3d098d18	0.033581823
221	0xbdd1a86e	-0.102372035
222	0x39bfd200	0.0003658682
223	0x3d0a6644	0.033788934
224	0x3c912de0	0.01772207
225	0x3d885150	0.06656134
226	0x3d9b13fa	0.075721696
227	0xbd4c0b4c	-0.04981546
228	0xbdf91e62	-0.12163998
229	0xbdb1a6fa	-0.086744264
230	0x3cc8cdb8	0.024512157
231	0xbd5b87d0	-0.053596318
232	0x3d87cd60	0.06630969
233	0xbd6213b8	-0.055194587
234	0x3bcd4a80	0.0062649846
235	0xbded6ad4	-0.115926415
236	0x3dbf59f8	0.09343332
237	0x3de8e368	0.11371499
238	0x3d0e2ec4	0.034712568
239	0xbd84a83e	-0.06477402
240	0x3d4184bc	0.047245726
241	0x3d899364	0.06717566
242	0xbdf5d392	-0.120032445
243	0x3d4d8184	0.050172344
244	0x3dd2369a	0.10264321
245	0xbde7faa8	-0.11327106
246	0xbca8d020	-0.020607054
247	0x3d9d218a	0.07672413
248	0x3d906e04	0.07052234
249	0x3de1d1f4	0.110263735
250	0x3d5082f8	0.05090615
251	0xbd69a7f8	-0.057044953
252	0x3cdac548	0.0267054
253	0x3d7ca784	0.061683193
254	0x3dc70f52	0.09719719
255	0xbcaaa740	-0.020831704

actor.4.bias f4 [4]
0	0x3da40c66	0.08010177
1	0x3d629e34	0.055326656
2	0xbd8c62a8	-0.06854755
3	0xbd552924	-0.052041188

critic.0.weight f4 [128, 32]
0	0x3cbc4a71	0.022984715
1	0xbcb95434	-0.022623159
2	0xbe09649e	-0.13417289
3	0xbb08ed53	-0.002089341
4	0x3ccfcc51	0.02536598
5	0xbd093db6	-0.033506118
6	0xbc4fbf75	-0.012679924
7	0xbd1763c7	-0.03696039
8	0xbe1daaee	-0.15397236
9	0xbe15001e	-0.14550826
10	0xbe1ebe93	-0.15502386
11	0xbdd08998	-0.10182494
12	0xbdf6c5f7	-0.120494775
13	0xbdbb253e	-0.09137963
14	0xbd9fbf3a	-0.078001454
15	0x3def25aa	0.11677106
16	0xbe30744a	-0.17231861
17	0xbdabdb3f	-0.08391427
18	0xbcb72fee	-0.022361722
19	0xbbaa73ab	-0.005201777
20	0xbd1ec285	-0.038759727
21	0xbd0861fb	-0.033296566
22	0x3d97f754	0.07420221
23	0x3d731b77	0.059352364
24	0x3cb3a46d	0.02192899
25	0xbe078aef	-0.13236593
26	0x3e013f9f	0.12621926
27	0xbe3653c5	-0.17805393
28	0xbe12fa43	-0.1435328
29	0x3e2d8a4c	0.16947287
30	0x3db2d3e9	0.08731825
31	0x3ca6ae63	0.020346826
32	0xbe2c8492	-0.16847447
33	0xbaf1d5ca	-0.0018450555
34	0xbbe77a75	-0.0070641586
35	0xbc14f55f	-0.009091704
36	0xbdca0aa2	-0.09865309
37	0xbe22c85d	-0.15896745
38	0xbe37b289	-0.179392
39	0x3d1963cc	0.03744869
40	0xbd420d42	-0.047375925
41	0x3d39fd45	0.045407552
42	0xbd98f95d	-0.07469437
43	0xbdc7aee4	-0.097501546
44	0xbdb7b31e	-0.08969711
45	0xbe0fa3ab	-0.14027278
46	0xbdb5fb69	-0.08885843
47	0x3cff3845	0.031154761
48	0x3d1cc6ed	0.038275648
49	0x3dca85c8	0.09888798
50	0xbd77af7f	-0.0604701
51	0x3de69127	0.11258154
52	0x3df6fcc1	0.12059928
53	0xbceea863	-0.029133027
54	0xbe09f045	-0.13470562
55	0xbcd3e856	-0.025867622
56	0x3d1d548b	0.038410705
57	0xbe2d4c89	-0.16923727
58	0xbe217378	-0.15766704
59	0xbe167e89	-0.14696707
60	0xbc8b8eec	-0.017035924
61	0xbdc01c74	-0.09380427
62	0xbdb9bab7	-0.09068816
63	0x3e32dd3e	0.1746721
64	0xbd34fc16	-0.04418572
65	0x3e085a7d	0.13315769
66	0xbe2a8e16	-0.16655764
67	0x3d9822fa	0.07428546
68	0xbdc6e29c	-0.09711191
69	0xbcb4eac5	-0.022084603
70	0x3d2d3b1b	0.042292695
71	0x3b99fedb	0.0046995706
72	0x3e2e2edd	0.17010064
73	0xbe238f1a	-0.15972558
74	0xbdfd7ff9	-0.123779245
75	0xbd85a3ae	-0.0652536
76	0x3e228c67	0.15873872
77	0x3ca0b461	0.019617261
78	0x3dafea86	0.08589654
79	0xbc4fd6e9	-0.012685516
80	0xbe329859	-0.17440929
81	0x3c6cf714	0.014463205
82	0x3d700b2a	0.058604397
83	0xbd442cea	-0.047894396
84	0xbdf84992	-0.121234074
85	0xbda6c3a1	-0.08142782
86	0xbd549d92	-0.051908083
87	0xbdd606b8	-0.104505
88	0xbde296c4	-0.110639125
89	0xbd619cb0	-0.05508107
90	0xbde12a72	-0.10994424
91	0x3d6f2bf2	0.05839152
92	0x3c6748b1	0.014116452
93	0x3b845100	0.0040379763
94	0xbdf9e8af	-0.12202584
95	0xbdc70757	-0.09718197
96	0x3e28278b	0.16421334
97	0x3da3c7b0	0.07997072
98	0x3dc9b541	0.098490246
99	0x3dc669d0	0.09688151
100	0x3e25cc1a	0.1619114
101	0x3dd10097	0.10205191
102	0x3dac2db9	0.084071584
103	0xbe0926a0	-0.1339364
104	0xbcedb504	-0.029016979
105	0xbd901538	-0.07035297
106	0xbde17dd4	-0.11010328
107	0xbe2ad23c	-0.1668176
108	0x3dcaf2cf	0.09909593
109	0xbde58d62	-0.11208607
110	0x3d8fce42	0.070217624
111	0x3dfbbd7f	0.12292003
112	0xbcda2a65	-0.026631543
113	0x3e03e4ca	0.12880245
114	0x3d73ce91	0.05952317
115	0xbd8b7911	-0.06810201
116	0xbe0ba5a9	-0.13637413
117	0x3c9e1456	0.019296806
118	0x3d7af308	0.06126693
119	0xbd6f2a2f	-0.05838984
120	0xbe1f7693	-0.15572576
121	0x3ded627f	0.11591052
122	0xbdc08b46	-0.09401564
123	0xbdcc1af8	-0.099660814
124	0xbd85925b	-0.06522056
125	0xbe174bf0	-0.14775062
126	0xbd818a76	-0.063252375
127	0x3dbbac01	0.091636665
128	0xbddc0094	-0.10742298
129	0xbdbe8316	-0.093023464
130	0xbc9953b8	-0.018716678
131	0x3e0e9dbb	0.13927357
132	0x3e0df904	0.13864523
133	0x3d9c9661	0.0764587
134	0x3e0d1b6b	0.1377999
135	0x3c39e778	0.01134669
136	0xbe0b0a2b	-0.13578098
137	0xbde11507	-0.10990339
138	0x3e18d8a4	0.14926392
139	0x3da58daf	0.080836646
140	0xbda7fb76	-0.08202259
141	0xbb420602	-0.0029605632
142	0x3dc68c26	0.096947
143	0xbe143006	-0.14471444
144	0xbe049ae0	-0.12949705
145	0xbd2fbc90	-0.042904437
146	0xbe18ceee	-0.14922687
147	0xbdbe6076	-0.09295742
148	0xbe33a8c3	-0.17544846
149	0xbe0210ae	-0.12701675
150	0xbdb999dd	-0.0906255
151	0x3df92c83	0.12166693
152	0xbd86e4b2	-0.06586589
153	0xbd40f001	-0.047103886
154	0xbe05abc9	-0.13053812
155	0xbe160b29	-0.14652695
156	0xbdfdffd1	-0.12402309
157	0x3d9b20d4	0.07574621
158	0xbd8c27cd	-0.06843529
159	0x3d8144b5	0.06311933
160	0xbd9f697a	-0.0778379
161	0x3e2d9321	0.16950656
162	0x3d9a9ebd	0.07549808
163	0x3b9f3450	0.004858531
164	0xbdebe7b3	-0.115188025
165	0xbd8debcf	-0.069297425
166	0xbbafd143	-0.005365522
167	0xbe2145ca	-0.15749279
168	0x3ce74856	0.028232735
169	0xbe2f6fa3	-0.1713243
170	0x39556176	0.0002034957
171	0xbe26adbd	-0.16277213
172	0x3e2c88fd	0.16849132
173	0xbe139a0b	-0.14414231
174	0x3e302766	0.1720253
175	0xbdce0f41	-0.10061503
176	0x3d946371	0.072455294
177	0x3e1fe2c1	0.15613844
178	0x3e089133	0.13336639
179	0x3de156d3	0.110028885
180	0x3e190516	0.14943346
181	0xbd69a51b	-0.057042222
182	0x3e194880	0.14969063
183	0xbdd8b519	-0.10581417
184	0x3e0d5a71	0.13804032
185	0xbdcfef25	-0.10153035
186	0xbdd419df	-0.10356497
187	0x3da3f7a9	0.08006222
188	0xbdedb2b1	-0.11606348
189	0xbe27fc00	-0.16404724
190	0x3e1438d8	0.14474809
191	0x3b8f8fba	0.004381147
192	0xbc8807fe	-0.016605373
193	0xbda13af0	-0.078725696
194	0xbe30e6d6	-0.17275557
195	0xbe233386	-0.15937623
196	0xbe33f80e	-0.17575094
197	0xbc305065	-0.010761355
198	0x3da8a037	0.082336836
199	0xbd1fb3c9	-0.038989816
200	0x3e1a6954	0.15079242
201	0xbdb6b112	-0.08920492
202	0x3c25c3dd	0.010117498
203	0x3dd0700b	0.101776205
204	0xbbe154e3	-0.0068765744
205	0xbe155519	-0.14583243
206	0x3d8fc7b1	0.0702051
207	0x3d822605	0.06354908
208	0xbdc649c2	-0.09682037
209	0x3d869b3f	0.065725796
210	0x3dc0c7b0	0.09413087
211	0xbd296900	-0.0413599
212	0x3d8a28c6	0.06746058
213	0x3cbd1efb	0.023086062
214	0xbc7cf055	-0.015438159
215	0xbd1654fe	-0.03670215
216	0x3e0e4220	0.13892412
217	0xbda6dfae	-0.08148132
218	0xbe2f03d3	-0.17091303
219	0x3bf46994	0.007458875
220	0x3d95f43e	0.07321976
221	0xbdd81151	-0.10550178
222	0x3d9adb42	0.07561351
223	0x3cffb3bf	0.03121364
224	0xbd73cfc3	-0.05952431
225	0x3d3dbd43	0.046323072
226	0x3d89d97f	0.06730937
227	0x3dbc994c	0.092089266
228	0x3e04e6b3	0.1297863
229	0xbd3d5af5	-0.04622932
230	0x3e1a0e55	0.1504453
231	0xbb23e2a8	-0.0025006924
232	0x3e1be9c4	0.15225893
233	0xbd679eea	-0.056548037
234	0xbd10e874	-0.035377935
235	0x3c3174d0	0.010831073
236	0xbdc0c4d8	-0.09412545
237	0xbd97456f	-0.0738629
238	0xb9b4df54	-0.00034498668
239	0xbe1ca149	-0.152959
240	0x3ded3263	0.11581876
241	0x3df1023c	0.11768004
242	0xbde5b0ef	-0.11215388
243	0x3d3e157b	0.046407204
244	0x3d0d1fd5	0.034454186
245	0xbd4bcc02	-0.049755104
246	0x3dd8c011	0.10583509
247	0x3cd5d8b1	0.026104303
248	0xbe042388	-0.12904179
249	0xbe2b2dfd	-0.16716762
250	0xbdde081c	-0.108413905
251	0xbcb46973	-0.022022938
252	0xbe0de2fa	-0.13856116
253	0x3e19b279	0.15009488
254	0x3d473d45	0.048642416
255	0x3b6711af	0.0035258343

critic.0.bias f4 [128]
0	0x3e2f26cd	0.17104645
1	0xbe164cdc	-0.14677757
2	0xbd7c2872	-0.06156201
3	0xbcbb1654	-0.022837795
4	0xbd217308	-0.039416343
5	0x3e2a8fca	0.16656414
6	0xbd159b00	-0.036524773
7	0x3e373d9d	0.17894597
8	0x3df25cdd	0.118341185
9	0x3db10a2a	0.08644517
10	0x3d9b592e	0.07585369
11	0xbe291a5c	-0.16513962
12	0x3e089ce9	0.13341106
13	0x3e1618f2	0.14657953
14	0x3dc7c434	0.0975422
15	0x3deef532	0.11667861
16	0x3da329e2	0.07966973
17	0x3c7357ee	0.014852507
18	0x3dc1af54	0.09457269
19	0x3dd81272	0.10550393
20	0x3d992007	0.07476812
21	0xba7566a5	-0.00093613035
22	0x3dd43d69	0.103632756
23	0x3c6168c6	0.01375789
24	0xbd3f58c4	-0.046715513
25	0x3dd72289	0.10504634
26	0xbe268dd4	-0.1626504
27	0x3cff9b65	0.031202028
28	0x3d2c6713	0.042090487
29	0x3de28d6d	0.11062131
30	0xbe0357eb	-0.12826507
31	0xbd0e94f8	-0.034810036
32	0xbd82ff6f	-0.06396376
33	0xbe030a48	-0.1279689
34	0x3de93fff	0.113891594
35	0x3e1dae23	0.15398459
36	0x3e079bee	0.13243076
37	0xbbb655e3	-0.0055644377
38	0x3d1daf7d	0.038497437
39	0x3d8c3a8f	0.06847107
40	0x3db99810	0.09062207
41	0xbcb9a33b	-0.022660842
42	0x3de8779f	0.11350941
43	0x3d8beb36	0.06831972
44	0xbd248dc4	-0.04017426
45	0xbd84840d	-0.06470499
46	0xbc166517	-0.009179375
47	0x3d82adfe	0.063808426
48	0x3e1697cb	0.14706342
49	0xbe00ae7e	-0.12566563
50	0xbe07d69a	-0.13265458
51	0xbd20a4a5	-0.039219517
52	0x3e302d97	0.17204891
53	0x3d5833c4	0.052783743
54	0x3d5cec5c	0.053936347
55	0xbe08dbd2	-0.13365105
56	0xbc9f5de5	-0.019453952
57	0xbdcc2f7a	-0.09969993
58	0xbd4f545b	-0.050617557
59	0xbdd8e841	-0.10591174
60	0xbdadc367	-0.08484536
61	0xbe0c656c	-0.13710564
62	0x3e1af0de	0.15130946
63	0xbdfeb1a7	-0.12436228
64	0x3d261778	0.040549725
65	0xbd943677	-0.07236951
66	0x3d5e677c	0.05429791
67	0xbe25cb47	-0.16190825
68	0xbdc49fe4	-0.09600809
69	0x3df69c21	0.12041498
70	0xbc386f9c	-0.0112570785
71	0x3db1a9f0	0.08674991
72	0xbdf20d5b	-0.118189536
73	0xbb2d6bd7	-0.0026461983
74	0x3e25cbad	0.16190977
75	0x3d1168c1	0.03550029
76	0x3e07c92d	0.13260336
77	0xbe244577	-0.16042124
78	0x3e091c84	0.13389784
79	0x3e2e91e2	0.17047837
80	0x3e0d009e	0.13769767
81	0xbde9aa29	-0.114094086
82	0xbd67578d	-0.05647998
83	0x3e123f19	0.14281882
84	0x3d33dc23	0.04391111
85	0xbdb9adac	-0.090663284
86	0xbe0b175f	-0.13583134
87	0xbd87fa85	-0.0663958
88	0xbe043a39	-0.12912835
89	0xbc99dcff	-0.018782137
90	0xbd4ebd40	-0.05047345
91	0xbe30ccfb	-0.17265694
92	0x3daae6ac	0.083447784
93	0x3c734876	0.014848819
94	0xbe112a70	-0.14176345
95	0x3e20af19	0.15691794
96	0x3d3436dc	0.04399763
97	0xbdf8fb9d	-0.121573664
98	0x3d8f3754	0.06992975
99	0x3cd87499	0.026422786
100	0x3db9c36e	0.090704784
101	0x3e26869b	0.16262285
102	0xbe07c77a	-0.13259688
103	0x3d4ba45a	0.049717285
104	0x3d7c6020	0.06161511
105	0x3e2e0c4e	0.16996881
106	0xbda07137	-0.07834094
107	0x3e336fb7	0.17523085
108	0x3d7b3899	0.061333273
109	0xbdcec852	-0.10096802
110	0x3e25a985	0.16177948
111	0x3d0a8d8e	0.033826403
112	0xbe2841e7	-0.1643139
113	0xbdc5e1b4	-0.0966219
114	0x3cf6f339	0.030145274
115	0xbe11e157	-0.14246117
116	0xbe297004	-0.16546637
117	0xbe17e8b5	-0.14834864
118	0x3ddcffde	0.1079099
119	0x3e18ac1a	0.14909402
120	0x3e0a3268	0.13495791
121	0xbe17843b	-0.14796536
122	0x3df4d78a	0.11955173
123	0xbd683850	-0.05669433
124	0xbd299ae3	-0.041407477
125	0x3d2b3717	0.041800585
126	0x3d49bb7a	0.049251057
127	0x3e063fdd	0.131103

critic.2.weight f4 [64, 128]
0	0x3da29490	0.07938492
1	0xbd256b82	-0.04038573
2	0xbda58a0a	-0.080829695
3	0x3cb206d1	0.021731766
4	0x3b9c6f2b	0.0047739944
5	0xbc9291ae	-0.017891731
6	0xbdacd49c	-0.084389895
7	0xbd2ded00	-0.04246235
8	0x3c8d4bcb	0.017248055
9	0xbd1ce8e7	-0.03830805
10	0x3d8345b3	0.064097784
11	0xbd128e25	-0.03578009
12	0xbd72368c	-0.05913405
13	0x3daf5cc0	0.085626125
14	0xbd9dafa2	-0.07699515
15	0xbd08119c	-0.03321992
16	0xbd574e82	-0.052565105
17	0x3d94be34	0.07262841
18	0x3d0cb397	0.034350958
19	0xbd83d381	-0.064368255
20	0x3d3f3cad	0.046688724
21	0x3d9cf5c8	0.076640666
22	0x3d4d152d	0.050069023
23	0x3d293387	0.041308906
24	0xbdbc0f96	-0.0918266
25	0xbd39192e	-0.04519003
26	0x3d1fd01b	0.039016824
27	0x3d27d788	0.04097703
28	0xbadbda9b	-0.0016773524
29	0xbd8305fb	-0.06397625
30	0x3d6fb70c	0.058524176
31	0x3cc41c8a	0.02393939
32	0xbd89f8ce	-0.06736909
33	0xbd899f22	-0.06719805
34	0xbce0cd3b	-0.027441612
35	0xbc15f095	-0.0091515975
36	0x3c4b97b1	0.012426303
37	0x3bc97f87	0.0061492356
38	0xbd871b60	-0.06597018
39	0xbd806c90	-0.06270707
40	0x3d8c2b8d	0.06844244
41	0xbbb1d9e6	-0.005427587
42	0x3d988f68	0.074492276
43	0xbd8038e0	-0.06260848
44	0xbd38da50	-0.045130074
45	0xbd8cdbed	-0.06877885
46	0x3d4a20ca	0.049347676
47	0x3b948ce2	0.004533396
48	0x3ce78f21	0.028266491
49	0x3b61d896	0.003446137
50	0x3cd48e5a	0.025946785
51	0xbda93fe8	-0.08264142
52	0xbcfc013d	-0.03076231
53	0xbcfdf49f	-0.031000433
54	0x3daaf7ee	0.0834807
55	0xbd7d1f82	-0.061797626
56	0xbdb1595a	-0.086596206
57	0xbd02d3ef	-0.031940397
58	0x3d9c2cdd	0.076257445
59	0x3b7b5920	0.0038352683
60	0xbc7a5324	-0.015278611
61	0xbda15e4e	-0.07879315
62	0x3cbf558c	0.023356222
63	0xbd88af38	-0.06674045
64	0x3d0b5dbe	0.034024946
65	0xbcc802ed	-0.024415458
66	0x3c92dd66	0.017927837
67	0x3c7c251c	0.015389707
68	0xbd5eafa5	-0.054366726
69	0xbd789185	-0.060685653
70	0xbc84c213	-0.016205823
71	0xbc309f82	-0.010780217
72	0xbc9173d3	-0.017755425
73	0x3d800e3f	0.06252717
74	0xbd91a026	-0.07110624
75	0x3c20d504	0.009816412
76	0x3d9d3641	0.07676364
77	0x3d22d5ff	0.039754864
78	0xbd82b492	-0.06382097
79	0xbd6b350c	-0.057423636
80	0xbd4bf343	-0.04979254
81	0xbd993cb7	-0.074822836
82	0x3d4ff6c4	0.050772443
83	0xbd9b47b3	-0.07582035
84	0x3d143ae2	0.036188968
85	0x3d9bcf8e	0.07607947
86	0xbd9ec8f7	-0.07753175
87	0xbdb5c120	-0.08874726
88	0x3c844749	0.016147273
89	0xbd3de1df	-0.046357986
90	0x3d8b2969	0.06795008
91	0x3960aee5	0.00021427458
92	0xbd16c7ff	-0.036811825
93	0x3d2654f4	0.04060836
94	0xbd696110	-0.05697733
95	0x3d2631ca	0.040574826
96	0xbdba8277	-0.091069154
97	0x3d916dc7	0.071010165
98	0xbdac769f	-0.08421063
99	0xbd9b13bc	-0.075721234
100	0xbc9f8c03	-0.019475942
101	0xbd9c9c8b	-0.07647046
102	0x3a7bca0c	0.00096049975
103	0xbd706701	-0.058691982
104	0xbd8ebc22	-0.06969477
105	0x3d3d8287	0.04626706
106	0xbdb30271	-0.087407
107	0x3d0f179a	0.034934618
108	0x3cb054b1	0.021524759
109	0xbd4681e5	-0.04846372
110	0x3ce83d73	0.028349614
111	0x3cf80f99	0.030280875
112	0x3dac4e5a	0.08413382
113	0x3dabe44b	0.08393153
114	0xbd9901f8	-0.07471079
115	0x3d94a990	0.07258904
116	0x3d1a1deb	0.03762619
117	0x3d2b1dd1	0.041776482
118	0x3c90df0e	0.017684486
119	0xbca35ccb	-0.019941708
120	0x3d9b852b	0.07593759
121	0xbc82befb	-0.015960207
122	0x3da67ca1	0.0812924
123	0xbd49663a	-0.049169756
124	0x3cbdcdef	0.023169486
125	0x3d809207	0.062778525
126	0xbdaf3669	-0.085553
127	0xbd7a130f	-0.061053332
128	0xbcfdbda8	-0.030974224
129	0xbc5cfebf	-0.013488471
130	0x3ca1a689	0.01973273
131	0xbd3e723b	-0.046495657
132	0x3d0cc125	0.034363884
133	0x3b8537b2	0.0040654773
134	0xbd914388	-0.07092959
135	0x3d66c596	0.056340776
136	0xbd86f9ce	-0.06590615
137	0xbcbe17ed	-0.023204768
138	0xbcd2203b	-0.025650134
139	0xbb8217ed	-0.0039701373
140	0xbd1d6601	-0.038427357
141	0xbdaaea99	-0.08345527
142	0xbd21234b	-0.0393403
143	0x3ba87604	0.0051410217
144	0xbc4d472c	-0.012529176
145	0xbd996f1b	-0.07491895
146	0xbdae1ba2	-0.08501364
147	0x3d08d8b0	0.033409774
148	0x3b1b1b29	0.0023667312
149	0x3d354074	0.04425092
150	0x3d34f7c5	0.044181604
151	0x3d99208d	0.07476912
152	0xbdaf091f	-0.085466616
153	0x3d9babee	0.07601152
154	0x3ca87583	0.020563846
155	0xbd7ca39f	-0.06167948
156	0xbd745b14	-0.05965717
157	0x3cce8a89	0.025212543
158	0x3d46fc01	0.048580173
159	0x3daad4fe	0.08341406
160	0x3b13704c	0.0022497354
161	0x3d07ad09	0.033124004
162	0x3d4ad0c6	0.049515508
163	0x3d9c04d4	0.076181084
164	0x3bb93289	0.005651776
165	0x3d5ac80a	0.05341343
166	0x3c8c29c8	0.017109767
167	0xba3a471a	-0.0007105932
168	0xbc0d39f1	-0.008619771
169	0xbcf270a9	-0.029594736
170	0xbd19b7bd	-0.037528742
171	0xbc8a428f	-0.01687744
172	0xbc0cae52	-0.008586483
173	0xbcb83aa2	-0.022488896
174	0xbd83ef3e	-0.06442116
175	0x3d6a932a	0.057269253
176	0xbcb1e0ec	-0.021713696
177	0xbd8bc3b4	-0.06824437
178	0xbd00a9cd	-0.031411935
179	0xbd6b9a3e	-0.057520144
180	0x3d44e013	0.048065256
181	0xbd038dd3	-0.032117676
182	0x3d029d0f	0.031888064
183	0x3c345f0b	0.011008988
184	0xbbf5119b	-0.0074789054
185	0xbd621b0b	-0.05520157
186	0x3daf3d5c	0.08556625
187	0x3ce1e7b3	0.027576303
188	0x3d9735da	0.07383318
189	0x3d4aa111	0.04947001
190	0xbd69c3fe	-0.05707168
191	0xbdb2db02	-0.08733179
192	0xbd8a6a98	-0.067586124
193	0x3d568912	0.052376814
194	0x3bdd856f	0.0067602913
195	0xbcf7c0cc	-0.0302433
196	0xbc8c5040	-0.01712811
197	0x3d792a86	0.06083157
198	0xbd5652fd	-0.052325238
199	0x3cf18948	0.029484406
200	0xbcd72b8d	-0.026265884
201	0x3d4842cb	0.048891824
202	0xbb6ed4b2	-0.0036442694
203	0x3d16fe94	0.03686388
204	0xbd3f2ecb	-0.046675485
205	0x3d17078f	0.036872443
206	0x3d4df959	0.050286625
207	0xbd0cb175	-0.034348924
208	0xbb87935d	-0.00413744
209	0x3c722133	0.014778423
210	0xbcaa553e	-0.0207926
211	0xb92373c0	-0.00015588012
212	0xbd33a1c8	-0.04385546
213	0xbc87c35d	-0.016572649
214	0x3d63e69e	0.055639856
215	0x3d8fa925	0.07014684
216	0x3cafff8d	0.02148416
217	0x3db921a8	0.090396225
218	0xbbe4ebd5	-0.006986121
219	0xbd57b104	-0.05265905
220	0xbaaea004	-0.0013322835
221	0x3caa9c3d	0.020826453
222	0x3c6bdaf7	0.014395467
223	0xbc21ecfd	-0.009883163
224	0x3d8c5200	0.06851578
225	0x3d8e4880	0.06947422
226	0x3da65640	0.0812192
227	0x3d9d5def	0.07683932
228	0xbd090214	-0.033449247
229	0x3d1d045f	0.038334247
230	0x3cce1b9f	0.025159655
231	0x3cfea2ac	0.031083427
232	0xbd7a153a	-0.0610554
233	0xbda714c6	-0.08158259
234	0x3cfcc4ee	0.030855622
235	0xbd293e41	-0.041319136
236	0xbd7e3472	-0.062061734
237	0x3d802d0b	0.06258591
238	0xbd5c5e3c	-0.053800806
239	0x3da737ec	0.08164963
240	0xbc018bf8	-0.007906906
241	0xbd07a319	-0.033114526
242	0xbc8faf6e	-0.017539706
243	0x3d162d95	0.036664564
244	0xbdac67c0	-0.08418226
245	0x3d36a690	0.04459244
246	0xbce396b6	-0.027781826
247	0x3ce088b6	0.027408939
248	0xbd2993e4	-0.041400805
249	0xbb5401eb	-0.0032349776
250	0xbd48a48e	-0.048985057
251	0xbd289049	-0.041153226
252	0x3d350dbc	0.04420255
253	0xbda5e9ed	-0.081012584
254	0x3d9ec6ef	0.07752787
255	0x3d86b7e9	0.06578047

critic.2.bias f4 [64]
0	0xbdbad57e	-0.09122752
1	0xbd4a9727	-0.049460556
2	0x3c3c2baf	0.011485024
3	0xbda4f713	-0.08054938
4	0x3d89406f	0.06701743
5	0x3cb9036c	0.02258464
6	0x3d7b0ea6	0.061293267
7	0xbd44311f	-0.047898408
8	0xbd1602d0	-0.036623776
9	0xbd5942fd	-0.0530424
10	0x3d85d6b0	0.06535089
11	0x3d83dfda	0.06439181
12	0x3cc84ce3	0.024450725
13	0x3d733a0d	0.059381533
14	0xbd66aa7a	-0.056314923
15	0xbd8abc0b	-0.067741476
16	0x3d6bfd94	0.057614878
17	0x3d26e9e6	0.040750407
18	0xbca5b33e	-0.02022707
19	0x3c8f3810	0.017482787
20	0xbd2e4280	-0.042543888
21	0xbd81956f	-0.0632733
22	0x3d8c7db4	0.068599135
23	0x3d9b2dd3	0.075771
24	0xbdb8f100	-0.09030342
25	0x3da1f825	0.07908658
26	0x3d1a1aad	0.037623096
27	0x3c246f0a	0.010036239
28	0xbda74056	-0.08166568
29	0x3be746e2	0.0070580104
30	0x3db59735	0.08866731
31	0x3cbeaeb2	0.02327666
32	0xbdb4bb69	-0.08824808
33	0x3c8719b0	0.016491741
34	0x3da6338e	0.08115302
35	0xbca620a1	-0.02027923
36	0xbd20cb5d	-0.039256442
37	0x3d78dda2	0.06075824
38	0xbd91ae2e	-0.071133
39	0xbd677de4	-0.056516543
40	0xbdaeea55	-0.08540789
41	0xbd5037de	-0.05083453
42	0x3ca06f48	0.019584313
43	0x3d8e3411	0.06943525
44	0xbc6e2506	-0.014535194
45	0xbd9dd89e	-0.07707332
46	0xbd959dde	-0.073055014
47	0xbd977207	-0.07394796
48	0x3c881c03	0.01661492
49	0x3d81e0c1	0.063416965
50	0x3cee6dd5	0.029105106
51	0xbce873db	-0.028375557
52	0x3c1f1313	0.0097091375
53	0x3d87c237	0.066288404
54	0x3d58344d	0.052784253
55	0x3d83f385	0.06442932
56	0x3d983977	0.074328355
57	0xbd347e28	-0.044065624
58	0xbd75b742	-0.05998922
59	0xbd5b8f02	-0.05360318
60	0xbca19f17	-0.01972918
61	0x3dac03cb	0.08399161
62	0x3d3e52f2	0.04646582
63	0xbd042020	-0.0322572

critic.4.weight f4 [1, 64]
0	0x3d0cf8cf	0.03441697
1	0xbd911b48	-0.070852816
2	0x3d8acb4f	0.06777059
3	0x3dc640de	0.09680341
4	0x3dafcc52	0.08583893
5	0x3d693f65	0.056945223
6	0xbc92b4a9	-0.017908411
7	0x3d8ef3f0	0.06980121
8	0xbd100660	-0.03516233
9	0x3d3b5d65	0.045743365
10	0x3c4c6bdb	0.012476887
11	0x3b9b53c0	0.0047402084
12	0xbdc9fdfa	-0.09862895
13	0x3ddb0072	0.10693444
14	0x3dd2bd1c	0.10289976
15	0xbd7495b1	-0.05971307
16	0xbd7684af	-0.06018513
17	0x3d5fb63c	0.05461715
18	0xbd0d1896	-0.034447275
19	0x3d2ec7ec	0.04267113
20	0x3dcfdbc6	0.1014934
21	0x3c1d7cc7	0.009612269
22	0x3da6adce	0.08138619
23	0xbd18d7f1	-0.037315313
24	0x3de1be0e	0.11022578
25	0x3d958a3e	0.07301758
26	0x3d13e243	0.036104452
27	0x3cc18cb8	0.02362667
28	0x3d7a0b2c	0.06104581
29	0x3c9f777a	0.01946615
30	0xbdf5a547	-0.11994415
31	0x3cb2cea8	0.021827057
32	0xbdb29a5e	-0.087208495
33	0x3aaf7366	0.0013385832
34	0x3c271300	0.010197401
35	0xbc221599	-0.009892845
36	0x3def6a9a	0.116902545
37	0xbd4e2a56	-0.050333343
38	0xbccb26df	-0.024798809
39	0x3d96d9ec	0.07365784
40	0x3ca78d78	0.0204532
41	0x3ce56ed5	0.02800695
42	0xbcecc8f8	-0.028904423
43	0xbd88f0fc	-0.06686589
44	0xbdd52b7e	-0.10408686
45	0x3d6af040	0.057358027
46	0xbb6e04a5	-0.0036318686
47	0x3ccb8cd0	0.024847418
48	0x3c19c0e0	0.009384364
49	0x3d608e6b	0.05482332
50	0x3d91ccb6	0.07119124
51	0xbd36c0c3	-0.044617426
52	0xbd33ec08	-0.04392627
53	0x3dedf8c3	0.11619713
54	0xbda22134	-0.07916489
55	0x3d068a94	0.032847002
56	0x3c8876a0	0.016658127
57	0x3c6cbac0	0.014448822
58	0xbd67a2e4	-0.05655183
59	0xbdbc77a2	-0.09202506
60	0x3decd4a7	0.11563998
61	0xbd66d1e8	-0.056352526
62	0x3debda8a	0.115162924
63	0xbd9b0dd5	-0.075709976
