models/saved_models/drl_agent.pth (torch, 105955 bytes, 11 tensors)

actor.0.weight f4 [128, 32]
-0.072848044 -0.16013168 0.068566576 -0.0949053 0.09597604 0.024619913 0.023449346 -0.08212117
-0.07072001 -0.12008619 -0.11554676 -0.096131794 -0.08695358 0.08136184 0.038799755 0.1526769
0.045943435 0.1363243 0.09818544 0.0029448424 0.022224411 -0.018240986 -0.101363674 0.16919218
-0.030050596 0.16454595 0.10692712 -0.14790827 -0.0983166 -0.005257482 -0.07994641 -0.12539802
0.11795255 0.05308364 0.14581305 -0.033273607 -0.119644634 0.028854849 -0.07749482 -0.11144832
-0.13880844 -0.12574989 -0.044160433 0.022793373 0.16525744 -0.036195796 0.07887403 0.16258144
-0.002219748 -0.12491199 -0.168943 -0.14805277 0.061285943 -0.052676775 -0.0962949 0.05189596
-0.038338922 -0.07477559 0.14670607 -0.13656159 0.16727152 -0.06415094 -0.094022624 0.15400808
-0.117329635 -0.121745236 0.12361683 -0.027706852 -0.049632255 -0.05147036 -0.0056404285 -0.044692516
-0.12635475 -0.088644244 -0.09324318 -0.12774579 0.11500908 -0.16746797 -0.134294 0.020438988
0.040053055 0.1565314 -0.031310916 -0.025310025 -0.009219623 -0.027654486 0.08394906 0.16192129
0.034702934 -0.11388487 -0.07671464 0.03198931 -0.15446569 -0.10119397 0.12833005 0.0014682697
-0.0034113026 0.14724308 -0.052891344 0.017558187 0.14137043 0.055108353 -0.14306056 -0.109291606
-0.10012296 0.087078236 -0.14441596 0.114730254 -0.04936028 -0.12443916 0.0025676282 0.03118148
0.024671754 0.17116117 -0.06792162 -0.037950158 0.003281722 -0.13549392 0.1053476 0.1640017
0.14302252 0.16222204 -0.15449895 0.01795032 0.123866424 -0.12049717 0.10318714 0.023405157
-0.038560867 0.12128921 -0.061305266 0.14301173 0.05848855 0.07450049 0.1742213 -0.018909626
0.1405438 -0.16608231 -0.029239776 0.13810875 0.123842426 0.11375527 0.17030348 -0.13313185
0.09392457 -0.014035512 0.03120165 -0.01740568 0.14635023 -0.13517731 0.12948717 -0.06493719
0.027515506 -0.15045664 -0.008686107 -0.081799574 0.02667455 -0.010112967 0.116703145 0.11458181
-0.05455783 0.06082631 -0.110195756 -0.015739867 0.08456826 0.11080944 0.075578526 0.084795095
-0.1492324 -0.04903031 -0.16651225 0.06631674 0.10957487 0.15910326 0.04800842 -0.11594067
0.12532625 -0.0029749142 0.07551312 -0.0491706 0.1193831 -0.11946817 0.0065795234 -0.13687488
0.13787298 0.016743615 0.10426207 0.116279505 -0.012469882 -0.16218866 0.09385235 -0.059266116
0.10234161 -0.09371147 0.027413953 -0.090993844 0.16189106 -0.0055881874 0.04400015 -0.01923167
0.13832769 0.10320077 0.10918101 0.10939149 -0.03963475 -0.12777743 0.021717764 0.10551126
0.060714114 -0.1696547 -0.17669107 -0.07885654 -0.13907473 -0.08384474 -0.14906529 0.11233528
0.16497998 0.00036107205 0.1150755 0.14476357 -0.04317624 -0.09917383 -0.14229742 -0.039150354
0.12662873 -0.11202904 -0.04809893 0.029371949 0.1579738 -0.0483826 -0.123832054 -0.121562764
-0.16777338 -0.048221704 0.04538676 -0.09988377 0.013681204 -0.016350996 0.105305605 0.083163805
0.00329405 -0.12279351 0.16749299 0.16423781 -0.13970433 0.13799521 0.16159603 0.01038884
0.041854516 -0.09465761 -0.068602085 -0.16239138 -0.06837692 -0.14542283 0.06979088 -0.09152234
00000000: 5b31 95bd 8ff9 23be a26c 8c3d b65d c2bd
00000010: 168f c43d b3af c93c d818 c03c 252f a8bd
00000020: a7d5 90bd c0ef f5bd c8a3 ecbd bfe0 c4bd
00000030: b814 b2bd 09a1 a63d 7eec 1e3d 5557 1c3e
00000040: 2f2f 3c3d 9998 0b3e 7315 c93d 42fe 403b
00000050: f80f b63c 1f6e 95bc c297 cfbd b740 2d3e
00000060: ab2c f6bc bc7e 283e 9bfc da3d 4475 17be
00000070: 375a c9bd f546 acbb f2ba a3bd 5768 00be
00000080: 1b91 f13d 3b6e 593d 0450 153e e849 08bd
00000090: 3f08 f5bd 0161 ec3c 9bb5 9ebd 043f e4bd
000000a0: cd23 0ebe 94c4 00be 92e1 34bd 2bb9 ba3c
000000b0: 3f39 293e 0b42 14bd b588 a13d c07b 263e
000000c0: 3179 11bb dbd1 ffbd 65ff 2cbe 259b 17be
000000d0: f806 7b3d 9ac3 57bd 4336 c5bd dc90 543d
000000e0: 4609 1dbd f223 99bd 1e3a 163e cdd6 0bbe
000000f0: 3a49 2b3e 9161 83bd ef8e c0bd 4bb4 1d3e
00000100: 854a f0bd 9155 f9bd d22a fd3d 7bf9 e2bc
00000110: 314b 4bbd 96d2 52bd 58d3 b8bb 800f 37bd
00000120: 2463 01be 1d8b b5bd 48f6 bebd cbcf 02be
00000130: e189 eb3d b97c 2bbe 5e84 09be aa6f a73c
00000140: ac0e 243d c449 203e e03f 00bd f856 cfbc
00000150: e70d 17bc a98b e2bc 7ced ab3d b2ce 253e
00000160: aa24 0e3d 793c e9bd 911c 9dbd 3907 033d
00000170: 412c 1ebe c93e cfbd f468 033e f572 c03a
00000180: 2990 5fbb e4c6 163e 98a4 58bd 30d6 8f3c
00000190: 69c3 103e 4cb9 613d 787e 12be 47d4 dfbd
000001a0: 440d cdbd 1356 b23d c7e1 13be b2f7 ea3d
000001b0: 012e 4abd f5d9 febd a745 283b 4e70 ff3c
000001c0: 6b1c ca3c e044 2f3e 7e1a 8bbd a071 1bbd
000001d0: 2912 573b ebbe 0abe 7cc0 d73d 10f0 273e
000001e0: 7f74 123e 891d 263e f934 1ebe 8d0c 933c
000001f0: aead fd3d 38c7 f6bd c753 d33d 2cbc bf3c
00000200: 00f2 1dbd 7a66 f83d 3b1b 7bbd ab71 123e
00000210: b191 6f3d b793 983d 1267 323e 5ce8 9abc
00000220: b7ea 0f3e 7b11 2abe 4188 efbc 616c 0d3e
00000230: 19a1 fd3d 86f8 e83d 0964 2e3e b753 08be
00000240: 865b c03d 34f5 65bc 9a9a ff3c 5b96 8ebc
00000250: d6dc 153e ec6b 0abe 4998 043e cafd 84bd
00000260: 3368 e13c 4e11 1abe 2c50 0ebc 8986 a7bd
00000270: 9684 da3c dcb0 25bc 0f02 ef3d dea9 ea3d
00000280: 0878 5fbd 0225 793d 50ae e1bd e5f0 80bc
00000290: 2032 ad3d 0ff0 e23d eac8 9a3d 0da9 ad3d
000002a0: 61d0 18be 02d4 48bd 3082 2abe 12d1 873d
000002b0: ca68 e03d f7eb 223e 7aa4 443d 4d72 edbd
000002c0: 8655 003e c7f6 42bb 9fa6 9a3d 1c67 49bd
000002d0: 207f f43d baab f4bd 0b99 d73b ee28 0cbe
000002e0: 932e 0d3e e829 893c 5a87 d53d f323 ee3d
000002f0: 7a4e 4cbc c914 26be a935 c03d 07c1 72bd
00000300: 7a98 d13d cdeb bfbd 3a93 e03c fb5a babd
00000310: c5c6 253e 1d1d b7bb 8039 343d bc8b 9dbc
00000320: c6a5 0d3e ed5a d33d 4b9a df3d a508 e03d
00000330: 0c58 22bd 16d8 02be 74e9 b13c 4a16 d83d
00000340: 5daf 783d f6b9 2dbe 81ee 34be 8a7f a1bd
00000350: 9b69 0ebe cbb6 abbd 92a4 18be 0a10 e63d
00000360: 83f0 283e 454e bd39 b4ac eb3d e73c 143e
00000370: 92d9 30bd a61b cbbd 6ab6 11be 1f5c 20bd
00000380: f6aa 013e 7b6f e5bd 6203 45bd 719d f03c
00000390: e2c3 213e d52c 46bd a99b fdbd e6f5 f8bd
000003a0: c9cc 2bbe 1f84 45bd 78e7 393d dd8f ccbd
000003b0: 2127 603c 86f2 85bc 77aa d73d c951 aa3d
000003c0: fde0 573b 2a7b fbbd 4883 2b3e f52d 283e
000003d0: a70e 0fbe 9e4e 0d3e 6e79 253e f435 2a3c
000003e0: a46f 2b3d d9db c1bd 407f 8cbd ed49 26be
000003f0: 3309 8cbd b9e9 14be 85ee 8e3d 1170 bbbd

actor.0.bias f4 [128]
0.16831678 0.069850035 -0.0683255 -0.12574342 0.1676935 0.1640371 0.12859519 0.026732333
0.041487187 0.1393066 0.14610091 0.070128374 -0.12784551 -0.12940373 -0.045045644 -0.17543994
-0.15093167 -0.056077816 -0.12481439 -0.09226881 0.005107924 0.08532362 -0.10069287 0.0026285935
0.087003335 0.016344843 -0.14790078 -0.020079665 -0.12220222 -0.08316264 0.04088242 -0.12924777
0.04001095 0.0834802 0.14219129 0.10061854 0.11697451 -0.12297386 -0.13443214 -0.08631784
0.04764379 0.06653337 -0.11878638 0.052813374 0.16809565 0.16912015 -0.062034808 -0.04954891
-0.10953589 0.12477282 0.14572442 -0.10492203 -0.021973407 -0.102282204 0.12244184 0.009204303
-0.070230596 -0.0929102 -0.06209314 -0.16161633 0.09076056 0.15480249 -0.06540894 0.012499364
-0.11459772 0.046223354 -0.07489216 0.15206394 0.15509677 -0.0985521 -0.13220884 -0.0779389
0.08822267 0.17170462 0.0801071 -0.056569584 0.10872574 0.02118292 0.069418155 0.02901292
0.000542156 -0.15393291 -0.14584178 -0.061800722 -0.15953216 -0.061719928 0.05490099 0.015677573
-0.03425759 0.0020553332 -0.16304302 0.031958017 -0.057547413 -0.14020552 0.13660252 0.107101634
-0.15947862 -0.058617458 -0.0039054744 -0.14199981 0.10615624 -0.16890723 -0.03292453 -0.02322266
-0.057727106 -0.030128231 0.056243874 0.0714533 0.09260299 -0.13066338 0.0972162 0.16046776
-0.14055622 0.028607236 -0.15062691 -0.13901764 0.07025414 -0.036070116 0.13148554 -0.06581846
-0.08686895 0.13574544 -0.013878978 -0.06568331 0.11682906 0.12269346 -0.01866979 -0.10966829
00000000: 3c5b 2c3e 890d 8f3d 3dee 8bbd e2c2 00be
00000010: d8b7 2b3e 57f9 273e 75ae 033e c4fd da3c
00000020: 78ee 293d 64a6 0e3e 7a9b 153e 779f 8f3d
00000030: efe9 02be 6982 04be c881 38bd 87a6 33be
00000040: d58d 1abe dab1 65bd b09e ffbd 6ef7 bcbd
00000050: 5f60 a73b 26be ae3d 1038 cebd 7b44 2c3b
00000060: ce2e b23d 9fe5 853c 4d73 17be 1c7e a4bc
00000070: 2845 fabd 2d51 aabd 5374 273d 8759 04be
00000080: 86e2 233d abf7 aa3d 989a 113e 1811 ce3d
00000090: 5590 ef3d b8d9 fbbd 94a8 09be 68c7 b0bd
000000a0: 2226 433d a642 883d 4646 f3bd d652 583d
000000b0: 4421 2c3e d52d 2d3e 3618 7ebd ccf3 4abd
000000c0: 5a54 e0bd e488 ff3d c838 153e 5ce1 d6bd
000000d0: 9301 b4bc 5579 d1bd cac2 fa3d a5cd 163c
000000e0: 0fd5 8fbd b447 bebd 6055 7ebd c07e 25be
000000f0: ace0 b93d 8b84 1e3e 1ff5 85bd 22ca 4c3c
00000100: 36b2 eabd b354 3d3d 1061 99bd a6b6 1b3e
00000110: b0d1 1e3e afd5 c9bd c161 07be 6e9e 9fbd
00000120: 16ae b43d 56d3 2f3e 310f a43d 82b5 67bd
00000130: 9aab de3d ce87 ad3c 1b2b 8e3d 81ac ed3c
00000140: 791f 0e3a 97a0 1dbe 8c57 15be c122 7dbd
00000150: 665c 23be 09ce 7cbd dcdf 603d 416e 803c
00000160: b051 0cbd c5b2 063b c0f4 26be 69e6 023d
00000170: d6b6 6bbd 0992 0fbe 88e1 0b3e 1a58 db3d
00000180: 5d4e 23be dc18 70bd fdf2 7fbb 6668 11be
00000190: 7168 d93d 04f6 2cbe dfdb 06bd 733d bebc
000001a0: 4273 6cbd 7bcf f6bc fa5f 663d 1c56 923d
000001b0: a3a6 bd3d 9fcc 05be 4919 c73d a951 243e
000001c0: f8ed 0fbe b959 ea3c f13d 1abe a45a 0ebe
000001d0: 67e1 8f3d 42be 13bd 25a4 063e d4cb 86bd
000001e0: 59e8 b1bd da00 0b3e a764 63bc f984 86bd
000001f0: 1344 ef3d b546 fb3d 63f1 98bc c599 e0bd

actor.2.weight f4 [64, 128]
-0.021526871 0.01887005 0.08518076 -0.03786752 0.00137522 0.029063486 -0.007461014 -0.049358428
0.08444616 0.007966977 -0.06655748 -0.03661852 -0.07725584 -0.010112378 0.036974438 -0.084226914
0.015998827 0.02317866 -0.034317482 0.025167527 -0.08783163 -0.017067514 0.043845683 -0.027304752
-0.040082537 0.06702668 -0.006753105 0.015879804 0.0863556 0.0573084 -0.043008465 -0.00695384
-0.059247456 0.039808605 0.074236594 0.009799743 0.013288122 0.0812744 0.008611455 0.067605175
0.027714988 0.030278822 -0.06755132 -0.049725376 0.07077939 0.003014195 -0.0780382 0.06238354
-0.020972893 0.0068540364 -0.023973811 -0.0041487566 -0.014066827 -0.0064002625 0.078855425 0.07810158
-0.0354178 -0.06312749 -0.024704028 -0.05907855 0.025762124 0.085180044 0.009676411 0.029387321
-0.068585575 0.062383447 0.05259045 0.07764707 -0.032230664 0.07314643 0.065749966 -0.02557692
0.0713806 0.0874602 -0.06629687 -0.044561703 -0.020401308 -0.041604977 0.028943473 -0.055461764
-0.07375888 0.03406343 -0.050972156 -0.022752924 0.04582764 -0.001627627 0.049760897 -0.08714744
-0.042943675 -0.027700363 -0.08039279 -0.03477135 0.0646178 -0.0027604816 0.06430371 -0.080868624
-0.07720759 0.07994854 -0.069734655 -0.053630043 -0.053103954 0.06013466 -0.018468622 0.061670564
0.03329361 0.005697664 0.059062548 -0.070238195 0.009203028 0.05813949 0.061406672 0.025582558
0.06219585 0.08791228 -0.032914013 -0.013858474 0.022755167 0.002561854 -0.051090073 0.04122341
-0.038609717 0.012859014 0.03984 -0.0410304 0.07118756 -0.014336999 0.04752211 -0.0341292
0.08584673 0.05160247 0.031689044 -0.07649736 0.087757975 0.023971166 0.004387708 0.08165044
-0.035393815 0.043468427 -0.040204015 0.07342693 0.014480624 0.06022305 0.037865613 0.02244034
-0.03487721 0.062803 -0.00033544676 0.014817399 -0.06626861 -0.038078297 -0.013830572 0.07233669
0.05611225 -0.07965998 0.04781149 0.001403037 0.07217167 0.01201358 -0.052619603 -0.08748182
0.0029278256 -0.03646148 0.07199295 0.03309441 0.043550823 0.063318476 0.057725545 0.052662898
0.060963623 -0.008788039 -0.08102961 0.087505266 -0.06771667 0.008863703 0.005683481 -0.059800528
0.041166786 -0.05316807 -0.0127819795 0.05780714 0.018400071 -0.07566104 -0.07835175 0.02417029
-0.021152545 -0.041493982 0.026107665 0.030576738 0.087636776 -0.0558622 -0.056647312 0.00050340197
-0.004938304 -0.07101054 0.08492162 -0.065874435 -0.08528933 0.032383054 0.04825635 0.08412857
-0.04053532 -0.07930291 0.066691644 -0.0843217 0.06910552 -0.0776861 0.03064001 0.035060193
0.053096347 -0.032879703 -0.0738228 0.032168962 0.003963658 0.06103085 0.049091037 0.06440012
-0.076324545 0.053013887 -0.08339107 0.015159853 -0.050514713 -0.0029002195 -0.054877914 0.04558169
0.0249862 0.07967666 0.046688043 -0.01880467 0.077290334 -0.05596129 -0.013070918 0.081960365
0.06894964 -0.0015406569 -0.058776844 0.08342867 -0.031921852 0.06329105 0.04417351 0.07828312
-0.03979397 -0.06530289 0.07223077 0.07243341 0.06198771 0.009619301 0.009781493 -0.0690084
-0.062760204 -0.062491942 0.035850424 -0.07385986 -0.030675624 -0.040483575 -0.0097531285 0.073178336
00000000: 1f59 b0bc 5d95 9a3c 4073 ae3d f91a 1bbd
00000010: ba40 b43a 8c16 ee3c 867b f4bb 102c 4abd
00000020: 1cf2 ac3d ec87 023c 4a4f 88bd 4dfd 15bd
00000030: 4f38 9ebd 63ae 25bc 8272 173d 297f acbd
00000040: f90f 833c 2ce1 bd3c 7d90 0cbd 212c ce3c
00000050: 12e1 b3bd 2cd1 8bbc 8897 333d 37ae dfbc
00000060: 962d 24bd 4945 893d 2749 ddbb 5d16 823c
00000070: 34db b03d 36bc 6a3d a529 30bd 0add e3bb
00000080: 76ad 72bd 590e 233d 5b09 983d 1a8f 203c
00000090: 6cb6 593c 3173 a63d 0f17 0d3c 9574 8a3d
000000a0: 8b0a e33c 4b0b f83c 5958 8abd d6ac 4bbd
000000b0: c9f4 903d cd89 453b 7ed2 9fbd e285 7f3d
000000c0: 58cf abbc d397 e03b ba64 c4bc 4bf2 87bb
000000d0: 8c78 66bc 4bb9 d1bb f47e a13d b9f3 9f3d
000000e0: 4112 11bd fc48 81bd 1a60 cabc 5afc 71bd
000000f0: 170b d33c e072 ae3d cf89 1e3c aebd f03c
00000100: 9876 8cbd c985 7f3d 1569 573d 6d05 9f3d
00000110: 4d04 04bd cccd 953d eba7 863d b086 d1bc
00000120: fe2f 923d 551e b33d a7c6 87bd 5586 36bd
00000130: a520 a7bc fb69 2abd dd1a ed3c e02b 63bd
00000140: e50e 97bd 1886 0b3d 2ec8 50bd 5764 babc
00000150: c3b5 3b3d 1956 d5ba 15d2 4b3d 5b7a b2bd
00000160: b5e5 2fbd dfeb e2bc faa4 a4bd 676c 0ebd
00000170: 5656 843d 32e9 34bb aab1 833d 739e a5bd
00000180: 031f 9ebd 0fbc a33d 0bd1 8ebd 2dab 5bbd
00000190: 8883 59bd c34f 763d 824b 97bc 469a 7c3d
000001a0: e15e 083d 78b3 ba3b 92eb 713d 0bd9 8fbd
000001b0: 4cc8 163c ad23 6e3d 9085 7b3d 8392 d13c
000001c0: 13c1 7e3d 5a0b b43d d8d0 06bd a70e 63bc
000001d0: 0b69 ba3c c7e4 273b d343 51bd e1d9 283d
000001e0: 3925 1ebd 9dae 523c 452f 233d 7e0f 28bd
000001f0: c9ca 913d bbe5 6abc 8ba6 423d 0fcb 0bbd
00000200: 69d0 af3d 1d5d 533d 5fcc 013d a6aa 9cbd
00000210: 74ba b33d 2e5f c43c c3c6 8f3b 5938 a73d
00000220: 1bf9 10bd f30b 323d f7ac 24bd dc60 963d
00000230: 2440 6d3c 72ac 763d f918 1b3d ced4 b73c
00000240: 68db 0ebd dc9e 803d e7de afb9 adc4 723c
00000250: d6b7 87bd fdf7 1bbd a099 62bc 4225 943d
00000260: f5d5 653d c624 a3bd fbd5 433d 1ce6 b73a
00000270: bece 933d 9bd4 443c a787 57bd ab29 b3bd
00000280: c3e0 3f3b a258 15bd 0a71 933d 018e 073d
00000290: 5962 323d 1ead 813d 9f71 6c3d 0db5 573d
000002a0: feb4 793d b5fb 0fbc daf2 a5bd f635 b33d
000002b0: 0aaf 8abd 1139 113c 7f3c ba3b 66f1 74bd
000002c0: 819e 283d c3c6 59bd 826b 51bc 2ec7 6c3d
000002d0: bfbb 963c 2df4 9abd e276 a0bd c600 c63c
000002e0: 1a48 adbc 98f5 29bd bedf d53c 117c fa3c
000002f0: e97a b33d c3cf 64bd 0307 68bd bcf6 033a
00000300: 7fd1 a1bb f96d 91bd 63eb ad3d 2de9 86bd
00000310: 2cac aebd 18a4 043d 73a8 453d 9a4b ac3d
00000320: 5d08 26bd 9069 a2bd a195 883d dbb0 acbd
00000330: 3287 8d3d e419 9fbd c200 fb3c 479b 0f3d
00000340: 8e7b 593d deac 06bd 6830 97bd 9ac3 033d
00000350: 93e1 813b 7cfb 793d af13 493d 36e4 833d
00000360: 0b50 9cbd 1725 593d f0c8 aabd 0861 783c
00000370: 84e8 4ebd 9c11 3ebb aac7 60bd deb3 3a3d
00000380: dcaf cc3c 842d a33d f63b 3f3d 400c 9abc
00000390: 654a 9e3d aa37 65bd 6727 56bc d6da a73d
000003a0: 7835 8d3d deef c9ba fdbf 70bd a7dc aa3d
000003b0: 7dc0 02bd bd9e 813d 48ef 343d e752 a03d
000003c0: 00ff 22bd 86bd 85bd baed 933d f857 943d
000003d0: d3e6 7d3d 469a 1d3c 8e42 203c 4754 8dbd
000003e0: 6c88 80bd 8df7 7fbd e5d7 123d d743 97bd
000003f0: 724b fbbc 1bd2 25bd 96cb 1fbc 86de 953d

actor.2.bias f4 [64]
0.05639502 0.06761165 0.05737656 0.08578065 -0.029564928 0.064361095 -0.012459578 -0.0561304
-0.05101365 0.066705704 0.025963321 -0.059483394 -0.06983081 0.02845419 -0.058281716 -0.002062393
-0.009291051 0.050474327 0.002929859 0.08670953 0.04713064 -0.06460356 -0.08801955 0.052329358
-0.02712275 0.07321442 0.052158114 -0.010506777 0.04976765 0.043668896 -0.023804888 -0.05663309
0.04662437 0.005297511 -0.0150815435 -0.034723092 -0.04944703 0.057785384 -0.019053083 0.017456792
0.0014951595 -0.05016853 0.032294855 -0.036145672 0.025032299 -0.008953655 -0.030623952 0.00987587
-0.056659516 0.026182886 -0.057002578 -0.010524415 0.037707552 0.058166843 -0.087301515 -0.029933777
0.007599087 0.015562503 -0.0440926 0.060662318 0.0450183 -0.047535658 0.0004500862 0.02411926
00000000: 77fe 663d fa77 8a3d af03 6b3d c4ad af3d
00000010: 2632 f2bc c0cf 833d 4223 4cbc fee8 65bd
00000020: b0f3 50bd 009d 883d 08b1 d43c dca4 73bd
00000030: 7503 8fbd c318 e93c cfb8 6ebd 3629 07bb
00000040: 7e39 18bc 2bbe 4e3d e102 403b c494 b13d
00000050: 0f0c 413d df4e 84bd 9843 b4bd 4f57 563d
00000060: 8830 debc 71f1 953d bfa3 553d 9e24 2cbc
00000070: 2ad9 4b3d 28de 323d 7802 c3bc 19f8 67bd
00000080: 32f9 3e3d be96 ad3b 9418 77bc cd39 0ebd
00000090: f888 4abd 5eb0 6c3d 3615 9cbc 8c01 8f3c
000000a0: 3af9 c33a 847d 4dbd 9c47 043d 7c0d 14bd
000000b0: 8910 cd3c 5ab2 12bc 15df fabc 67ce 213c
000000c0: cf13 68bd 7e7d d63c 897b 69bd 996e 2cbc
000000d0: 3c73 1a3d 5b40 6e3d 23cb b2bd ae37 f5bc
000000e0: c301 f93b def9 7e3c 719a 34bd 0d79 783d
000000f0: 1c65 383d c0b4 42bd 8cf9 eb39 c195 c53c

actor.4.weight f4 [4, 64]
-0.104889676 0.094055116 -0.027622074 0.06324379 -0.05327888 0.00798443 -0.009148374 -0.05280219
0.07447773 0.0057172477 -0.0011114031 0.119369015 -0.08427875 -0.07459463 -0.09800753 0.04864745
0.063658774 0.028562486 -0.01629217 -0.07372339 -0.0084501505 0.022294 -0.04292749 -0.018291935
-0.099637926 0.11309847 0.09151873 -0.1039553 -0.08488579 -0.02324292 0.06540683 0.0042230785
0.013376117 0.013439953 -0.092564136 -0.08682917 -0.052071407 0.0745126 -0.017787114 0.028771594
-0.101668656 0.015906379 0.0067688823 -0.008608177 0.033446863 0.073075235 -0.11228755 -0.08842674
0.012481734 -0.04560469 0.027212292 0.03686066 0.06664647 -0.09328464 -0.05608107 0.07147017
0.038230374 -0.031456813 0.10629776 -0.005077213 0.0668146 -0.047641203 -0.12338753 -0.083020866
-0.027986601 0.0022390038 0.08528821 -0.05560954 0.12355256 0.11414759 0.056320027 -0.025973529
-0.09425308 -0.08082402 -0.12284513 -0.043487668 -0.09672123 0.107574746 -0.05814971 -0.0092303455
0.097851306 -0.051169217 0.02291511 -0.09156524 -0.013056919 -0.0011657625 -0.012394264 -0.01613301
-0.042267606 -0.03331174 -0.081514895 -0.04087484 -0.051291883 0.03648059 0.036545873 -0.07415208
0.06296088 0.1003672 0.034384996 -0.100836635 0.10873623 0.027529582 -0.07580787 -0.1068435
-0.01695317 -0.0608816 0.115362346 -0.022623286 -0.11483507 0.1244221 0.09169583 0.11817706
0.05457133 -0.049993753 -0.08445053 -0.059056252 -0.01720947 0.0027921498 -0.08818196 0.095489085
0.053023726 0.0073409677 0.06435165 -0.06679377 -0.03083156 0.060039222 -0.0882642 -0.11565076
-0.03372933 -0.028875008 -0.06866129 0.016874135 0.05895403 0.05680996 -0.121620595 -0.031246811
0.00069643557 -0.018404037 0.107673734 -0.03073451 -0.035308033 0.107616976 -0.04107985 0.05155991
0.10903743 0.009017304 0.10749371 0.015267357 0.09953886 -0.025823459 -0.071241274 -0.1158708
0.035986006 0.1138885 0.09162068 -0.11187069 0.0561675 0.050578117 0.0059841573 -0.031709716
-0.063978955 -0.026159063 0.099504575 0.051802635 0.0013068318 -0.124254376 0.04536344 -0.03254266
-0.047516555 0.0636597 0.06382719 0.09584315 -0.03201124 -0.11581415 -0.046544954 0.06525637
-0.08821727 0.09073107 -0.04706277 0.11584161 0.07012759 0.02983667 -0.03901416 0.031080619
0.12310991 0.09258483 0.005153626 -0.07327601 -0.12436761 -0.054658204 0.0081318915 0.09495252
-0.09150611 0.10736504 -0.09955296 0.12312071 -0.08792733 0.04594457 -0.013892919 -0.035107538
0.02810745 -0.041868567 -0.06360152 -0.11989437 -0.05744271 -0.06687459 0.07042302 0.059893668
-0.019630998 0.04617682 0.03889352 -0.08993633 -0.075295985 0.03287828 -0.014836401 -0.10342802
0.012796029 0.013593748 -0.00412035 -0.10197593 0.12267552 -0.025263906 0.07118434 0.09520158
-0.06593686 0.06918633 -0.008622348 0.0345539 -0.040187508 -0.028148279 -0.015899971 0.0034046024
-0.08009833 -0.07393418 -0.08819927 -0.057633713 0.10041575 -0.014587253 0.05060126 0.07887469
0.03892365 0.08316319 -0.09877379 -0.10646619 0.11611198 0.07362743 0.11544356 -0.119963795
0.02428767 0.07710484 0.022413746 -0.08463602 0.021879867 0.017565459 0.036680415 -0.12464264
00000000: 66d0 d6bd f89f c03d b047 e2bc f685 813d
00000010: f43a 5abd 20d1 023c 10e3 15bc 1c47 58bd
00000020: c887 983d c057 bb3b 80ac 91ba be77 f43d
00000030: 569a acbd 12c5 98bd 2cb8 c8bd 8c42 473d
00000040: 885f 823d e0fb e93c 2877 85bc 4afc 96bd
00000050: 8072 0abc e8a1 b63c bcd4 2fbd f8d8 95bc
00000060: f80e ccbd 2ca0 e73d 2c6e bb3d 84e6 d4bd
00000070: 9ad8 adbd f067 bebc 04f4 853d c061 8a3b
00000080: 8027 5b3c 4033 5c3c 4492 bdbd 7ed3 b1bd
00000090: d448 55bd 109a 983d 48b6 91bc 68b2 eb3c
000000a0: a837 d0bd 184e 823c 80cd dd3b 5009 0dbc
000000b0: 94ff 083d 78a8 953d 04f7 e5bd 1419 b5bd
000000c0: 3080 4c3c fccb 3abd 50ec de3c 34fb 163d
000000d0: f27d 883d 040c bfbd 44b5 65bd f45e 923d
000000e0: 7497 1c3d dcd8 00bd a4b2 d93d c05e a6bb
000000f0: 18d6 883d 6c23 43bd 9ab2 fcbd d806 aabd
00000100: 2844 e5bc 40bc 123b 96ab ae3d d4c6 63bd
00000110: 2009 fd3d 36c6 e93d d4af 663d 70c6 d4bc
00000120: c207 c1bd 1087 a5bd 3a96 fbbd 2020 32bd
00000130: c815 c6bd 2650 dc3d 642e 6ebd e03a 17bc
00000140: 4466 c83d d096 51bd 78b8 bb3c 8e86 bbbd
00000150: b0ec 55bc 80cc 98ba 5011 4bbc 6029 84bc
00000160: cc20 2dbd e471 08bd 48f1 a6bd 606c 27bd
00000170: 7017 52bd ac6c 153d 20b1 153d 0cdd 97bd
00000180: a2f1 803d 528d cd3d 48d7 0c3d 7083 cebd
00000190: 1ab1 de3d b885 e13c 2841 9bbd c4d0 dabd
000001a0: 60e1 8abc fc5e 79bd 1843 ec3d 7854 b9bc
000001b0: a62e ebbd 04d1 fe3d 06cb bb3d d006 f23d
000001c0: 3086 5f3d 40c6 4cbd 66f4 acbd f8e4 71bd
000001d0: e0fa 8cbc 80fc 363b be98 b4bd c88f c33d
000001e0: 682f 593d 808c f03b ccca 833d 2ccb 88bd
000001f0: 7892 fcbc b0eb 753d dcc3 b4bd 4eda ecbd
00000200: c427 0abd 488b ecbc 4a9e 8cbd a03b 8a3c
00000210: c879 713d 90b1 683d 3814 f9bd 50f9 ffbc
00000220: 0091 363a 10c4 96bc 0c84 dc3d f0c6 fbbc
00000230: 289f 10bd 4a66 dc3d 5843 28bd 7c30 533d
00000240: 044f df3d 50bd 133c aa25 dc3d f023 7a3c
00000250: 08db cb3d b88b d3bc f2e6 91bd ac4d edbd
00000260: 1066 133d 603e e93d a0a3 bb3d 761c e5bd
00000270: e40f 663d 002b 4f3d c016 c43b 0ce2 01bd
00000280: 6607 83bd 884b d6bc 0ec9 cb3d 002f 543d
00000290: 004a ab3a 1479 febd 04cf 393d 744b 05bd
000002a0: b8a0 42bd 0460 823d d4b7 823d 6a49 c43d
000002b0: 381e 03bd f82f edbd eca5 3ebd 22a5 853d
000002c0: 42ab b4bd 36d1 b93d e4c4 40bd 5e3e ed3d
000002d0: 0e9f 8f3d 086c f43c 50cd 1fbd c89c fe3c
000002e0: 0c21 fc3d 1e9d bd3d c0df a83b bc11 96bd
000002f0: 72b4 febd 48e1 5fbd a03b 053c 7876 c23d
00000300: 8e67 bbbd 34e2 db3d 6ce2 cbbd b626 fc3d
00000310: 3e13 b4bd 6030 3c3d 209f 63bc eccc 0fbd
00000320: 9841 e63c 607e 2bbd 8441 82bd 2e8b f5bd
00000330: 0c49 6bbd 8cf5 88bd f239 903d 1053 753d
00000340: 30d1 a0bc e823 3d3d d04e 1f3d 8a30 b8bd
00000350: c834 9abd 60ab 063d 6014 73bc 12d2 d3bd
00000360: 70a6 513c 50b8 5e3c 0004 87bb c2d8 d0bd
00000370: 4e3d fb3d 40f6 cebc 18c9 913d 0cf9 c23d
00000380: e809 87bd 90b1 8d3d c044 0dbc 6488 0d3d
00000390: a89b 24bd 3897 e6bc a840 82bc c01f 5f3b
000003a0: 980a a4bd ce6a 97bd d2a1 b4bd 5411 6cbd
000003b0: c6a6 cd3d 60ff 6ebc 4443 4f3d 0e89 a13d
000003c0: 686e 1f3d 7651 aa3d ea49 cabd f20a dabd
000003d0: 1ecc ed3d fac9 963d ac6d ec3d 94af f5bd
000003e0: f0f6 c63c 24e9 9d3d 089d b73c a655 adbd
000003f0: 683d b33c 70e5 8f3c 343e 163d a444 ffbd

actor.4.bias f4 [4]
0.03166607 -0.009791821 0.080902725 -0.121671125
00000000: 48b4 013d e06d 20bc 54b0 a53d b62e f9bd

critic.0.weight f4 [128, 32]
-0.15566877 -0.15891479 -0.08740665 -0.09772533 -0.14769611 -0.045987826 0.023056291 -0.069165155
-0.09135198 0.006828264 0.006642961 0.1674294 0.12703153 0.0437761 0.037222832 0.15489317
0.07384482 0.12071265 0.12548177 0.10074261 -0.11362858 0.05565416 0.1418753 -0.0134774
0.13646032 0.04846981 0.025900828 -0.11144358 -0.14652246 0.08533311 -0.09615448 -0.04163538
0.08056109 -0.100462385 0.17153932 0.09651923 0.06965974 -0.1470478 0.13542864 -0.15045677
-0.13072683 0.12403103 0.0038562468 -0.047468774 0.021914085 0.17221807 0.047616117 0.15462656
-0.08230953 0.16301179 0.0053093648 -0.12151958 -0.051152617 0.03897673 0.15928511 -0.09877356
0.055230387 0.10328825 -0.06625118 -0.08961102 0.018861199 -0.08711534 0.13933651 0.115468346
-0.11336193 0.16987936 0.08609696 0.11707987 -0.1669354 0.11201427 -0.04097822 0.084990494
0.17575718 -0.011331089 -0.12497949 0.15543072 0.17767146 0.12181515 0.110122845 -0.15297648
0.110889554 0.16707572 0.10505785 -0.11946882 -0.03508096 -0.030001542 0.07740439 -0.084927715
-0.13470347 0.1514453 0.06787515 -0.17294335 -0.111823015 0.0009870016 -0.12777148 0.1186547
0.060799524 0.1363082 -0.025998663 -0.15712564 0.1546705 0.0070774253 0.12185937 0.12507151
0.0652932 -0.03924095 0.08920421 -0.002993227 0.07910297 -0.14217167 -0.12465065 -0.019888844
-0.15005806 -0.15828127 -0.11225541 -0.04468801 0.1610626 -0.11128426 -0.137467 -0.014085856
0.14608657 0.031538043 -0.114797816 -0.064301215 0.16131523 0.16041522 0.0141603295 -0.1328235
0.052769165 0.11684143 0.08199782 0.027298486 -0.09890897 -0.06827438 0.03783399 0.03000073
-0.08184427 0.078172795 -0.1818491 0.088466965 -0.062077336 0.028662976 0.036030024 0.09492138
0.11136158 0.05780932 -0.08355399 -0.035880502 -0.03846293 0.07515501 -0.009365448 -0.12145407
0.052988168 0.19579121 -0.09991024 -0.042294655 -0.060278237 -0.062124737 0.009530602 -0.1607792
0.06584212 -0.13320796 0.17491901 0.03807873 0.08990515 -0.1756316 -0.13341255 -0.004353432
-0.06869323 0.043916974 -0.15173215 -0.061061807 0.15327635 -0.025440238 0.16356258 0.16250727
-0.03593025 0.05978328 0.16655195 0.081719786 0.17102784 -0.08951504 -0.14480439 -0.059412073
-0.0746227 -0.0026868614 -0.112176366 0.12134202 0.061815202 0.164709 0.14402188 -0.022904642
0.11563633 0.12194609 0.13046928 0.18117084 0.13463907 -0.059716858 0.09955809 0.052210078
0.10297381 -0.08165631 0.070449024 0.05457 0.022912094 0.10910288 0.15533158 0.18076767
-0.11115016 0.03389006 -0.102636084 0.04881461 -0.14503942 0.0066021457 -0.010151529 -0.13287933
-0.11098925 0.14910305 -0.045483653 0.039474256 -0.001502338 -0.093887895 0.012280496 0.12146797
0.06376339 -0.15559386 0.11479765 -0.125402 -0.09693669 -0.056734554 -0.16416581 0.114131525
0.17833051 0.012120859 0.15261514 -0.122112624 0.0758306 0.10609171 -0.14837946 -0.044219527
-0.1702856 -0.043518823 0.08860319 0.11474491 -0.11421257 -0.007926249 0.14777565 0.15307613
-0.01030577 -0.029670896 0.15376738 -0.054997593 0.13078597 0.13281353 -0.053451117 -0.06546385
00000000: a267 1fbe 8fba 22be 4202 b3bd 3824 c8bd
00000010: a63d 17be bb5d 3cbd 8ce0 bc3c 76a6 8dbd
00000020: bf16 bbbd a1bf df3b 32ad d93b 9d72 2b3e
00000030: 8e14 023e 914e 333d f876 183d 519c 1e3e
00000040: f43b 973d 3238 f73d 4b7e 003e 2452 ce3d
00000050: 1ab6 e8bd 9ef5 633d c247 113e 50d0 5cbc
00000060: 41bc 0b3e 4888 463d f92d d43c 883c e4bd
00000070: fc09 16be 20c3 ae3d a4ec c4bd dc89 2abd
00000080: 36fd a43d 39bf cdbd 01a8 2f3e e0ab c53d
00000090: c4a9 8e3d b393 16be cead 0a3e 5711 1abe
000000a0: 41dd 05be fb03 fe3d 16b9 7c3b 9e6e 42bd
000000b0: 2b85 b33c ef59 303e 1e09 433d 6d56 1e3e
000000c0: e691 a8bd 90ec 263e 2efa ad3b 42df f8bd
000000d0: 6885 51bd 10a6 1f3d a31b 233e cb49 cabd
000000e0: 4239 623d ca88 d33d b3ae 87bd fc85 b7bd
000000f0: cd82 9a3c 8769 b2bd 3bae 0e3e ab7a ec3d
00000100: 4d2a e8bd dbf4 2d3e 9a53 b03d 92c7 ef3d
00000110: 1df1 2abe bd67 e53d c7d8 27bd 7f0f ae3d
00000120: b1f9 333e 08a6 39bc 3ff5 ffbd 3b29 1f3e
00000130: 82ef 353e 397a f93d 1688 e13d dea5 1cbe
00000140: 101a e33d e615 2b3e 9228 d73d 12ac f4bd
00000150: 0db1 0fbd cbc5 f5bc 3186 9e3d 95ee adbd
00000160: b5ef 09be 7a14 1b3e 2002 8b3d 1018 31be
00000170: 7703 e5bd 475e 813a 87d6 02be 3c01 f33d
00000180: ec08 793d 6094 0b3e 26fb d4bc 8be5 20be
00000190: f261 1e3e bfe9 e73b 6891 f93d bf12 003e
000001a0: 71b8 853d 1ebb 20bd b2b0 b63d 042a 44bb
000001b0: bd00 a23d 7395 11be d748 ffbd eeed a2bc
000001c0: d2a8 19be 7c14 22be 2ae6 e5bd c60a 37bd
000001d0: 98ed 243e 01e9 e3bd 26c4 0cbe 5dc8 66bc
000001e0: b897 153e 092e 013d 1e1b ebbd 5bb0 83bd
000001f0: d22f 253e e343 243e ba00 683c e202 08be
00000200: 7b24 583d 8f4a ef3d 79ee a73d 13a1 df3c
00000210: c990 cabd 70d3 8bbd d0f7 1a3d 17c4 f53c
00000220: f89d a7bd 0f19 a03d a736 3abe 2b2e b53d
00000230: ce44 7ebd 9ece ea3c 3894 133d 2466 c23d
00000240: 8a11 e43d 77c9 6c3d 5b1e abbd 6ff7 12bd
00000250: 4e8b 1dbd dfea 993d 8971 19bc e9bc f8bd
00000260: 1f0a 593d 7e7d 483e bd9d ccbd 293d 2dbd
00000270: 50e6 76bd 8276 7ebd 3e26 1c3c 4da3 24be
00000280: 3cd8 863d ab67 08be f81d 333e 71f8 1b3d
00000290: 3120 b83d c5d8 33be 4d9d 08be 3ca7 8ebb
000002a0: 09af 8cbd 49e2 333d ac5f 1bbe f21b 7abd
000002b0: 7af4 1c3e 0c68 d0bc f37c 273e 4e68 263e
000002c0: 992b 13bd 50df 743d 988c 2a3e b45c a73d
000002d0: ec21 2f3e a953 b7bd 9a47 14be 135a 73bd
000002e0: c9d3 98bd 0e16 30bb b9bc e5bd 2a82 f83d
000002f0: f031 7d3d 7aa9 283e 797a 133e 84a2 bbbc
00000300: bdd2 ec3d dfbe f93d bd99 053e d984 393e
00000310: d3de 093e aa99 74bd 1de5 cb3d 3cda 553d
00000320: efe3 d23d 6c3b a7bd 9447 903d cb84 5f3d
00000330: 25b2 bb3c 5571 df3d 3e0f 1f3e 291b 393e
00000340: b2a2 e3bd 4ed0 0a3d de32 d2bd d4f1 473d
00000350: 3785 14be d056 d83b 9952 26bc 8511 08be
00000360: 554e e3bd 78ae 183e 114d 3abd c2af 213d
00000370: 19ea c4ba 4c48 c0bd 2234 493c 33c4 f83d
00000380: 6196 823d ff53 1fbe 081b eb3d 6269 00be
00000390: be86 c6bd 7e62 68bd 151b 28be cabd e93d
000003a0: 469c 363e 9196 463c 2547 1c3e 2f16 fabd
000003b0: 134d 9b3d 9c46 d93d c9f0 17be 891f 35bd
000003c0: 595f 2ebe cb40 32bd 9775 b53d 61ff ea3d
000003d0: 48e8 e9bd 19dd 01bc 8052 173e fdbf 1c3e
000003e0: 88d9 28bc 6110 f3bc 3275 1d3e 2845 61bd
000003f0: c2ec 053e 4500 083e 8fef 5abd e911 86bd

critic.0.bias f4 [128]
-0.053923864 -0.14050259 0.15624611 0.12219973 0.104083784 0.17256182 -0.15208665 0.013962913
-0.019076105 -0.1537829 -0.10185355 0.022654684 0.0070120976 -0.13485512 -0.07266845 0.10416047
0.079317756 -0.057826955 0.039621316 -0.16870639 0.15445426 -0.14800723 0.08278598 -0.07532618
0.033406727 0.14267437 0.14733133 0.11239711 0.14577723 -0.13017721 -0.057377677 0.15800802
-0.15433155 0.16968346 -0.12513193 0.15893987 0.039745804 -0.15935661 0.086436294 -0.14341721
-0.09878677 -0.023659598 -0.0058167195 0.032539494 -0.077708185 -0.016910173 0.023500787 -0.1301396
-0.013848401 -0.14291206 -0.008222765 -0.161005 0.1294415 -0.0640416 0.06577675 0.066401854
-0.14525078 -0.09493767 0.16825251 -0.07433918 0.14721872 -0.07329824 0.06404603 -0.07847655
-0.039860286 -0.080252424 -0.15318723 0.035962895 0.15292743 0.14682786 -0.093122296 -0.05393703
0.1078888 0.014973953 -0.031423435 -0.17313348 0.14432435 0.023654034 -0.01816263 0.13295577
0.077973604 -0.15092607 -0.09029342 -0.18580067 0.15829025 0.0010729474 -0.11909715 0.024980184
-0.1174905 -0.091481164 0.16588931 -0.02894602 -0.0011691119 0.16914067 -0.025802005 -0.07053937
0.13417043 0.011892956 0.14305381 0.08745283 0.0718345 -0.050686084 0.006363394 -0.05772241
0.036799192 -0.046228968 -0.023521325 -0.06282443 -0.12662376 -0.064826995 0.174901 0.11023068
0.021073155 -0.17291105 0.065959334 -0.07513862 -0.16802391 -0.04961866 0.12816362 0.10009651
-0.17380258 0.06591965 -0.115964964 -0.19663684 0.014474007 -0.0057767103 0.092672676 -0.044959772
00000000: 45df 5cbd e9df 0fbe fbfe 1f3e da43 fa3d
00000010: e129 d53d 0cb4 303e 9abc 1bbe b4c4 643c
00000020: 7e45 9cbc 4479 1dbe 9898 d0bd 5196 b93c
00000030: bdc5 e53b 7617 0abe 32d3 94bd 1652 d53d
00000040: 5971 a23d f5db 6cbd f649 223d 5ec1 2cbe
00000050: 4229 1e3e 358f 17be b28b a93d 9d44 9abd
00000060: 7ed5 083d 3b19 123e 06de 163e 7530 e63d
00000070: a046 153e 2d4d 05be db04 6bbd dbcc 213e
00000080: 1709 1ebe 80c1 2d3e 9622 00be 22c1 223e
00000090: 7fcc 223d 612e 23be 8305 b13d f6db 12be
000000a0: b850 cabd c6d1 c1bc 2e9a bebb 2248 053d
000000b0: 7825 9fbd 3487 8abc b984 c03c 5143 05be
000000c0: 67e4 62bc 8a57 12be c7b8 06bc 7fde 24be
000000d0: 508c 043e 3e28 83bd f6b5 863d b2fd 873d
000000e0: 9fbc 14be ae6e c2bd 634a 2c3e 243f 98bd
000000f0: 81c0 163e 631d 96bd 912a 833d 50b8 a0bd
00000100: 8a44 23bd 625b a4bd 1ddd 1cbe d44d 133d
00000110: 0299 1c3e 0b5a 163e e7b6 bebd 13ed 5cbd
00000120: cef4 dc3d 5055 753c dcb5 00bd e749 31be
00000130: c3c9 133e 1bc6 c13c ccc9 94bc 8f25 083e
00000140: a0b0 9f3d 5d8c 1abe c2eb b8bd 8842 3ebe
00000150: d716 223e 24a2 8c3a 35e9 f3bd 3ea3 cc3c
00000160: dc9e f0bd 7a5a bbbd e3de 293e 3420 edbc
00000170: e33c 99ba 3633 2d3e ba5e d3bc f276 90bd
00000180: f963 093e acda 423c b37c 123e 781a b33d
00000190: f71d 933d 369c 4fbd 0584 d03b 556e 6cbd
000001a0: c0ba 163d 965a 3dbd cbaf c0bc 18aa 80bd
000001b0: a9a9 01be 04c4 84bd 3f19 333e 9fc0 e13d
000001c0: 9ca1 ac3c 980f 31be b015 873d 47e2 99bd
000001d0: 760e 2cbe f03c 4bbd 533d 033e 66ff cc3d
000001e0: 4ef9 31be e200 873d 0a7f edbd 2b5b 49be
000001f0: 6324 6d3c 8f4a bdbb 2ccb bd3d bd27 38bd

critic.2.weight f4 [64, 128]
-0.04858832 0.075142875 -0.07449904 -0.061342884 -0.0028549854 -0.028246764 -0.081680045 0.00097474066
-0.06571315 -0.042624224 -0.078486115 0.026461488 -0.017557966 -0.0848706 -0.030833622 -0.076677494
0.031714533 0.0629978 0.06608704 0.022271175 0.029721314 0.02326231 0.0574274 0.020566082
0.08434144 -0.08704989 -0.021053804 0.031234471 0.019646911 0.0039487802 0.038345687 0.02447264
-0.0056724916 -0.03796272 -0.027579475 0.07229868 -0.027384039 0.06669604 0.059730228 -0.048721712
-0.067130454 -0.063974604 -0.039338592 0.08021681 0.0111555755 0.047369536 0.075419754 -0.023946332
0.0107882125 -0.026097517 -0.020094259 -0.046683703 0.044392873 0.0052839713 0.034950484 -0.06692593
-0.03875135 0.05272068 0.038571805 0.036641773 0.024061972 0.025543539 0.038676266 0.07111831
-0.023673167 -0.057531808 0.06818688 -0.08099384 -0.0035333494 -0.017351035 -0.030395938 0.060327996
-0.08818449 -0.034338806 0.014161394 0.06545594 0.08308093 -0.03524248 0.008715494 0.013399495
0.062310185 -0.010099175 -0.034433752 0.03387882 0.026405517 -0.0014372076 -0.01818841 0.04505497
0.052562315 -0.060340766 -0.034553207 0.06128198 0.011985257 0.038021334 0.04930824 -0.01946865
-0.054430094 -0.0033354594 -0.052944914 -0.07471902 0.02405879 -0.05155411 -0.043673996 -0.046540424
-0.06926299 0.057191767 -0.06881442 0.054381836 -0.03599478 -0.046304032 0.011389375 0.022058258
-0.061503883 0.04891872 0.034166068 -0.060564145 0.024664357 0.028604886 -0.043267902 0.053285755
-0.07439309 -0.009765077 0.06538384 -0.03121542 -0.08128516 0.010443799 0.08370835 -0.011002351
0.05190077 -0.0030038059 0.05351879 -0.012402005 0.03831371 0.028970689 0.0041111098 0.0006249036
0.020077009 0.015265561 -0.022228226 0.0006117328 0.0723804 0.07496543 0.007131184 0.034104016
0.07745563 0.044309627 0.09212415 -0.06807797 -0.08256646 -0.011825067 -0.025612313 -0.055352584
0.032213043 -0.09368113 -0.07288045 -0.007573862 0.07566429 -0.037881427 0.041024156 -0.068778634
-0.024989814 0.055073444 0.038804363 0.07789908 0.031642348 0.03334782 0.015511778 0.07880229
-0.07829086 -0.030630283 0.046871245 0.061439693 0.07309418 0.08321261 -0.08618818 -0.082681075
0.07894954 -0.018527012 -0.012326151 0.009911706 -0.0856829 -0.0689215 0.079771556 -0.087197214
-0.023681259 -0.08591394 0.05356507 0.060112804 -0.01647817 0.0070187147 -0.08601173 0.008594669
0.0612856 -0.013120463 0.0649217 0.069386356 0.004242934 0.03105714 -0.04074716 0.02819232
-0.01949935 -0.03898826 0.07173782 0.08133684 -0.02828358 -0.07741769 0.05245439 0.038814086
0.01896999 -0.039132934 -0.01107181 -0.034173857 0.009382136 -0.043519266 0.03302843 0.0484604
-0.07572574 -0.04862817 0.04205713 0.00886024 0.07440819 0.035302885 -0.033292606 -0.025104264
0.080650136 0.026463004 0.016381953 -0.01345363 -0.0071444707 0.05544027 -0.061465867 0.009911046
-0.016807562 0.028976265 0.078084305 -0.027324812 0.0030411792 0.015392566 -0.023159524 0.06571783
0.00047987915 0.030150896 -0.021971868 -0.07769945 -0.056364913 -0.042989336 0.008945917 0.042308375
-0.040449984 0.0459023 0.005912876 -0.007502378 0.040706605 -0.07328113 0.05953687 -0.07132068
00000000: 8c04 47bd 82e4 993d f492 98bd ad42 7bbd
00000010: b51a 3bbb c265 e7bc de47 a7bd bd85 7f3a
00000020: 9e94 86bd bd96 2ebd 54bd a0bd c3c5 d83c
00000030: b9d5 8fbc a3d0 adbd cb96 fcbc 1709 9dbd
00000040: 19e7 013d fe04 813d a458 873d 0a72 b63c
00000050: 1d7a f33c 9a90 be3c fe38 6b3d 337a a83c
00000060: 34bb ac3d 3647 b2bd 0779 acbc 6fdf ff3c
00000070: 8ff2 a03c c564 813b 5e10 1d3d d97a c83c
00000080: 4fe0 b9bb cc7e 1bbd 5aee e1bc 5511 943d
00000090: 7e54 e0bc ef97 883d afa7 743d 6b90 47bd
000000a0: b17b 89bd 1e05 83bd 8121 21bd b648 a43d
000000b0: e0c5 363c 8f06 423d ac75 9a3d 192b c4bc
000000c0: 0bc1 303c 76ca d5bc b79c a4bc 6937 3fbd
000000d0: 4dd5 353d 2a25 ad3b 3d28 0f3d 7610 89bd
000000e0: bcb9 1ebd a4f1 573d 78fd 1d3d af15 163d
000000f0: 9d1d c53c af40 d13c 016b 1e3d 7aa6 913d
00000100: 3bee c1bc 79a6 6bbd 90a5 8b3d 19e0 a5bd
00000110: c48f 67bb c223 8ebc e700 f9bc 7d1a 773d
00000120: 129a b4bd d9a6 0cbd 3105 683c c40d 863d
00000130: 5626 aa3d 6b5a 10bd 6ecb 0e3c 8e89 5b3c
00000140: f738 7f3d 0377 25bc 680a 0dbd 84c4 0a3d
00000150: 6250 d83c af60 bcba dcff 94bc 8f8b 383d
00000160: 954b 573d e127 77bd aa87 0dbd d002 7b3d
00000170: d05d 443c 42bc 1b3d 70f7 493d b87c 9fbc
00000180: 17f2 5ebd b997 5abb c4dc 58bd 4906 99bd
00000190: f116 c53c 672a 53bd 81e3 32bd 2ca1 3ebd
000001a0: c1d9 8dbd ea41 6a3d 93ee 8cbd 7dbf 5e3d
000001b0: 436f 13bd 4ca9 3dbd 809a 3a3c 85b3 b43c
000001c0: 7feb 7bbd ff5e 483d b8f1 0b3d 1c12 78bd
000001d0: e80c ca3c cb54 ea3c af39 31bd 2a42 5a3d
000001e0: 685b 98bd b4fd 1fbc f6e7 853d 7bb7 ffbc
000001f0: d578 a6bd 781c 2b3c 496f ab3d 3443 34bc
00000200: e795 543d 80db 44bb 8536 5b3d c731 4bbc
00000210: d6ee 1c3d f053 ed3c 7db6 863b 92d0 233a
00000220: 8a78 a43c 671c 7a3c f817 b6bc b15c 203a
00000230: 2d3c 943d 7a87 993d b5ac e93b a7b0 0b3d
00000240: 0fa1 9e3d 037e 353d 96ab bc3d 766c 8bbd
00000250: 9b18 a9bd edbd 41bc ead0 d1bc 64b9 62bd
00000260: d3f1 033d e4db bfbd 5842 95bd 292e f8bb
00000270: e1f5 9a3d 8e29 1bbd f208 283d d0db 8cbd
00000280: 70b7 ccbc b194 613d 53f1 1e3d 8e89 9f3d
00000290: 689b 013d b997 083d 1d25 7e3c 1863 a13d
000002a0: f556 a0bd 5cec fabc 10fc 3f3d 30a8 7b3d
000002b0: 67b2 953d 5f6b aa3d 6e83 b0bd b254 a9bd
000002c0: 4cb0 a13d f6c5 97bc a0f3 49bc b564 223c
000002d0: 847a afbd b726 8dbd 455f a33d 7494 b2bd
000002e0: 33ff c1bc a6f3 afbd 0c67 5b3d d838 763d
000002f0: 3afd 86bc 3ffd e53b eb26 b0bd a8d0 0c3c
00000300: 9c06 7b3d 36f7 56bc abf5 843d 6f1a 8e3d
00000310: 4f08 8b3b 8b6b fe3c 7ee6 26bd 95f3 e63c
00000320: 1abd 9fbc 27b2 1fbd 47eb 923d ee93 a63d
00000330: f7b2 e7bc 2a8d 9ebd 6ada 563d 85fb 1e3d
00000340: f466 9b3c db49 20bd 8966 35bc e3f9 0bbd
00000350: 88b7 193c 4241 32bd d248 073d 6a7e 463d
00000360: 1916 9bbd 552e 47bd 1944 2c3d 8a2a 113c
00000370: 5263 983d c299 103d d45d 08bd 75a7 cdbc
00000380: e62b a53d f1c8 d83c 7233 863c 9d6c 5cbc
00000390: 2a1c eabb 5615 633d a2c3 7bbd f161 223c
000003a0: 03b0 89bc a25f ed3c aaea 9f3d 49d8 dfbc
000003b0: 854e 473b 1a31 7c3c 0bb9 bdbc 1297 863d
000003c0: 4a98 fb39 03ff f63c 59fe b3bc e420 9fbd
000003d0: e5de 66bd 9615 30bd e591 123c 8c4b 2d3d
000003e0: e2ae 25bd 0d04 3c3d cdc0 c13b 82d6 f5bb
000003f0: f8bb 263d 6b14 96bd efdc 733d 9410 92bd

critic.2.bias f4 [64]
0.050065544 -0.07004201 -0.0048151123 0.07214206 -0.031270646 0.050082445 -0.06700985 0.07653862
0.08776339 -0.06996796 -0.04194083 0.026126215 -0.037064064 0.06264685 0.015502611 -0.06286307
0.010136483 -0.0059532025 -0.08504117 0.004627121 -0.063927785 -0.035850186 -0.070131116 0.016850669
-0.07309799 -0.07407036 0.08691463 0.02649573 0.010755742 -0.05572061 0.074728705 0.05943817
-0.082422756 -0.012334497 0.024173029 -0.019079646 0.04706941 -0.00037789057 0.016558284 -0.0007004789
0.071037516 0.06815678 -0.0012395795 0.027306113 0.019772371 -0.06708203 -0.02054407 -0.03603813
-0.0037814677 -0.05181527 0.028413456 -0.020683324 0.0059419572 0.0023873749 -0.08113442 0.066223614
0.04343693 0.05639537 -0.023483543 0.05324604 0.04950517 -0.06984927 0.07967967 0.029975533
00000000: 8711 4d3d 2f72 8fbd 17c8 9dbb 37bf 933d
00000010: a615 00bd 4023 4d3d 763c 89bd 48c0 9c3d
00000020: 4bbd b33d 5d4b 8fbd 26ca 2bbd a506 d63c
00000030: 7dd0 17bd fe4c 803d aafe 7d3c 5abe 80bd
00000040: 7e13 263c 1513 c3bb 112a aebd 1b9f 973b
00000050: 92ec 82bd a5d7 12bd e7a0 8fbd 6a0a 8a3c
00000060: 66b4 95bd 33b2 97bd 4c00 b23d 930d d93c
00000070: da38 303c 4b3b 64bd 5d0b 993d 7075 733d
00000080: 43cd a8bd a116 4abc 8406 c63c eb4c 9cbc
00000090: dbcb 403d 9d1f c6b9 3da5 873c 58a0 37ba
000000a0: 1e7c 913d c895 8b3d 6379 a2ba 12b1 df3c
000000b0: abf9 a13c 4e62 89bd 0a4c a8bc b89c 13bd
000000c0: 80d2 77bb 403c 54bd 56c3 e83c 1370 a9bc
000000d0: c0b4 c23b 8175 1c3b ce29 a6bd 3fa0 873d
000000e0: ecea 313d d5fe 663d 8f60 c0bc 8518 5a3d
000000f0: efc5 4a3d 220d 8fbd 182f a33d 408f f53c

critic.4.weight f4 [1, 64]
0.09114015 0.08711324 0.0016110081 -0.04046006 0.110510744 -0.084575474 -0.046982825 0.08556434
0.06993111 -0.051893935 0.0038502205 0.012831599 -0.046884894 0.078460805 -0.111290365 0.013584701
0.0015203698 0.0432738 -0.0738139 0.11636139 -0.08137941 0.03824292 0.018924335 -0.09125293
-0.029118389 0.10871321 -0.039642066 -0.010599258 -0.02271709 -0.015691727 0.0949396 -0.11417346
0.12206359 -9.108584e-05 -0.0342488 -0.119921535 0.041708365 -0.011684888 0.058944717 -0.096007764
-0.00051513355 -0.08799094 0.014871405 0.084910795 5.7697504e-05 -0.02483909 0.003735721 -0.088533886
-0.078541994 -0.09338129 0.08068372 0.039244384 -0.014925733 -0.08710865 0.028442373 0.10509387
0.051733673 -0.06877119 -0.018439332 -0.011030506 -0.07885967 0.035869434 0.05041812 0.10685144
00000000: b0a7 ba3d 6d68 b23d 7628 d33a 73b9 25bd
00000010: 7553 e23d e835 adbd 1071 40bd 5b3c af3d
00000020: 0b38 8f3d bc8e 54bd fb53 7c3b a13b 523c
00000030: 600a 40bd 0fb0 a03d 34ec e3bd 5e92 5e3c
00000040: 2547 c73a de3f 313d be2b 97bd e14e ee3d
00000050: 40aa a6bd 9ca4 1c3d 3507 9b3c d1e2 babd
00000060: b089 eebc 08a5 de3d b85f 22bd 83a8 2dbc
00000070: 3119 babc f08b 80bc b16f c23d c6d3 e9bd
00000080: 7afc f93d 5705 bfb8 7848 0cbd 6c99 f5bd
00000090: 64d6 2a3d f971 3fbc 0470 713d b89f c4bd
000000a0: 070a 07ba 9834 b4bd 32a7 733c b6e5 ad3d
000000b0: 3900 7238 597b cbbc 00d3 743b 4151 b5bd
000000c0: a0da a0bd b13e bfbd 823d a53d b8be 203d
000000d0: 108b 74bc 0566 b2bd fbff e83c 743b d73d
000000e0: b0e6 533d e9d7 8cbd 150e 97bc 4cb9 34bc
000000f0: 2e81 a1bd d4eb 123d 3b83 4e3d eed4 da3d
