models/saved_models/drl_agent.pth (torch, 105955 bytes, 11 tensors)

actor.0.weight f4 [128, 32]
0.0041296114 0.0261533 -0.095503554 0.14810598 -0.03007833 -0.151762 0.12263087 -0.046948805
0.024765067 0.08626082 0.03394151 -0.03985311 0.03864238 0.14634104 0.009500553 0.14397807
-0.06362701 -0.11504939 -0.1029713 0.1683384 0.034477387 0.14178826 -0.022131035 -0.040460277
0.073370434 -0.06487226 0.12419203 -0.14144802 -0.15815504 -0.10166768 -0.13524006 -0.023347436
-0.1266358 0.16901034 0.14768331 0.051094014 0.029618634 -0.08265941 0.028754456 0.039627206
-0.058495104 -0.077657446 -0.1718368 -0.063884124 -0.050508235 0.14036241 0.07624491 0.10633719
-0.030395085 0.06547422 0.15238583 -0.11259019 0.12432697 -0.10831961 -0.046803296 0.058302745
0.08258443 -0.040928107 -0.04487021 0.025896203 -0.034180272 0.01690118 0.08516072 0.082704715
-0.008034327 -0.052511662 0.06975759 -0.04193894 0.15280713 -0.02061337 -0.07733047 0.16122504
0.14557256 -0.0011619886 0.16831718 0.169599 0.13273813 0.014496809 -0.11224772 -0.0072290064
0.025321847 0.11484839 0.026485395 0.07136473 -0.1196385 0.038679384 0.11379031 -0.056153636
-0.15907535 -0.16938825 -0.02761512 -0.09178857 0.08915479 0.16753928 -0.022608222 0.16374472
-0.14045197 -0.09811449 0.10093677 -0.17568703 0.171232 -0.0446403 -0.13078304 -0.035834115
0.17298588 -0.11964636 -0.13322775 0.01261925 -0.02597487 0.08240556 -0.005849624 0.06393472
-0.07702134 -0.1424421 0.014826397 -0.029410155 -0.015494108 -0.11779987 0.14301276 0.06675445
0.0062333713 -0.13105206 -0.15855648 -0.15109146 0.112693526 -0.04178489 0.13259017 0.17279148
0.009846578 0.100758635 -0.14505191 0.0013929533 0.038285438 -0.09768592 -0.011103334 -0.048496164
0.09276163 0.15007842 -0.08684706 0.0018214182 -0.0936167 -0.15886404 0.0765458 0.023869151
0.14057483 -0.16089782 -0.047461797 0.12109029 0.14227507 -0.0982564 -0.040249776 -0.022938317
-0.031686906 -0.07028004 -0.08462183 0.018634764 -0.115511656 0.08525956 0.0314029 -0.026296852
0.07183935 0.16795173 0.1319849 -0.08645433 -0.06905999 0.045334056 -0.117279336 -0.10164079
-0.14604427 -0.06311598 -0.093427025 0.103326075 -0.152759 0.097839944 -0.07304249 -0.0039763656
-0.13158585 0.09603263 -0.078538924 -0.14869039 -0.17109136 -0.04718797 0.099476025 0.07406567
-0.04850253 -0.10947952 -0.041454397 0.07643438 0.02484879 0.039783675 -0.078105696 0.057935204
0.088717155 0.09356821 -0.080546185 -0.01634693 0.16823603 -0.13586886 -0.1352666 -0.015896821
0.0020930546 -0.1423004 -0.04942784 0.11493195 0.10244499 -0.14491272 0.11435428 -0.15486476
-0.12237736 -0.14323679 0.14545065 -0.16784447 -0.06818439 -0.114961825 -0.08322131 -0.06484742
0.12604451 -0.1674357 -0.1335207 -0.07670985 -0.112243585 -0.10892623 -0.17603467 0.13022193
-0.13228345 0.112943456 0.024742771 -0.05856688 -0.08530764 -0.15586329 -0.14587034 -0.09975991
0.16560265 -0.1318347 0.059513625 -0.11623521 0.1329074 0.060204264 0.12710656 0.01697536
-0.061600823 0.053148903 0.12341291 0.065738924 -0.021553455 -0.08869292 -0.0126205785 -0.16938914
0.1214222 -0.017618878 -0.12680663 0.018729027 -0.13350871 -0.021956148 0.11198396 -0.033227585
00000000: b151 873b 723f d63c 5e97 c3bd 18a9 173e
00000010: d466 f6bc 7f67 1bbe e525 fb3d 644d 40bd
00000020: 1ce0 ca3c 83a9 b03d 4106 0b3d 043d 23bd
00000030: 7947 1e3d 6dda 153e 35a8 1b3c fd6e 133e
00000040: e14e 82bd 049f ebbd 9ee2 d2bd e760 2c3e
00000050: 2938 0d3d f130 113e 254c b5bc adb9 25bd
00000060: 3d43 963d bfdb 84bd 6458 fe3d c0d7 10be
00000070: 65f3 21be 2537 d0bd 5f7c 0abe 1f43 bfbc
00000080: d1ac 01be 0c11 2d3e 4b3a 173e f547 513d
00000090: c7a2 f23c 5649 a9bd 778e eb3c 2350 223d
000000a0: 9098 6fbd de0a 9fbd fcf5 2fbe aed5 82bd
000000b0: b9e1 4ebd 2abb 0f3e 4b26 9c3d 50c7 d93d
000000c0: 1dff f8bc 5917 863d 080b 1c3e af95 e6bd
000000d0: 239f fe3d acd6 ddbd d0b4 3fbd dcce 6e3d
000000e0: 0722 a93d 3ba4 27bd d3c9 37bd 4624 d43c
000000f0: 9d00 0cbd 5874 8a3c be68 ae3d 1761 a93d
00000100: 69a2 03bc 7816 57bd 11dd 8e3d 2ac8 2bbd
00000110: 7979 1c3e 5fdd a8bc 705f 9ebd 2d18 253e
00000120: f910 153e de4d 98ba 575b 2c3e 5cab 2d3e
00000130: 81ec 073e 0684 6d3c 22e2 e5bd 4de1 ecbb
00000140: c36f cf3c a235 eb3d e6f7 d83c ac27 923d
00000150: 0805 f5bd 466e 1e3d e50a e93d 5b01 66bd
00000160: a6e4 22be 1d74 2dbe 1b39 e2bc a5fb bbbd
00000170: c996 b63d 6b8f 2b3e e134 b9bc b2ac 273e
00000180: a4d2 0fbe 40f0 c8bd f0b7 ce3d 4de7 33be
00000190: 7157 2f3e bfd8 36bd fdeb 05be cbc6 12bd
000001a0: 3623 313e 2709 f5bd db6c 08be f9c0 4e3c
000001b0: 40c9 d4bc 3fc4 a83d 34ae bfbb 35f0 823d
000001c0: 5dbd 9dbd 58dc 11be 6bea 723c 91ed f0bc
000001d0: 00db 7dbc 0f41 f1bd f071 123e 8fb6 883d
000001e0: 4f41 cc3b 8332 06be a15c 22be b8b7 1abe
000001f0: ddcb e63d a226 2bbd b8c5 073e 40f0 303e
00000200: 8b53 213c 8b5a ce3d 7d88 14be c293 b63a
00000210: 31d1 1c3d 8e0f c8bd c2ea 35bc eaa3 46bd
00000220: cff9 bd3d 28ae 193e dfdc b1bd a7bc ee3a
00000230: 1dba bfbd 41ad 22be 0bc4 9c3d 3d89 c33c
00000240: d9f2 0f3e 66c2 24be 4d67 42bd 30fe f73d
00000250: 8eb0 113e a73a c9bd f3dc 24bd 23e9 bbbc
00000260: 21ca 01bd fbee 8fbd 364e adbd efa7 983c
00000270: 6091 ecbd 909c ae3d 54a0 003d 7f6c d7bc
00000280: 8220 933d 8afb 2b3e 0d27 073e f80e b1bd
00000290: 536f 8dbd 34b0 393d 2630 f0bd 0c29 d0bd
000002a0: a18c 15be f342 81bd ab56 bfbd 9f9c d33d
000002b0: db6c 1cbe 4f60 c83d 4d97 95bd 2c4c 82bb
000002c0: 71be 06be c1ac c43d 04d9 a0bd 4b42 18be
000002d0: 9332 2fbe 2c48 41bd 16ba cb3d beaf 973d
000002e0: 97aa 46bd cc36 e0bd 16cc 29bd a189 9c3d
000002f0: b18f cb3c 35f4 223d e1f5 9fbd 774d 6d3d
00000300: 57b1 b53d b1a0 bf3d 66f5 a4bd ffe9 85bc
00000310: 1146 2c3e 3521 0bbe 5483 0abe 0d3a 82bc
00000320: a12b 093b 32b7 11be d974 4abd 7161 eb3d
00000330: aece d13d 0064 14be 9432 ea3d de94 1ebe
00000340: fba0 fabd aaac 12be 04f1 143e 6cdf 2bbe
00000350: 42a4 8bbd 1b71 ebbd ef6f aabd b9ce 84bd
00000360: d011 013e 4474 2bbe a6b9 08be 0e1a 9dbd
00000370: f7df e5bd b714 dfbd 6f42 34be e658 053e
00000380: 5075 07be e64e e73d 5ab1 ca3c d3e3 6fbd
00000390: c6b5 aebd a09a 1fbe 095f 15be ec4e ccbd
000003a0: be93 293e adff 06be 8fc4 733d ba0c eebd
000003b0: e118 083e bf98 763d 3928 023e e90f 8b3c
000003c0: 2551 7cbd aab2 593d e8bf fc3d 21a2 863d
000003d0: df90 b0bc a2a4 b5bd 8bc6 4ebc 5974 2dbe
000003e0: 34ac f83d 7755 90bc 99d9 01be 9e6d 993c
000003f0: 82b6 08be 61dd b3bc d957 e53d a619 08bd

actor.0.bias f4 [128]
0.06237708 -0.025978537 0.07508634 -0.09510466 0.1361351 0.100519285 -0.17046282 -0.017814334
-0.018496249 0.11940352 0.1057385 -0.16139263 -0.07381415 0.0658848 0.15849932 -0.05025531
-0.074775144 -0.027352082 -0.0844135 -0.010645366 -0.14968742 -0.034111362 -0.015512737 0.12691541
0.1737048 0.07571502 0.15305836 -0.067461595 0.17190102 -0.17073679 -0.07548652 -0.06292541
0.13926783 -0.07548285 -0.05280254 0.12242667 0.1501544 0.07925959 -0.08014674 0.060956776
-0.10262407 -0.15506944 0.05088332 -0.035137765 0.12348582 -0.09815763 0.145375 -0.068571806
0.012863892 -0.17080098 -0.15493797 -0.0075290287 0.10939889 0.059006765 0.17197351 -0.1568889
0.12586562 -0.12163428 -0.16624764 -0.12335468 0.13714348 -0.082263865 -0.04351464 0.0726556
-0.15199567 -0.115662225 -0.1356796 0.013548167 -0.0545188 0.0540472 -0.058010835 0.15403217
-0.04583649 0.058104426 0.053719614 -0.06303398 -0.12204697 0.060104102 0.0094066495 -0.14539653
0.13944554 -0.023574544 -0.07870486 -0.13811032 0.028338276 -0.015015847 -0.062154695 0.03618522
0.114169344 -0.14241146 0.16062757 0.16936108 -0.085661694 -0.017526219 0.07568775 -0.09640025
-0.10394778 0.09350716 0.056959946 0.040811174 -0.08497555 0.042427674 0.04912626 -0.008016225
0.1325653 -0.043810047 0.08255607 -2.6826468e-05 0.109390646 0.0912093 -0.05713671 0.10800216
0.07521598 0.112772845 0.046090003 -0.004147903 0.15200092 0.08207207 0.13206428 0.1640464
0.17286232 -0.013819825 -0.11197459 0.14887899 0.13160823 -0.11568865 -0.09493542 -0.16797309
00000000: 1c7f 7f3d f1d0 d4bc dec6 993d 3bc6 c2bd
00000010: 0067 0b3e 0edd cd3d ce8d 2ebe 5eef 91bc
00000020: 7285 97bc d589 f43d 6d8d d83d 1c44 25be
00000030: e02b 97bd 9cee 863d a54d 223e 83d8 4dbd
00000040: b623 99bd 7911 e0bc fce0 acbd e769 2ebc
00000050: a947 19be 5bb8 0bbd 2329 7ebc 1df6 013e
00000060: acdf 313e 7a10 9b3d 55bb 1c3e 4e29 8abd
00000070: d206 303e a0d5 2ebe ad98 9abd 0adf 80bd
00000080: 3a9c 0e3e c196 9abd 7a47 58bd d5ba fa3d
00000090: 13c2 193e da52 a23d f923 a4bd d0ad 793d
000000a0: 922c d2bd 86ca 1ebe 076b 503d 9eec 0fbd
000000b0: 22e6 fc3d de06 c9bd 2fdd 143e 606f 8cbd
000000c0: 13c3 523c 74e6 2ebe 0fa8 1ebe 12b6 f6bb
000000d0: 860c e03d 14b1 713d d319 303e 7ca7 20be
000000e0: ebe2 003e 651b f9bd d23c 2abe 61a1 fcbd
000000f0: 576f 0c3e f579 a8bd 683c 32bd 76cc 943d
00000100: c1a4 1bbe 51e0 ecbd 98ef 0abe 22f9 5d3c
00000110: 1b4f 5fbd 9960 5d3d c59c 6dbd 9cba 1d3e
00000120: 0bbf 3bbd e8fe 6d3d 1909 5c3d f617 81bd
00000130: c3f3 f9bd b82f 763d 591e 1a3c d4e2 14be
00000140: d0ca 0e3e 671f c1bc 0330 a1bd cb6c 0dbe
00000150: ac25 e83c 0705 76bc ec95 7ebd f436 143d
00000160: 9ed1 e93d 4fd4 11be 8e7b 243e fe6c 2d3e
00000170: 666f afbd 2593 8fbc 2e02 9b3d 7f6d c5bd
00000180: 93e2 d4bd af80 bf3d d54e 693d 9e29 273d
00000190: a907 aebd a4c8 2d3d 9e38 493d 7c56 03bc
000001a0: 33bf 073e 2a72 33bd 2813 a93d 6709 e1b7
000001b0: 3408 e03d f1cb ba3d 2f08 6abd 3d30 dd3d
000001c0: d60a 9a3d 73f5 e63d dfc8 3c3d 22eb 87bb
000001d0: 21a6 1b3e 6715 a83d dc3b 073e c8fb 273e
000001e0: d202 313e 8c6c 62bc ef52 e5bd bc73 183e
000001f0: 4fc4 063e 2cee ecbd 806d c2bd 2301 2cbe

actor.2.weight f4 [64, 128]
-0.04505381 -0.03462546 0.071568444 0.025286412 -0.018576877 0.0069716894 -0.032399103 0.024181047
0.08037231 0.048947085 -0.006672626 -0.021297729 -0.042210437 -0.0650162 0.06293571 0.009170554
-0.07588888 0.062045388 0.07723121 0.06713955 0.036777098 -0.021318445 -0.008663411 0.08664377
0.003073622 -0.00090987666 -0.039151955 0.041813225 0.08266403 0.020035978 -0.051860653 -0.03380172
0.079392135 -0.057373166 0.047431674 0.015617799 -0.083051406 0.08574182 0.014233707 -0.06290466
-0.006918953 0.039321996 0.032130156 -0.041271437 0.079530574 -0.052860357 -0.08550283 -0.026399689
0.023833737 0.043153495 -0.015877286 0.039919388 -0.08097069 -0.018614914 0.051019296 0.057598956
-0.008101889 -0.043669436 0.0021525554 0.07530174 0.03147787 -0.056491002 -0.0065161134 0.010381811
0.0715241 0.008380057 -0.05424509 0.059985258 0.043086942 0.044837587 -0.021347536 0.060556497
0.045055423 0.034371775 0.016073123 0.04146332 0.06899352 -0.012191397 0.07494568 -0.0033325406
-0.073386304 -0.011200019 -0.004408065 0.040099196 -0.003376289 0.03622722 -0.08310338 -0.019075885
-0.028508466 -0.05143593 0.055170696 0.020831648 0.08475906 0.054025106 0.0133724045 -0.048327874
-0.023453288 0.0057724323 -0.045409445 0.033594284 0.06961604 0.0430046 0.064030945 0.0047258944
0.017431114 -0.034046117 0.04718662 0.065209866 0.081792526 -0.026051357 -0.08507535 0.06749675
-0.076356255 -0.07017465 -0.08792632 0.007886929 -0.070659496 0.04418452 -0.0036589575 0.043824747
-0.03848688 -0.033693243 0.016786383 -0.07410281 -0.043673437 0.019244999 -0.07318542 0.004138041
-0.06554842 -0.08554625 -0.08410016 0.0049742553 -0.0181203 0.014482974 -0.045488566 -0.043738324
-0.056785565 0.03324364 0.04991679 0.04676924 0.015837837 0.07269715 0.04225448 -0.08829217
-0.0013796454 -0.06474928 -0.016400022 0.0032066903 0.0759581 0.035572078 0.049563177 0.073069274
-0.05421718 0.024438923 0.038078435 0.047853604 0.06296185 -0.0724255 -0.061760906 -0.05149774
-0.06368576 0.076263465 0.078060105 0.074979484 0.02626993 -0.00560257 0.07763973 -0.015727444
-0.043597836 -0.07824026 0.017270176 -0.060381662 -0.024883552 -0.078400955 0.076823525 -0.057143234
-0.08745154 0.07110206 0.023666088 0.0027688898 -0.02294644 0.012265017 0.074315526 -0.07159009
0.07426124 -0.047305685 0.04637246 -0.0057183895 0.085185796 0.03834341 -0.08619248 0.07251013
0.060051102 -0.060318872 0.0547194 -0.064119846 -0.0076413816 -0.076222405 0.029248437 0.05537628
-0.041794006 -0.077078216 -0.013145549 -0.04232692 -0.06758427 0.06343933 -0.02912462 -0.04196665
0.035777077 0.029828558 -0.06759565 -0.017777877 0.038948145 -0.008306827 0.03691242 -0.04545003
-0.00248855 0.016107734 0.03597125 -0.03775187 -0.08399899 0.05808488 -0.087714046 0.0687524
-0.019832926 -0.042626005 0.081711404 0.0025580502 -0.08529253 0.06922682 0.08809334 0.08220223
0.06201057 0.046318132 0.044198714 -0.079374045 -0.027362397 0.02404622 0.010843109 0.07920051
0.028642587 -0.018736739 -0.013318572 0.05625108 -0.0547332 0.018047007 -0.050894815 -0.06876841
0.048627347 0.010048062 -0.052268717 -0.025437603 0.0009815263 -0.06028451 0.03221507 -0.04667144
00000000: 588a 38bd 6dd3 0dbd 7a92 923d 7325 cf3c
00000010: 892e 98bc c572 e43b ecb4 04bd 5517 c63c
00000020: 3d9a a43d bd7c 483d 0ba6 dabb 9378 aebc
00000030: dae4 2cbd 3727 85bd 70e4 803d 1740 163c
00000040: a16b 9bbd 4e23 7e3d 662b 9e3d 7680 893d
00000050: 95a3 163d 05a4 aebc fbf0 0dbc 4a72 b13d
00000060: d26e 493b ca84 6eba cd5d 20bd 5844 2b3d
00000070: c24b a93d 7e22 a43c d66b 54bd ac73 0abd
00000080: 5898 a23d 2000 6bbd b747 423d cce1 7f3c
00000090: db16 aabd 6899 af3d 7f34 693c 29d4 80bd
000000a0: 62b8 e2bb 1a10 213d e99a 033d 3d0c 29bd
000000b0: ede0 a23d 1a84 58bd 1c1c afbd 2944 d8bc
000000c0: f83e c33c b8c1 303d 1511 82bc 8382 233d
000000d0: f6d3 a5bd 4e7e 98bc 9cf9 503d e2ec 6b3d
000000e0: c9bd 04bc b9de 32bd e311 0d3b cc37 9a3d
000000f0: f0ee 003d 1c63 67bd 1f85 d5bb 7918 2a3c
00000100: 3a7b 923d 824c 093c 1930 5ebd 1ab3 753d
00000110: ef7b 303d 9ea7 373d 07e1 aebc 170a 783d
00000120: 098c 383d 6bc9 0c3d c8ab 833c 71d5 293d
00000130: 7a4c 8d3d 6dbe 47bc 1f7d 993d c166 5abb
00000140: 8f4b 96bd 4980 37bc 8871 90bb 0e3f 243d
00000150: bb44 5dbb fe62 143d 1b32 aabd 0845 9cbc
00000160: 968a e9bc 7bae 52bd abfa 613d 22a7 aa3c
00000170: 2896 ad3d 6e49 5d3d ee17 5b3c 73f3 45bd
00000180: 1c21 c0bc ac26 bd3b 41ff 39bd 299a 093d
00000190: db92 8e3d 9725 303d a822 833d addb 9a3b
000001a0: b2cb 8e3c f173 0bbd c246 413d c08c 853d
000001b0: d782 a73d a869 d5bc fc3b aebd bc3b 8a3d
000001c0: ab60 9cbd bab7 8fbd b712 b4bd 2e38 013c
000001d0: edb5 90bd d4fa 343d 1fcb 6fbb 9481 333d
000001e0: 6ba4 1dbd ed01 0abd 9983 893c 37c3 97bd
000001f0: ebe2 32bd b0a7 9d3c 3de2 95bd 6798 873b
00000200: 403e 86bd df32 afbd b43c acbd 14ff a23b
00000210: 0671 94bc ff49 6d3c 3852 3abd f526 33bd
00000220: fb97 68bd 7c2a 083d 8c75 4c3d 1a91 3f3d
00000230: 5abe 813c 3ee2 943d 0913 2d3d 86d2 b4bd
00000240: 38d5 b4ba 459b 84bd 5759 86bc 5627 523b
00000250: ec8f 9b3d 07b4 113d c202 4b3d 58a5 953d
00000260: d512 5ebd 2334 c83c 22f8 1b3d 2402 443d
00000270: 24f2 803d d253 94bd 01f9 7cbd 4bef 52bd
00000280: ae6d 82bd 0530 9c3d fadd 9f3d d88e 993d
00000290: 0934 d73c c395 b7bb 9401 9f3d d7d6 80bc
000002a0: a593 32bd 6e3c a0bd 2f7a 8d3c c352 77bd
000002b0: 97d8 cbbc ae90 a0bd a755 9d3d 060f 6abd
000002c0: cb19 b3bd f59d 913d 62df c13c 4376 353b
000002d0: 2cfa bbbc 36f3 483c bd32 983d d39d 92bd
000002e0: 4716 983d 9bc3 41bd 0cf1 3d3d 5461 bbbb
000002f0: e475 ae3d fb0d 1d3d af85 b0bd 3180 943d
00000300: 25f8 753d ec10 77bd 7321 603d 4451 83bd
00000310: 8e64 fabb 7e1a 9cbd 6b9a ef3c 3dd2 623d
00000320: 3130 2bbd 2fdb 9dbd 6e60 57bc fe5e 2dbd
00000330: 9f69 8abd 7bec 813d c196 eebc 39e5 2bbd
00000340: fc8a 123d 055b f43c 976f 8abd e9a2 91bc
00000350: 1788 1f3d 5c19 08bc 7a31 173d d029 3abd
00000360: f116 23bb 5ef4 833c 9756 133d b4a1 1abd
00000370: aa07 acbd 69ea 6d3d 6ca3 b3bd 0fce 8c3d
00000380: a978 a2bc 9b98 2ebd 4f58 a73d f6a4 273b
00000390: daad aebd cac6 8d3d 486a b43d a559 a83d
000003a0: ccfe 7d3d 15b8 3d3d b609 353d dc8e a2bd
000003b0: 1b27 e0bc 94fc c43c 4ca7 313c e133 a23d
000003c0: dca3 ea3c ca7d 99bc 2436 5abc 8867 663d
000003d0: ec2f 60bd 51d7 933c 1577 50bd 74d6 8cbd
000003e0: 782d 473d a0a0 243c b917 56bd 8562 d0bc
000003f0: 8fa6 803a e4ec 76bd f3f3 033d 8d2a 3fbd

actor.2.bias f4 [64]
0.02989342 -0.07711773 -0.036704827 -0.074711874 0.024002777 0.0629582 0.085753776 0.005876651
-0.0036408976 -0.08802716 -0.0011923976 -0.029089164 -0.028397208 0.021455739 0.08208079 0.0012393596
-0.015531324 0.083102226 0.07267176 0.054571044 -0.07573412 0.006420672 0.048963647 0.0004661336
0.07611165 0.034912456 0.076161176 -0.020448355 0.08774434 0.06977375 0.05078084 0.08723379
0.016879011 0.009774033 -0.032656524 0.027781496 -0.006213794 -0.042645425 0.05945699 0.08369817
0.0804212 -0.047349993 -0.0025182636 -0.066751964 0.0018189948 -0.0015610245 0.029963236 -0.08367545
0.055787887 -0.06916621 -0.009977444 0.03470402 0.02038173 -0.03602523 0.07156979 0.012418157
0.010185165 -0.0014252168 0.042521365 0.020161755 -0.030482508 -0.014087005 -0.055645376 0.087526545
00000000: 0ce3 f43c e7ef 9dbd cd57 16bd 8a02 99bd
00000010: 79a1 c43c 3bf0 803d ad9f af3d ec90 c03b
00000020: 209c 6ebb 9547 b4bd 394a 9cba 664c eebc
00000030: 43a1 e8bc f2c3 af3c f919 a83d 0272 a23a
00000040: 1877 7ebc 8031 aa3d efd4 943d e385 5f3d
00000050: 7e1a 9bbd 8064 d23b 1b8e 483d 6563 f439
00000060: 6de0 9b3d 5d00 0f3d 64fa 9b3d 4f83 a7bc
00000070: 4eb3 b33d 8ae5 8e3d 92ff 4f3d a1a7 b23d
00000080: da45 8a3c 4423 203c d9c2 05bd 0596 e33c
00000090: 159d cbbb f8ac 2ebd 2c89 733d f269 ab3d
000000a0: dfb3 a43d 11f2 41bd 7409 25bb 41b5 88bd
000000b0: 566b ee3a 4a9b ccba 7675 f53c 095e abbd
000000c0: d781 643d 04a7 8dbd 6f78 23bc cd25 0e3d
000000d0: 96f7 a63c 318f 13bd 2f93 923d 8775 4b3c
000000e0: aedf 263c 57ce baba e22a 2e3d 442a a53c
000000f0: 74b6 f9bc 2ecd 66bc 68ec 63bd 1e41 b33d

actor.4.weight f4 [4, 64]
0.029212475 0.03048943 -0.08319321 0.04764308 -0.034936696 0.001910463 0.10729253 -0.09680815
-0.036396995 0.068405 -0.05951862 0.07031937 0.10822286 0.0046180338 -0.04444647 -0.017460078
0.06962842 -0.042562097 -0.0778584 0.029036582 0.035016343 -0.037292406 0.11781813 -0.08968182
0.04580033 0.044143155 -0.12471411 0.07254082 0.011949882 0.038968787 -0.037052706 0.008278206
0.021416634 -0.10459831 -0.052078918 -0.073486924 -0.08385493 -0.114678755 -0.09052925 -0.09827727
-0.11172961 0.08486797 0.09237154 -0.06931785 0.00570105 -0.11657293 0.07993138 0.012532458
-0.09215857 0.11371705 -0.07977885 0.06592552 -0.00018467009 -0.0018738657 0.104263306 0.0034067333
-0.11983164 0.10993262 0.00015090406 -0.053435385 0.10584438 -0.00096414983 -0.09620513 -0.02621147
0.09376156 0.004198745 -0.008679956 -0.11863066 -0.072273344 -0.0428178 -0.06509431 -0.11072181
0.0069863945 -0.0023732632 -0.100874245 0.02918078 -0.04529363 -0.01969105 0.021615595 0.096967995
-0.021515056 -0.02129665 0.102995634 -0.105331495 -0.06927018 0.11060658 0.062689945 -0.0017838627
-0.07468361 -0.038912073 -0.013006076 -0.03291902 0.1066556 -0.078568414 0.038271412 -0.08896878
-0.071225405 0.09551427 0.059467554 0.10428354 -0.06248471 -0.066136226 -0.0034129322 0.06730424
-0.0726662 0.115511656 0.03495574 0.04371126 -0.04552169 0.08219187 0.09215039 -0.0234714
0.11058535 -0.043479457 0.049778715 0.12285897 0.11513615 0.030012563 0.08299951 0.08173719
0.021193966 0.06713316 -0.11233936 -0.06402573 -0.096200734 0.08813724 -0.061193213 -0.07791747
-0.039531812 0.03145896 -0.004729852 0.03949873 0.016652197 0.045713544 0.008839458 0.08259222
-0.028978035 0.027953967 -0.083119035 -0.030878916 -0.048920736 0.026733696 -0.041242555 0.081021965
-0.07657112 -0.077907726 0.0030252486 -0.007238731 -0.04390937 0.036179006 -0.03643483 0.118883446
-0.0394734 0.081473514 0.033541948 -0.11443359 0.12467259 0.11502513 0.09230912 0.069485664
0.025277019 -0.06955683 -0.0009987056 0.008246422 0.08446686 -0.10668832 0.074147 -0.09552191
0.060468197 -0.016106233 0.036625743 0.0074782968 0.018556148 0.00058169663 -0.09563561 0.06836042
-0.069948465 0.0020788163 -0.1041273 0.07466787 -0.106716245 0.074672475 0.118920326 -0.055365816
0.0797115 0.09413326 0.012895986 0.02022396 -0.07086815 -0.017264783 0.050391212 -0.015857399
0.016238779 -0.07660805 0.067740604 -0.042378217 0.036876976 0.006262228 0.046664953 0.05068314
0.094335735 0.06460558 -0.106728196 -0.042756394 0.094047725 -0.09356339 -0.022868752 -0.08034776
0.10303566 0.10769668 0.09093937 -0.023789406 -0.010838553 -0.014077932 0.046805948 -0.092431545
-0.116181105 -0.019877449 0.074199915 -0.051908493 -0.107585445 -0.07885544 -0.04829502 0.1074456
-0.047009155 0.0655878 -0.0915484 0.017298117 -0.0032233 0.059175238 -0.048553646 -0.07591306
-0.032756776 0.013860494 -0.07455109 0.10594532 -0.011228323 0.08551724 -0.010647088 -0.0506047
0.090751946 -0.11728023 0.037249878 -0.09955317 -0.11463867 0.07194756 0.11032532 -0.023609564
-0.0999518 -0.060815424 -0.07443176 -0.00868991 0.11214279 -0.11434066 -0.06919812 -0.018615112
00000000: 004f ef3c f8c4 f93c 3461 aabd 6425 433d
00000010: c819 0fbd 8068 fa3a 30bc db3d 5a43 c6bd
00000020: 0415 15bd ec17 8c3d ccc9 73bd 9a03 903d
00000030: f2a3 dd3d e052 973b 800d 36bd 7008 8fbc
00000040: 5899 8e3d 9855 2ebd 3a74 9fbd 20de ed3c
00000050: 4c6d 0f3d ecbf 18bd a24a f13d 1aab b7bd
00000060: 2099 3b3d 74cf 343d 1c6a ffbd 4890 943d
00000070: 70c9 433c bc9d 1f3d 94c4 17bd 50a1 073c
00000080: f071 af3c a437 d6bd b450 55bd 5080 96bd
00000090: 22bc abbd b2dc eabd 6667 b9bd 9845 c9bd
000000a0: 7ed2 e4bd 42cf ad3d 4a2d bd3d 84f6 8dbd
000000b0: e0cf ba3b cabd eebd 10b3 a33d f054 4d3c
000000c0: a2bd bcbd 7ce4 e83d 1863 a3bd f603 873d
000000d0: 00a4 41b9 809c f5ba 0088 d53d 8043 5f3b
000000e0: 4a6a f5bd 5a24 e13d 003c 1e39 10df 5abd
000000f0: f0c4 d83d 00bf 7cba 3207 c5bd 70b9 d6bc
00000100: 1006 c03d a095 893b 6036 0ebc a2f4 f2bd
00000110: 0c04 94bd b861 2fbd 2a50 85bd 1ec2 e2bd
00000120: 20ee e43b c088 1bbb 2897 cebd 880c ef3c
00000130: d085 39bd 204f a1bc 3013 b13c 2897 c63d
00000140: 5840 b0bc 5076 aebc 60ef d23d 0ab8 d7bd
00000150: 86dd 8dbd b485 e23d 9663 803d 80d0 e9ba
00000160: b8f3 98bd 4462 1fbd 7017 55bc 18d6 06bd
00000170: 406e da3d 7ae8 a0bd 7cc2 1c3d 4435 b6bd
00000180: a0de 91bd fc9c c33d 4094 733d 9c92 d53d
00000190: f8ef 7fbd 6e72 87bd 80ab 5fbb ced6 893d
000001a0: 04d2 94bd 6091 ec3d c02d 0f3d 940a 333d
000001b0: f474 3abd 3654 a83d 58b9 bc3d 1847 c0bc
000001c0: 927a e23d 8417 32bd c4e4 4b3d 7c9d fb3d
000001d0: 80cc eb3d e8dc f53c a6fb a93d d465 a73d
000001e0: f89e ad3c 1c7d 893d 2e12 e6bd ec1f 83bd
000001f0: e404 c5bd 4c81 b43d bca5 7abd 3293 9fbd
00000200: 1cec 21bd 1cdb 003d e0fc 9abb 6cc9 213d
00000210: 306a 883c 203e 3b3d 60d3 103c 1c26 a93d
00000220: 5863 edbc b8ff e43c 503a aabd c8f5 fcbc
00000230: 1c61 48bd a000 db3c f4ed 28bd d8ee a53d
00000240: 52d1 9cbd 168e 9fbd 4043 463b e032 edbb
00000250: 50da 33bd 7030 143d b03c 15bd 2a79 f33d
00000260: dcae 21bd 96db a63d 4863 093d 285c eabd
00000270: 5854 ff3d 4c92 eb3d 900c bd3d 804e 8e3d
00000280: c011 cf3c d073 8ebd 00e7 82ba 001c 073c
00000290: f6fc ac3d 687f dabd 62da 973d fea0 c3bd
000002a0: 80ad 773d 38f1 83bc e004 163d 800c f53b
000002b0: 1003 983c 007d 183a 9adc c3bd 8c00 8c3d
000002c0: 2441 8fbd c03c 083b b240 d5bd 78eb 983d
000002d0: 0c8e dabd e2ed 983d 808c f33d 44c7 62bd
000002e0: c83f a33d f0c8 c03d b049 533c b8ac a53c
000002f0: 5223 91bd e06e 8dbc 0467 4e3d 60e7 81bc
00000300: 3007 853c aee4 9cbd 96bb 8a3d c894 2dbd
00000310: 500c 173d 6033 cd3b c023 3f3d 2099 4f3d
00000320: 1833 c13d ee4f 843d 5094 dabd 5421 2fbd
00000330: 189c c03d 2a9e bfbd 4057 bbbc 5e8d a4bd
00000340: 5c04 d33d 1490 dc3d 6c3e ba3d 00e2 c2bc
00000350: 3094 31bc 20a7 66bc 98b7 3f3d c04c bdbd
00000360: 5cf0 edbd 08d6 a2bc 20f6 973d 009e 54bd
00000370: c255 dcbd f67e a1bd 00d1 45bd 700c dc3d
00000380: ac8c 40bd e652 863d ba7d bbbd c8b4 8d3c
00000390: 003e 53bb bc61 723d 30e0 46bd 4e78 9bbd
000003a0: f82b 06bd 2017 633c 3eae 98bd dcf9 d83d
000003b0: 00f7 37bc aa23 af3d 2071 2ebc e046 4fbd
000003c0: 28dc b93d 9e30 f0bd 5493 183d 88e2 cbbd
000003d0: aec7 eabd 3e59 933d 3ef2 e13d d868 c1bc
000003e0: 88b3 ccbd 9819 79bd ae6f 98bd 2060 0ebc
000003f0: 1eab e53d 702b eabd beb7 8dbd b87e 98bc

actor.4.bias f4 [4]
0.06814745 -0.09202239 -0.03172545 0.106308475
00000000: e490 8b3d 3c76 bcbd 8cf2 01bd 42b8 d93d

critic.0.weight f4 [128, 32]
-0.10356881 -0.13094877 0.14386348 -0.15813756 0.15074567 0.14995842 -0.040113132 -0.0004365806
0.028440084 -0.0044444664 -0.08585753 0.13803867 0.14360873 0.051873665 0.08511395 0.03238763
0.12237812 -0.013995302 0.042135183 0.004441427 0.05716919 -0.15382794 -0.059189364 -0.020257695
0.086517364 0.15255596 0.0704393 0.028074624 0.0098034 0.09102067 -0.008933251 0.0824838
0.0925824 -0.09772421 0.17361726 0.009347518 -0.093769275 0.09052753 0.17290427 -0.052993067
-0.098737866 0.006745919 -0.046283983 0.038575765 -0.060225252 0.05552371 -0.16647038 -0.12922923
0.019407127 0.08738426 0.17648293 0.12943605 -0.0076347752 -0.16984494 0.09671077 -0.17645583
0.0063240714 0.16615054 0.147587 0.15535703 0.14936204 0.037616316 0.072832786 -0.06665802
-0.10020761 -0.12516506 -0.0075824615 -0.019093726 -0.08506972 0.07854868 -0.014422002 0.094504386
-0.059960894 -0.092582926 0.08724851 0.00905498 -0.118062206 -0.0048724716 0.0068329866 0.07504589
0.088786595 -0.08298809 -0.113692 0.10199676 0.089380845 -0.1431 0.09803543 0.103238694
-0.008469835 -0.04989547 -0.05043711 0.03794593 0.07539594 -0.16271318 -0.107115276 0.105663374
0.16622767 0.06965651 -0.042246755 -0.16544849 -0.0422621 -0.116504006 0.17356133 -0.064277336
-0.10564394 0.033210915 0.08599894 0.070575826 0.13592269 -0.16597256 -0.02891693 -0.112536974
-0.032075625 -0.047058348 0.1354658 -0.15518588 0.12624857 0.12284255 0.07183399 0.14457357
-0.019488027 0.08787173 -0.12560862 -0.16367608 -0.011079374 -0.16742688 -0.13369796 0.058988392
-0.033686895 0.01469783 -0.062439214 0.118348695 0.078763925 0.05497739 0.070736766 -0.06284219
0.023109742 -0.031735722 -0.0081031155 -0.07806202 0.15072188 -0.006157517 -0.098309755 -0.16695286
-0.038193543 -0.059248015 -0.031090192 -0.093760446 -0.029824995 0.014151351 -0.054515444 -0.15495981
0.03392817 -0.078068696 -0.0031125736 0.14020142 0.061201993 0.1646758 0.066644065 0.15162553
-0.1496783 0.044405997 0.035733223 -0.041027565 -0.0807523 -0.01611537 0.09407949 0.05755699
0.042960685 0.00899774 0.13235836 -0.07849943 -0.038648147 -0.032664374 0.010537094 0.11249935
-0.013877013 0.0040259073 0.006369735 0.18505433 -0.08309402 -0.051252857 0.02858082 0.026717128
-0.1716409 0.17721379 0.10352672 0.12130343 0.11777098 -0.16016316 -0.079708144 0.023049537
-0.15984869 -0.051717 0.0152127715 -0.039664388 0.08823841 0.044727277 -0.056028448 -0.128377
0.012070359 0.02751541 0.008359244 0.1178977 -0.12727882 -0.034363393 -0.060239024 -0.16191886
0.16738136 -0.15150505 -0.018769855 0.075639516 0.15119117 -0.06438388 0.029321617 0.09152744
0.019786542 0.14192964 -0.06301885 0.13461545 0.09961422 -0.123944506 0.0719351 -0.02609399
-0.042114202 -0.12905562 0.07527664 0.009189631 -0.08630509 0.022450374 0.06473923 0.1296222
-0.10962698 0.10448974 0.0070829624 0.08724561 -0.04455031 0.03017142 0.16068344 0.12486712
-0.089333616 0.053458557 0.16876727 -0.13469614 0.026101977 -0.024274176 0.10712142 0.10081505
-0.08206441 0.11615225 -0.17250971 0.029601382 -0.10382459 -0.040840816 -0.11877373 -0.10705711
00000000: e21b d4bd 6f17 06be f350 133e d0ee 21be
00000010: 135d 1a3e b38e 193e ab4d 24bd dbe4 e4b9
00000020: 2efb e83c e3a2 91bb 13d6 afbd 025a 0d3e
00000030: 2b0e 133e 7b79 543d 3950 ae3d e4a8 043d
00000040: 61a1 fa3d 8d4c 65bc f195 2c3d 6489 913b
00000050: 3e2a 6a3d 1285 1dbe 8c70 72bd 77f3 a5bc
00000060: 0430 b13d a137 1c3e 7b42 903d c1fc e53c
00000070: 719e 203c 0c69 ba3d c55c 12bc 44ed a83d
00000080: d79b bd3d a123 c8bd b9c8 313e 5526 193c
00000090: 1b0a c0bd 7f66 b93d d10d 313e 420f 59bd
000000a0: 1437 cabd df0c dd3b 4694 3dbd 9f01 1e3d
000000b0: c1ae 76bd d46c 633d 3677 2abe ab54 04be
000000c0: b2fb 9e3c 85f6 b23d f1b7 343e e28a 043e
000000d0: 232d fabb d5eb 2dbe 4c10 c63d d6b0 34be
000000e0: 283a cf3b 5e23 2a3e 0c21 173e ea15 1f3e
000000f0: 5df2 183e 9113 1a3d 5b29 953d 0084 88bd
00000100: a639 cdbd 452b 00be 4c76 f8bb 726a 9cbc
00000110: 0939 aebd 21de a03d 434a 6cbc 848b c13d
00000120: 8e99 75bd 1e9c bdbd 59af b23d 575b 143c
00000130: 99ca f1bd 41a9 9fbb 3fe7 df3b a9b1 993d
00000140: bfd5 b53d a9f5 a9bd 5ad7 e8bd ade3 d03d
00000150: 4e0d b73d ce88 12be cdc6 c83d cf6e d33d
00000160: 10c5 0abc 315f 4cbd 2597 4ebd 316d 1b3d
00000170: 3069 9a3d 499e 26be 415f dbbd 0a66 d83d
00000180: 9637 2a3e 13a8 8e3d ef0a 2dbd 546b 29be
00000190: 061b 2dbd a799 eebd 10ba 313e d6a3 83bd
000001a0: da5b d8bd 2b08 083d 3620 b03d 0f8a 903d
000001b0: 512f 0b3e b6f4 29be 33e3 ecbc c979 e6bd
000001c0: bb61 03bd 41c0 40bd 8cb7 0a3e 0ce9 1ebe
000001d0: 4e47 013e e094 fb3d b31d 933d 180b 143e
000001e0: 5ba5 9fbc 18f6 b33d 8c9f 00be b49a 27be
000001f0: 4386 35bc f471 2bbe 1ee8 08be d09d 713d
00000200: 45fb 09bd 2bcf 703c 43c0 7fbd cd60 f23d
00000210: fb4e a13d f92f 613d 70de 903d 68b3 80bd
00000220: a450 bd3c 51fd 01bd eec2 04bc fbde 9fbd
00000230: d656 1a3e ffc4 c9bb a056 c9bd b1f5 2abe
00000240: d570 1cbd 0cae 72bd dcb0 febc 7a05 c0bd
00000250: 8c53 f4bc 11db 673c 964b 5fbd c9ad 1ebe
00000260: 44f8 0a3d 7be2 9fbd 52fc 4bbb f690 0f3e
00000270: f1ae 7a3d c6a0 283e af7c 883d b943 1b3e
00000280: 4545 19be 10e3 353d 005d 123d 850c 28bd
00000290: 7661 a5bd 6104 84bc bfac c03d e1c0 6b3d
000002a0: 8bf7 2f3d 426b 133c f388 073e 4fc4 a0bd
000002b0: 854d 1ebd 14cb 05bd c7a3 2c3c 0f66 e63d
000002c0: 695c 63bc c2eb 833b 36b9 d03b e27e 3d3e
000002d0: 332d aabd 84ee 51bd 5322 ea3c e1dd da3c
000002e0: a2c2 2fbe 8877 353e d105 d43d ef6d f83d
000002f0: e931 f13d d001 24be 063e a3bd 62d2 bc3c
00000300: 60af 23be 34d5 53bd fd3e 793c 2077 22bd
00000310: 57b6 b43d f333 373d 167e 65bd 4375 03be
00000320: c1c2 453c ff67 e13c 36f5 083c 5974 f13d
00000330: 6155 02be a1c0 0cbd 32bd 76bd 0fce 25be
00000340: 0566 2b3e 2424 1bbe 3dc3 99bc e4e8 9a3d
00000350: dcd1 1a3e b2db 83bd e333 f03c bd72 bb3d
00000360: 6317 a23c 0156 113e 0710 81bd a2d8 093e
00000370: 8a02 cc3d 9ed6 fdbd b652 933d 10c3 d5bc
00000380: f17f 2cbd 2827 04be a42a 9a3d 1b90 163c
00000390: b9c0 b0bd d9e9 b73c 0096 843d afbb 043e
000003a0: 1c84 e0bd b8fe d53d 3218 e83b d4ad b23d
000003b0: 637a 36bd 0e2a f73c 338a 243e 55ba ff3d
000003c0: 8bf4 b6bd 5cf7 5a3d 54d1 2c3e c9ed 09be
000003d0: d0d3 d53c a3da c6bc 7a62 db3d 1f78 ce3d
000003e0: 6311 a8bd 3be1 ed3d 63a6 30be 997e f23c
000003f0: fda1 d4bd b348 27bd a43f f3bd c240 dbbd

critic.0.bias f4 [128]
-0.015311871 0.08904082 -0.011016786 0.101680346 0.07440751 0.056804296 0.04742371 -0.12677062
0.062357485 0.057899527 -0.08884947 -0.060193546 0.07242823 0.039126247 0.12362789 -0.121377625
-0.06153792 -0.10512726 0.0799055 -0.16925095 0.069549605 0.100004755 -0.14683118 -0.01088723
-0.11008459 0.058049843 0.14397582 0.13205625 0.035869308 -0.062610656 0.012440679 0.09807488
0.17568871 0.108047426 -0.18238893 -0.029233782 -0.051339265 -0.13159974 0.10468778 0.11954498
0.11802985 -0.009604682 0.084444895 0.10422399 0.11283072 0.09047906 0.0005244933 0.14448957
0.054627623 0.060301047 -0.07132917 -0.14471582 0.01660145 0.06987189 0.11603904 0.113463365
0.011824446 0.11540298 -0.153603 -0.1663878 -0.1454826 0.06762224 -0.10430516 0.004388414
0.17032649 -0.007094933 -0.03529752 -0.12855306 -0.1428629 0.14669533 -0.02668701 0.0062766774
0.17334588 0.08146817 -0.011466156 0.05768619 0.03684779 0.09073369 0.060282405 -0.053412847
-0.1664519 -0.16746683 -0.073909305 -0.15882513 0.050768007 -0.04900281 -0.12461213 0.022280883
0.17505893 -0.038573228 -0.13228047 0.082983896 -0.04602758 -0.1140943 -0.059685733 -0.07935691
-0.03002589 -0.09000523 0.082317956 -0.033490807 0.029294925 -0.016866416 0.03212652 -0.08028192
0.025788644 0.0140040405 -0.17557694 -0.001474239 0.11303163 -0.16144814 -0.16531615 0.15234524
0.1498902 0.120539606 0.10013659 -0.07093517 0.14064203 0.12799503 -0.041895106 0.09932744
-0.02611992 -0.026020441 -0.047426626 -0.10322515 0.17072074 0.081713445 0.093667425 0.11281447
00000000: a4de 7abc 095b b63d c07f 34bc c93d d03d
00000010: f762 983d 9fab 683d 5d3f 423d 28d0 01be
00000020: 906a 7f3d 0e28 6d3d b6f6 b5bd 828d 76bd
00000030: 4055 943d d842 203d 9f30 fd3d d594 f8bd
00000040: 300f 7cbd f64c d7bd 7fa5 a33d 1f50 2dbe
00000050: 0670 8e3d 4bcf cc3d ea5a 16be 5a60 32bc
00000060: 0874 e1bd acc5 6d3d 666e 133e c139 073e
00000070: b2eb 123d 043a 80bd fdd3 4b3c 7cdb c83d
00000080: bee7 333e f847 dd3d 2ac4 3abe af7b efbc
00000090: 1f49 52bd 15c2 06be 8c66 d63d 00d4 f43d
000000a0: a2b9 f13d f55c 1dbc 72f1 ac3d 6373 d53d
000000b0: cb13 e73d 164d b93d 267e 093a 13f5 133e
000000c0: 37c1 5f3d 3bfe 763d 0715 92bd 6230 14be
000000d0: c4ff 873c fe18 8f3d e0a5 ed3d 7b5f e83d
000000e0: 52bb 413c 6658 ec3d 1b4a 1dbe 9061 2abe
000000f0: 64f9 14be 877d 8a3d f29d d5bd afcc 8f3b
00000100: 116a 2e3e 9d7c e8bb 2294 10bd 6aa3 03be
00000110: a74a 12be 4d37 163e b79e dabc 96ac cd3b
00000120: 9581 313e c9d8 a63d 8bdc 3bbc 5b48 6c3d
00000130: b5ed 163d 96d2 b93d afea 763d 6ec7 5abd
00000140: 5e72 2abe 6d7c 2bbe c35d 97bd 0ea3 22be
00000150: 1df2 4f3d 2cb7 48bd a534 ffbd 6686 b63c
00000160: a642 333e f6fe 1dbd 8874 07be 76f3 a93d
00000170: 6a87 3cbd 46aa e9bd 0779 74bd e085 a2bd
00000180: dbf8 f5bc a954 b8bd 5196 a83d a82d 09bd
00000190: e9fb ef3c 702b 8abc 1997 033d d96a a4bd
000001a0: b542 d33c 3471 653c 71ca 33be 413b c1ba
000001b0: 217d e73d a952 25be a348 29be 6400 1c3e
000001c0: d17c 193e 78dd f63d 6a14 cd3d 7546 91bd
000001d0: 7704 103e 2111 033e 349a 2bbd 2f6c cb3d
000001e0: 71f9 d5bc d228 d5bc 6c42 42bd b567 d3bd
000001f0: 6bd1 2e3e 6159 a73d b5d4 bf3d 460b e73d

critic.2.weight f4 [64, 128]
0.007325721 0.057052765 0.057651456 0.014534962 0.082549304 0.07282085 0.060607865 0.056453582
-0.07115092 -0.07538236 -0.07857525 -0.07893535 -0.012756603 -0.04698892 0.07147204 0.03434964
-0.06477641 0.010349612 0.039432723 0.00070958433 0.07817258 0.06495635 -0.023039702 -0.06967696
0.04532841 0.0057467334 -0.020870918 -0.04091514 0.019494066 -0.06471612 0.0709434 0.0702407
0.036425907 0.014229756 0.020238299 0.050808366 0.051994808 -0.05421303 -0.030405449 0.07228653
-0.011639042 0.0090661235 -0.077134505 0.018145451 0.030552706 0.08835535 -0.0018705927 0.04759462
-0.0075160894 -0.03066922 -0.0073996834 -0.08055962 -0.018014815 0.05880281 -0.04976248 0.06174969
-0.084002785 0.04106874 0.05087815 -0.04732273 0.08196365 0.0017858673 0.04027065 0.020340037
0.014079037 0.03146625 0.08727377 0.045868427 -0.005859587 -0.036678262 -0.07981561 -0.072589085
0.042333294 0.06638612 0.050602306 -0.031550884 -0.058478784 0.023998689 0.05465835 -0.013788429
0.02998006 -0.017671257 -0.072013445 0.03164585 0.030217635 0.055458076 -0.07185266 0.044281323
-0.067847826 0.00047800984 -0.03018144 0.03678838 -0.06537449 0.06505976 0.0051389863 0.080152474
0.061719097 -0.03265407 -0.07034928 0.010158299 0.055426687 -0.01072076 0.03761233 0.08004592
-0.07039555 -0.053278904 0.002116109 -0.03938566 0.03185972 -0.001491418 -0.061389603 -0.06884241
0.006230963 0.03365207 -0.008445562 0.0028984598 -0.08122227 -0.059911396 -0.008604711 -0.058331747
0.077850446 0.05576326 -0.017794188 0.019156521 0.032055374 0.07619152 0.07279458 0.025524193
0.010443978 0.081823766 0.032739345 -0.07328731 0.0006387987 -0.07977877 -0.05034323 0.0142682465
-0.078130975 0.04077302 0.035486676 -0.06480799 -0.06969336 -0.062883906 0.017293736 0.028852489
-0.022759687 -0.012460631 -0.05035694 -0.06827902 0.042336047 0.07703563 0.08709837 -0.0087177595
0.056946196 -0.014257783 -0.01494699 0.008219541 0.036707524 0.05531796 -0.0507641 -0.031058813
0.075863376 -0.049028143 -0.06753903 0.035086207 -0.08200504 -0.07971096 0.04655565 0.026107833
0.024534723 -0.023369847 -0.0401262 -0.02219884 0.05208012 -0.0142143825 0.00059898046 -0.021277066
0.03643259 0.08166427 -0.011729004 -0.0053222934 -0.024470408 0.01938577 0.018954007 -0.017950775
0.08548883 -0.05722109 -0.07356608 -0.0766793 -0.060554527 -0.0121262595 0.08484241 0.048661876
-0.00042059392 -0.005221826 -0.07698141 0.04659472 -0.065591656 -0.035441495 0.0133220395 -0.065953076
0.0007287717 0.022877203 0.039691627 -0.039869875 -0.05310601 0.045781244 0.080225736 -0.00196791
0.051282387 0.03394644 0.034349725 -0.043413077 0.012340144 0.0732206 0.009300513 -0.041590698
0.08556294 -0.016876083 -0.0136174355 -0.07576426 0.07493618 0.02227935 0.036348633 -0.011690735
0.04919002 -0.051677357 0.07304875 -0.051177736 -0.053080402 0.0039518466 -0.065417565 -0.08747871
0.047757108 -0.020681668 0.06888273 0.021199306 0.07563022 -0.02844788 0.0881239 0.062313873
-0.04989073 0.08499038 -0.025979938 -0.0858645 0.014139224 0.051380865 -0.059929255 0.037560258
0.022964552 0.017167285 -0.04122262 -0.0088383835 0.017333565 -0.0060636774 -0.01771842 0.07502898
00000000: 9a0c f03b 29b0 693d ef23 6c3d 0d24 6e3c
00000010: 9c0f a93d 1923 953d f43f 783d df3b 673d
00000020: 93b7 91bd 1162 9abd 10ec a0bd dba8 a1bd
00000030: 1201 51bc 7477 40bd ef5f 923d 35b2 0c3d
00000040: 7fa9 84bd 6b91 293c 3584 213d 6603 3a3a
00000050: f218 a03d d607 853d c2bd bcbc cbb2 8ebd
00000060: 48aa 393d 184f bc3b 7df9 aabc a296 27bd
00000070: 05b2 9f3c e389 84bd c64a 913d 5bda 8f3d
00000080: 5533 153d ec23 693c caca a53c 6f1c 503d
00000090: 82f8 543d 7b0e 5ebd d914 f9bc f60a 943d
000000a0: aeb1 3ebc 148a 143c b2f8 9dbd c5a5 943c
000000b0: ab49 fa3c a6f3 b43d ad2e f5ba 94f2 423d
000000c0: 8749 f6bb 043e fbbc 0b79 f2bb 71fc a4bd
000000d0: ce93 93bc 37db 703d bed3 4bbd 3eed 7c3d
000000e0: a709 acbd b237 283d 9b65 503d 7bd5 41bd
000000f0: 8fdc a73d c313 ea3a d6f2 243d 26a0 a63c
00000100: c3ab 663c c1e2 003d 97bc b23d 88e0 3b3d
00000110: c701 c0bb f23b 16bd 5e76 a3bd 96a9 94bd
00000120: ad65 2d3d 72f5 873d 5d44 4f3d 803b 01bd
00000130: 7387 6fbd e698 c43c 6fe1 5f3d dde8 61bc
00000140: be98 f53c 50c3 90bc c97b 93bd 149f 013d
00000150: f98a f73c 0228 633d 7d27 93bd 5560 353d
00000160: cdf3 8abd 659d fa39 113f f7bc 6aaf 163d
00000170: 10e3 85bd 0d3e 853d f164 a83b fb26 a43d
00000180: 2acd 7c3d 46c0 05bd 4913 90bd fe6e 263c
00000190: 1807 633d 20a6 2fbc 630f 1a3d 1eef a33d
000001a0: 8b2b 90bd fb3a 5abd 6bae 0a3b dc52 21bd
000001b0: 567f 023d af7b c3ba aa73 7bbd 40fd 8cbd
000001c0: 1b2d cc3b c1d6 093d 415f 0abc 16f4 3d3b
000001d0: dd57 a6bd a765 75bd c6fa 0cbc 45ed 6ebd
000001e0: 0e70 9f3d 0468 643d 1ec5 91bc 23ee 9c3c
000001f0: 7f4c 033d 4d0a 9c3d 5315 953d 1d18 d13c
00000200: 381d 2b3c 3893 a73d b119 063d a817 96bd
00000210: 0e75 273a 0d63 a3bd b434 4ebd 5dc5 693c
00000220: 2203 a0bd 9c01 273d 7a5a 113d 0dba 84bd
00000230: 64bb 8ebd 47c9 80bd 98ab 8d3c 0e5c ec3c
00000240: 8672 babc ad27 4cbc 1443 4ebd dfd5 8bbd
00000250: 9068 2d3d dbc4 9d3d a160 b23d efd4 0ebc
00000260: 6a40 693d 7a99 69bc 38e4 74bc 41ab 063c
00000270: a15a 163d 1695 623d 04ee 4fbd 0d6f febc
00000280: 425e 9b3d bcd1 48bd e751 8abd 8eb6 0f3d
00000290: 42f2 a7bd 803f a3bd 23b1 3e3d 18e0 d53c
000002a0: 0bfd c83c 1f72 bfbc 5f5b 24bd 57da b5bc
000002b0: f751 553d 71e3 68bc e604 1d3a 3e4d aebc
000002c0: 573a 153d 993f a73d 022b 40bc a266 aebb
000002d0: 2a76 c8bc e8ce 9e3c 6f45 9b3c 810d 93bc
000002e0: c514 af3d a960 6abd d0a9 96bd 090a 9dbd
000002f0: 0608 78bd 38ad 46bc dcc1 ad3d ad51 473d
00000300: 2983 dcb9 da1b abbb 6ea8 9dbd 1bda 3e3d
00000310: eb54 86bd 1a2b 11bd af44 5a3c 6812 87bd
00000320: 0a0b 3f3a f968 bb3c b093 223d 984e 23bd
00000330: b085 59bd 1d85 3b3d 644d a43d 0df8 00bb
00000340: 7b0d 523d 6c0b 0b3d 4cb2 0c3d e9d1 31bd
00000350: 512e 4a3c aff4 953d 2e61 183c 025b 2abd
00000360: 9f3b af3d b63f 8abc aa1b 5fbc 4b2a 9bbd
00000370: 2478 993d 2f83 b63c 4ee2 143d 7f8a 3fbc
00000380: 797b 493d a3ab 53bd 959a 953d bf9f 51bd
00000390: d66a 59bd 7e7e 813b a5f9 85bd 0a28 b3bd
000003a0: f59c 433d 9a6c a9bc 6412 8d3d 2baa ad3c
000003b0: 04e4 9a3d 870b e9bc 4e7a b43d d53c 7f3d
000003c0: 395a 4cbd 700f ae3d e1d3 d4bc bad9 afbd
000003d0: 34a8 673c be74 523d 6178 75bd c9d8 193d
000003e0: 2820 bc3c 68a2 8c3c 0dd9 28bd dece 10bc
000003f0: 1fff 8d3c d0b1 c6bb 3826 91bc cba8 993d

critic.2.bias f4 [64]
0.0057646916 -0.03157192 0.073142834 0.022155417 -0.085046805 -0.041676104 0.012258369 0.06740405
0.013107427 -0.046106353 -0.016155489 -0.07767119 -0.05731224 0.03157266 -0.011016264 -0.02035818
0.0035664872 -0.020121917 0.06662886 -0.053655446 0.07007936 0.07685075 0.01655034 0.023704238
-0.0041733305 -0.034955017 -0.015577718 -0.06700689 0.068563595 -0.04029998 -0.08278969 0.02059926
-0.084004276 -0.050311368 -0.0404323 -0.063910246 -0.055801593 0.03700072 -0.07769907 0.010821107
0.081438184 -0.08072192 -0.01655446 -0.04883839 -0.008347644 0.05638977 0.030570762 0.061699193
-0.08041423 -0.013052447 0.018279467 0.06964633 0.062303882 -0.038985107 -0.036857475 0.04523344
0.07559637 -0.010289024 -0.042457912 0.012747314 -0.06906622 0.0146183595 0.034412764 -0.058588963
00000000: bde5 bc3b 8f51 01bd e9cb 953d 477f b53c
00000010: 052d aebd 90b4 2abd 53d7 483c 220b 8a3d
00000020: 89c0 563c 04da 3cbd 8458 84bc 1312 9fbd
00000030: 3dc0 6abd 5552 013d 8f7d 34bc 33c6 a6bc
00000040: babb 693b b8d6 a4bc b674 883d d0c5 5bbd
00000050: c485 8f3d ed63 9d3d 9494 873c 642f c23c
00000060: 6fc0 88bb fe2c 0fbd af39 7fbc e93a 89bd
00000070: 126b 8c3d 9811 25bd a48d a9bd c8bf a83c
00000080: 6f0a acbd 4b13 4ebd 579c 25bd 60e3 82bd
00000090: 3690 64bd 118e 173d b120 9fbd 034b 313c
000000a0: 10c9 a63d 8951 a5bd 389d 87bc c30a 48bd
000000b0: 8ec4 08bc f6f8 663d 896f fa3c 4bb8 7c3d
000000c0: 37b0 a4bd eed9 55bc d2be 953c bca2 8e3d
000000d0: 5b32 7f3d d9ae 1fbd ddf7 16bd b346 393d
000000e0: 45d2 9a3d 4b93 28bc 59e8 2dbd 1cda 503c
000000f0: 9772 8dbd d881 6f3c 66f4 0c3d fbfa 6fbd

critic.4.weight f4 [1, 64]
0.09548982 -0.088545844 0.0022943325 -0.010518253 -0.058790833 -0.037824463 -0.022525057 -0.0016306202
0.010747358 -0.11838542 -0.014006531 -0.031861845 -0.05622253 -0.11517367 0.008884821 -0.09260808
0.044503614 -0.012814537 0.008596763 -0.087889805 0.09124845 -0.042262334 -0.0040886146 -0.05591708
-0.016758133 -0.03479148 -0.08103511 0.12017317 0.05597505 -0.053309225 0.06600739 0.01868175
-0.0066191256 -0.013398327 -0.10722043 0.08614616 -0.03068997 -0.028488223 -0.06702575 0.026399516
-0.07369941 -0.068415135 0.011677325 -0.105973855 -0.08412447 0.06159267 0.014094159 0.080445215
-0.05568896 0.10029638 0.06872071 0.036823943 -0.033856645 -0.003779456 0.07058611 -0.08759473
0.07744886 -0.051464964 -0.034092546 0.03069444 -0.05164764 -0.101748094 -0.03286439 -0.016901365
00000000: 2b90 c33d 8657 b5bd 835c 163b c054 2cbc
00000010: a8ce 70bd d3ed 1abd 7886 b8bc 89ba d5ba
00000020: b015 303c 0e74 f2bd a67b 65bc 9181 02bd
00000030: 9849 66bd 2ce0 ebbd a491 113c 4ea9 bdbd
00000040: 6c49 363d 10f4 51bc 70d9 0c3c 92ff b3bd
00000050: 78e0 ba3d 451b 2dbd c9f9 85bb 4f09 65bd
00000060: 5a48 89bc 8381 0ebd bcf5 a5bd 5a1d f63d
00000070: 1846 653d c65a 5abd e22e 873d 780a 993c
00000080: 40e5 d8bb a884 5bbc 6396 dbbd 666d b03d
00000090: 8869 fbbc 2260 e9bc cc44 89bd cc43 d83c
000000a0: b7ef 96bd 3c1d 8cbd 4052 3f3c d208 d9bd
000000b0: 7349 acbd 9848 7c3d 30eb 663c 76c0 a43d
000000c0: 1b1a 64bd 3068 cd3d 72bd 8c3d b4d4 163d
000000d0: 44ad 0abd c0b0 77bb 738f 903d de64 b3bd
000000e0: 829d 9e3d edcc 52bd a0a4 0bbd e872 fb3c
000000f0: 7a8c 53bd 4e61 d0bd d09c 06bd bb74 8abc
