models/saved_models/drl_agent.pth (torch, 105955 bytes, 11 tensors)

actor.0.weight f4 [128, 32]
0.07229198 0.13698997 0.10331381 0.022989608 -0.17069899 -0.0045387517 0.11752379 0.11707469
0.17127703 -0.10672208 -0.13447405 -0.093575925 0.13928473 -0.10745375 0.007885886 -0.10118063
0.009992786 -0.082493834 0.025280902 0.03497331 -0.0594943 0.044626728 0.1054897 -0.11730854
-0.10352421 0.17286897 -0.14203405 -0.005377959 0.038765848 0.10651543 -0.06561438 -0.05077905
0.043061793 0.16947967 0.07882546 -0.13225171 -0.14743526 -0.029059852 -0.03396743 -0.040893927
0.026280561 0.030417569 0.0042699394 -0.13354503 -0.013058758 -0.13155213 0.056063905 -0.11364963
-0.028377557 -0.04640606 0.07223605 0.10781754 -0.0427565 -0.1702906 -0.047943432 0.15560827
0.1302561 0.05786105 0.057632696 0.07933162 -0.1577781 0.12825121 0.16941254 -0.09253732
0.1690009 -0.12342858 -0.092113875 -0.08903686 0.12299283 0.025048967 -0.0012768809 0.04928783
0.058457024 0.16701919 0.17479922 -0.10268066 0.13206139 -0.07517493 -0.11210954 -0.100519896
-0.03517936 -0.12918597 -0.059065837 -0.0538144 -0.105834275 0.13539173 -0.13192372 -0.020096354
-0.15812676 -0.1174093 0.1504116 -0.12594184 -0.15688863 -0.07047059 0.1247435 -0.02240594
-0.01791319 -0.028936172 0.13962767 0.17092544 0.03228748 0.03656062 0.03506236 -0.05747924
-0.04905619 0.0028836662 0.12374734 -0.057834074 0.15157303 0.041367933 -0.16462594 0.14099726
-0.10235598 0.023408338 -0.06368553 0.12798531 0.023019364 -0.11812855 -0.16177262 0.01450136
0.0010033689 0.12018418 -0.14175414 0.14360073 0.1446358 0.17317668 -0.1465386 0.17585304
-0.012661883 -0.08905081 -0.14098182 -0.050641377 0.07305309 -0.07726434 -0.019624857 -0.14763196
-0.15879664 -0.035563257 0.060595684 -0.0026668839 -0.1316415 0.12371419 -0.1268308 -0.15150273
0.09187555 0.05968122 0.06779586 0.021944452 0.09538712 0.04247844 -0.021713762 -0.08597249
-0.034816604 -0.032930788 0.0004998616 -0.040188536 0.049856644 -0.05170257 0.041643467 0.035509836
0.13701959 -0.1265233 0.024765067 0.0150143085 0.069770716 0.06762344 0.097373046 -0.011056572
0.04559897 0.15179767 0.10231101 -0.16465564 -0.15744732 -0.12148152 0.118202396 -0.026853442
-0.064423546 0.06000356 0.11964748 0.08754231 0.12522888 0.17045447 0.15122138 0.10335998
-0.01424161 0.066844836 -0.1711045 0.037400924 -0.1170129 -0.076953925 0.13887213 -0.12758361
-0.12904495 -0.13459168 0.12749925 0.13655299 0.0083169425 -0.016188372 0.098839946 -0.07958035
-0.095782086 0.07293936 -0.055627264 -0.036686093 0.036695994 0.020450726 0.0046405788 -0.15136537
-0.07423023 -0.17106588 0.03762407 -0.12985054 0.0114832455 -0.17607109 -0.08052583 0.14195387
0.070404895 0.11233694 0.008004867 0.13153428 0.105250776 0.081486486 0.013483725 0.008899729
0.098536104 0.04569521 0.08055944 -0.17333606 -0.12894292 -0.123457514 -0.14087155 -0.0012079919
0.13696025 -0.053901773 0.17398229 0.14403702 0.10015275 0.06937203 -0.14050141 0.16551276
-0.1596157 0.1174223 -0.027444026 -0.09786388 0.065579906 0.13161778 -0.051353805 0.092185
-0.058533773 0.08771368 0.1455267 -0.13786602 0.16652274 -0.16268824 0.044479214 -0.021401327
00000000: d10d 943d 1947 0c3e 3196 d33d b454 bc3c
00000010: b7cb 2ebe cfb9 94bb 50b0 f03d dbc4 ef3d
00000020: 3f63 2f3e 1b91 dabd 91b3 09be bca4 bfbd
00000030: a8a0 0e3e b610 dcbd ce33 013c ca37 cfbd
00000040: c8b8 233c 87f2 a8bd e519 cf3c 2c40 0f3d
00000050: 4cb0 73bd 84ca 363d fc0a d83d 763f f0bd
00000060: 8004 d4bd 9004 313e 6071 11be 9739 b0bb
00000070: f0c8 1e3d c324 da3d d560 86bd b1fd 4fbd
00000080: 9061 303d 148c 2d3e 3e6f a13d fe6c 07be
00000090: 45f9 16be ed0e eebc 6f21 0bbd 6480 27bd
000000a0: 554a d73c 442e f93c d9ea 8b3b 07c0 08be
000000b0: 67f4 55bc 9ab5 06be 44a3 653d 23c1 e8bd
000000c0: 0d78 e8bc 4814 3ebd 7ff0 933d 71cf dc3d
000000d0: 7121 2fbd a960 2ebe 5560 44bd c657 1f3e
000000e0: db61 053e b5ff 6c3d 4310 6c3d 9e78 a23d
000000f0: 9590 21be 4954 033e 7b7a 2d3e 3584 bdbd
00000100: 920e 2d3e 20c8 fcbd 33a6 bcbd f558 b6bd
00000110: aae3 fb3d 7e33 cd3c 035d a7ba 09e2 493d
00000120: a270 6f3d 1407 2b3e 91fe 323e 3d4a d2bd
00000130: 1a3b 073e 50f5 99bd b099 e5bd 60dd cdbd
00000140: 3c18 10bd 5449 04be 05ef 71bd 7d6c 5cbd
00000150: a4bf d8bd 21a4 0a3e 0317 07be 1ca1 a4bc
00000160: fbeb 21be 4974 f0bd 8005 1a3e e6f6 00be
00000170: 6aa7 20be e252 90bd 8579 ff3d a98c b7bc
00000180: afbe 92bc 8d0b edbc 8efa 0e3e 1407 2f3e
00000190: e03f 043d 97c0 153d 8d9d 0f3d 5a6f 6bbd
000001a0: 25ef 48bd e4fb 3c3b 3f6f fd3d 6ce3 6cbd
000001b0: f635 1b3e 6c71 293d b493 28be 9661 103e
000001c0: 03a0 d1bd d8c2 bf3c 8f6d 82bd 950e 033e
000001d0: 1b93 bc3c 62ed f1bd b9a7 25be 1d97 6d3c
000001e0: 7983 833a 2023 f63d ff27 11be 120c 133e
000001f0: 681b 143e 3a55 313e 370e 16be d212 343e
00000200: c973 4fbc 4560 b6bd 8a5d 10be 556d 4fbd
00000210: dc9c 953d c43c 9ebd 4fc4 a0bc d52c 17be
00000220: 969b 22be c7aa 11bd 2e33 783d e3c6 2ebb
00000230: 08cd 06be de5d fd3d efdf 01be 8823 1bbe
00000240: 4029 bc3d 4c74 743d 8ed8 8a3d dac4 b33c
00000250: 535a c33d dffd 2d3d 0fe1 b1bc 5812 b0bd
00000260: db9b 0ebd 6fe2 06bd 2509 033a bc9c 24bd
00000270: 7b36 4c3d 13c6 53bd 5792 2a3d c372 113d
00000280: dd4e 0c3e 538f 01be 1ce0 ca3c 93fe 753c
00000290: f3e3 8e3d 287e 8a3d 856b c73d a026 35bc
000002a0: fcc5 3a3d d970 1b3e 6f88 d13d 7d9b 28be
000002b0: df39 21be 4ecb f8bd 1914 f23d c0fb dbbc
000002c0: 7ef0 83bd 4bc6 753d bd09 f53d 6249 b33d
000002d0: 003c 003e 9e8b 2e3e c7d9 1a3e 66ae d33d
000002e0: a455 69bc f2e5 883d 0536 2fbe b631 193d
000002f0: 76a4 efbd 059a 9dbd 7f34 0e3e 47a5 02be
00000300: 5c24 04be 67d2 09be 2a8f 023e 8cd4 0b3e
00000310: c943 083c 7a9d 84bc 996c ca3d 06fb a2bd
00000320: 6629 c4bd 3b61 953d 6ad9 63bd 2844 16bd
00000330: 8a4e 163d 4888 a73c ff0f 983b 86ff 1abe
00000340: 0506 98bd e52b 2fbe b21b 1a3d 8af7 04be
00000350: 3924 3c3c fb4b 34be baea a4bd 5b5c 113e
00000360: 7130 903d e910 e63d d826 033c ecb0 063e
00000370: b88d d73d 63e2 a63d d7ea 5c3c 2bd0 113c
00000380: 4ccd c93d e72a 3b3d 59fc a43d 027f 31be
00000390: 9d09 04be 4bd7 fcbd a240 10be 7b55 9eba
000003a0: 4f3f 0c3e 1bc8 5cbd 6a28 323e 717e 133e
000003b0: e31c cd3d ec12 8e3d 9adf 0fbe 2d7c 293e
000003c0: 4c72 23be 1a7b f03d 4bd2 e0bc dc6c c8bd
000003d0: c24e 863d d0c6 063e 5e58 52bd 7dcb bc3d
000003e0: 1cc1 6fbd 3ba3 b33d f404 153e c02c 0dbe
000003f0: f084 2a3e bf97 26be d62f 363d d651 afbc

actor.0.bias f4 [128]
0.08037501 -0.0677574 -0.045593217 0.036499403 0.032522574 -0.042617396 0.024130693 -0.1338032
0.1283409 0.051978674 0.075016476 0.08561355 0.1497641 0.128627 -0.006845491 0.16751206
-0.013952082 0.087747924 0.11287379 -0.10461615 0.11980669 -0.09327913 -0.10641032 -0.01623722
0.046920486 0.017776614 0.07514043 0.054615404 0.015938906 -0.044062212 0.10460249 0.15241897
0.10765879 0.08350713 -0.008470505 -0.1381744 -0.013721918 -0.12629655 0.12823786 0.15353791
-0.10439091 -0.083609864 -0.14099568 -0.007193413 0.064491905 -0.0052156933 -0.15049022 0.1409737
-0.124375746 0.062389348 -0.0044280533 -0.070143946 0.00042127882 -0.05428746 0.124451235 0.07459402
0.0838316 -0.05379436 -0.0980291 0.010489486 0.14282349 -0.13945262 -0.17613241 0.021576298
0.16168126 -0.13507332 0.12815648 -0.10890434 -0.05848366 -0.03198535 -0.09873281 -0.05585918
-0.03459409 0.09072067 0.11011161 0.12082802 -0.15487453 -0.01642511 0.05591839 -0.13628516
0.14920011 -0.0038849069 -0.048671898 -0.05343428 0.1034696 0.047693416 0.060098983 -0.15222807
-0.020589199 0.030931361 0.08316123 -0.08102923 0.012908736 0.0762364 0.13386925 0.07511807
-0.15731215 -0.12920175 -0.09902503 0.044108782 0.1632548 0.05387115 -0.031200511 0.14797786
0.070216335 0.17616145 -0.012863829 -0.08427968 0.13636893 -0.027869308 0.01492325 -0.016570581
0.034050986 -0.1256719 -0.11120115 0.16325931 0.071323276 0.10995179 -0.05265612 -0.024157457
0.112750486 0.13048033 0.1284787 -0.047635105 -0.0575401 -0.096918866 -0.13853137 -0.077284485
00000000: a79b a43d 64c4 8abd f4bf 3abd 6680 153d
00000010: 6436 053d 948f 2ebd bbad c53c b503 09be
00000020: cc6b 033e 97e7 543d 3da2 993d 2856 af3d
00000030: c35b 193e ccb6 033e 2450 e0bb 4888 2b3e
00000040: 4697 64bc 2fb5 b33d 602a e73d fe40 d6bd
00000050: 365d f53d 2109 bfbd a7ed d9bd eb03 85bc
00000060: b22f 403d 43a0 913c 3ae3 993d 67b4 5f3d
00000070: 4f92 823c 947a 34bd d539 d63d b813 1c3e
00000080: 367c dc3d c905 ab3d dfc7 0abc 977d 0dbe
00000090: e5d1 60bc e253 01be c950 033e 0b39 1d3e
000000a0: e7ca d5bd a63b abbd 2c61 10be b9b6 ebbb
000000b0: 5514 843d 68e8 aabb 1c1a 1abe 695b 103e
000000c0: b6b8 febd f98b 7f3d 3419 91bb a1a7 8fbd
000000d0: 16df dc39 875c 5ebd 4ae0 fe3d c0c4 983d
000000e0: e7af ab3d 7a57 5cbd 7bc3 c8bd 18dc 2b3c
000000f0: 5240 123e abcc 0ebe 0e5c 34be c7c0 b03c
00000100: c68f 253e a950 0abe 743b 033e 3d09 dfbd
00000110: 908c 6fbd 1203 03bd 6d34 cabd 98cc 64bd
00000120: 88b2 0dbd c2cb b93d 3282 e13d ae74 f73d
00000130: 6e97 1ebe f48d 86bc af0a 653d 568e 0bbe
00000140: eac7 183e ec99 7ebb 2f5c 47bd e7dd 5abd
00000150: dfe7 d33d 2c5a 433d 5a2a 763d ade1 1bbe
00000160: aeaa a8bc c463 fd3c 6f50 aa3d a7f2 a5bd
00000170: 2a7f 533c d421 9c3d 0515 093e 81d7 993d
00000180: 7016 21be 774d 04be a3cd cabd 69ab 343d
00000190: 442c 273e ffa7 5c3d 3798 ffbc 8287 173e
000001a0: 95cd 8f3d ab63 343e cfc2 52bc d39a acbd
000001b0: 4ca4 0b3e 2d4e e4bc a680 743c 07bf 87bc
000001c0: 0c79 0b3d 22b0 00be 6ebd e3bd 732d 273e
000001d0: f011 923d 672e e13d f2ad 57bd dce5 c5bc
000001e0: bae9 e63d a39c 053e ec8f 033e 071d 43bd
000001f0: 2baf 6bbd 667d c6bd 2bdb 0dbe 5447 9ebd

actor.2.weight f4 [64, 128]
-0.028314464 -0.048162732 0.046434574 0.07045695 -0.015388815 -0.036837693 0.0765548 -0.08006855
0.04978217 0.08210754 -0.038813245 0.04196808 -0.08752774 0.062259596 0.00048041085 -0.07833268
-0.025391633 -0.052531295 0.002690033 0.01958703 0.07721465 0.076680414 -0.00044235223 0.0017847188
-0.066825375 -0.07380611 -0.02404954 0.08493078 -0.021876901 0.08006851 0.03514791 0.056458104
-0.018088447 -0.028004283 0.07161094 -0.07682708 0.07866668 0.054802325 -0.0028930544 -0.07763426
0.023767987 -0.0068143127 0.042314794 -0.07768196 0.072058275 0.015629137 -0.03960611 -0.034520723
-0.04333445 -0.016855156 0.079143055 0.008593711 0.029648433 -0.0854197 0.018547226 -0.0037214193
-0.015817933 -0.038793802 -0.05497522 -0.010243728 0.05418092 0.048404578 -0.07553172 0.084592804
0.0011365213 -0.0754571 -0.008267283 -0.08114682 0.03826626 0.035293084 0.065807916 -0.03848668
0.02209755 0.012605342 -0.015750889 -0.02278704 0.043608405 0.051789436 0.01838788 -0.06736959
-0.08592557 0.028597606 -0.06702025 0.024222953 0.055468496 -0.047885943 -0.02234803 0.08246586
-0.08410458 -0.07829221 -0.034946986 -0.02554334 -0.04989405 0.054268554 0.055166293 0.05176181
-0.05793904 0.008932277 0.027154634 -0.018465176 0.0077680643 0.04090027 0.074793965 0.049693935
-0.04333052 -0.046144594 -0.082918726 -0.04696853 0.045107823 -0.044632163 0.005884943 -0.029921364
0.021314599 0.014815955 -0.012767987 -0.027738884 0.031418398 -0.036681697 -0.04437041 0.06860259
0.0713267 0.030803815 -0.035839066 -0.007500158 -0.087091476 0.04737861 -0.013822385 0.059522994
-0.0054825568 -0.033553 0.08105267 -0.086153276 0.04608212 0.04303662 -0.0807026 -0.056289632
0.035953883 0.018835183 0.013724299 -0.036635935 -0.006101336 0.01647494 -0.0333172 -0.0037894652
0.040570386 -0.059511095 -0.02641913 -0.04095212 0.033395592 0.0584968 -0.019055106 -0.008282962
-0.022467358 -0.02324307 0.029401736 -0.07451404 0.010280511 0.011648419 -0.033475533 -0.04236537
-0.063107476 -0.0051804585 -0.033499904 0.04185419 0.0151441945 -0.044205382 -0.078484215 -0.042418167
0.077253915 -0.021484124 0.044182226 -0.053975064 -0.053351734 0.028342491 -0.023149757 -0.05163896
0.08302991 0.055286307 0.026798166 0.08542754 0.08597086 -0.01571773 -0.08795087 -0.004889835
0.038882352 -0.0063667553 -0.06698673 -0.07025126 -0.071381226 -0.009044429 0.044555623 -0.08288535
-0.031653706 -0.07635936 -0.009993755 -0.037104927 -0.026528439 0.060606536 0.044760205 -0.041439
0.0659351 -0.025208525 -0.031740874 -0.0028064111 0.017010067 -0.036849715 0.0619043 -0.081758395
-0.080954745 0.0067065856 0.039309278 0.016086346 -0.0016675505 -0.04071432 0.028682468 -0.074366964
-0.085806176 -0.07529702 0.058068916 -0.031994663 -0.07200071 -0.07031725 0.044176534 0.003921248
0.010291744 -0.040017303 0.05316865 0.022777053 -0.05615448 -0.07125638 -0.005920547 0.007948147
-0.018214613 0.0087166745 -0.033756096 0.003151362 -0.046212796 0.059281386 -0.000945122 -0.0033223939
0.0040395437 0.06741363 -0.078707635 0.072286196 -0.047125634 0.041985605 0.004775543 -0.06233307
0.008271835 0.020154823 0.06624847 0.011005575 0.029924968 -0.03729372 -0.08134923 0.045894008
00000000: bcf3 e7bc 4946 45bd 2e32 3e3d bc4b 903d
00000010: 5e21 7cbc 1fe3 16bd c3c8 9c3d fbfa a3bd
00000020: 64e8 4b3d ff27 a83d a3fa 1ebd b9e6 2b3d
00000030: be41 b3bd eb03 7f3d a7df fb39 e26c a0bd
00000040: 1d02 d0bc 0e2b 57bd 444b 303b fb74 a03c
00000050: b722 9e3d 9f0a 9d3d 83eb e7b9 3aed e93a
00000060: bedb 88bd a827 97bd 8a03 c5bc 30f0 ad3d
00000070: 3037 b3bc f5fa a33d 41f7 0f3d 9d40 673d
00000080: 392e 94bc 3d69 e5bc c2a8 923d 8457 9dbd
00000090: ff1b a13d 6778 603d 6699 3dbb b6fe 9ebd
000000a0: 15b5 c23c 994a dfbb 4752 2d3d b817 9fbd
000000b0: 4a93 933d ad08 803c 043a 22bd 9a65 0dbd
000000c0: 777f 31bd d313 8abc c115 a23d a3cc 0c3c
000000d0: 45e1 f23c 86f0 aebd 5af0 973c 0ee3 73bb
000000e0: 9c94 81bc 40e6 1ebd b22d 61bd 4fd5 27bc
000000f0: d0ec 5d3d e143 463d 60b0 9abd fe3e ad3d
00000100: 54f7 943a 4189 9abd 8073 07bc 4e30 a6bd
00000110: 15bd 1c3d 7b8f 103d 4dc6 863d 35a4 1dbd
00000120: ec05 b53c a386 4e3c 0208 81bc e3ab babc
00000130: ba9e 323d 2921 543d 2ea2 963c 11f9 89bd
00000140: bff9 afbd 8745 ea3c ea41 89bd 376f c63c
00000150: ef32 633d 0d24 44bd 3713 b7bc dce3 a83d
00000160: 063f acbd ab57 a0bd 9224 0fbd 4440 d1bc
00000170: b45d 4cbd b448 5e3d 0df6 613d 3104 543d
00000180: 7d51 6dbd af58 123c 6573 de3c 4844 97bc
00000190: 3f8b fe3b 0b87 273d 942d 993d de8b 4b3d
000001a0: 587b 31bd 1d02 3dbd 4bd1 a9bd 1362 40bd
000001b0: fbc2 383d 37d0 36bd 7bd6 c03b a61d f5bc
000001c0: f49b ae3c 9fbe 723c d230 51bc a83c e3bc
000001d0: 94b0 003d 8c3f 16bd bfbd 35bd 847f 8c3d
000001e0: bc13 923d 4858 fc3c fccb 12bd e3c3 f5bb
000001f0: 045d b2bd 1310 423d 4977 62bc 62ce 733d
00000200: 05a7 b3bb df6e 09bd f1fe a53d 2171 b0bd
00000210: 9bc0 3c3d 2b47 303d 6847 a5bd f58f 66bd
00000220: 6144 133d 3e4c 9a3c e2db 603c 900f 16bd
00000230: b7ed c7bb 74f6 863c 9e77 08bd ad58 78bb
00000240: 222d 263d e8c1 73bd ee6c d8bc 69bd 27bd
00000250: d1c9 083d 579a 6f3d 7419 9cbc 43b5 07bc
00000260: 770d b8bc 4068 bebc e9db f03c d19a 98bd
00000270: 976f 283c 03d9 3e3c a41d 09bd 4f87 2dbd
00000280: 7e3e 81bd d6c0 a9bb 3237 09bd 4d6f 2b3d
00000290: 5b1f 783c b410 35bd 55bc a0bd acbe 2dbd
000002a0: 4d37 9e3d 79ff afbc 6cf8 343d f514 5dbd
000002b0: 5987 5abd 832e e83c 8fa4 bdbc 6083 53bd
000002c0: 960b aa3d e573 623d d487 db3c a2f4 ae3d
000002d0: 7e11 b03d 78c2 80bc 961f b4bd e93a a0bb
000002e0: 1a43 1f3d 37a0 d0bb 5730 89bd e5df 8fbd
000002f0: 5230 92bd 162f 14bc f57f 363d cbbf a9bd
00000300: 51a7 01bd 4c62 9cbd d9bc 23bc 56fb 17bd
00000310: 2b52 d9bc 8f3e 783d 7a56 373d f1bb 29bd
00000320: fb08 873d 1c82 cebc b802 02bd c4eb 37bb
00000330: b258 8b3c baef 16bd 5d8f 7d3d f270 a7bd
00000340: 9acb a5bd ebc2 db3b c402 213d 83c7 833c
00000350: b691 daba 0fc4 26bd 7ff7 ea3c b54d 98bd
00000360: 26bb afbd 5335 9abd acd9 6d3d d60c 03bd
00000370: 1c75 93bd 7e02 90bd 74f2 343d d07d 803b
00000380: b49e 283c 2fe9 23bd 5fc7 593d f196 ba3c
00000390: 3d02 66bd ddee 91bd 2601 c2bb f238 023c
000003a0: d036 95bc 62d0 0e3c d543 0abd 1587 4e3b
000003b0: a149 3dbd 0ad1 723d 10c2 77ba 85bc 59bb
000003c0: 265e 843b 2810 8a3d 7831 a1bd c90a 943d
000003d0: cf06 41bd 19f9 2b3d 297c 9c3b f650 7fbd
000003e0: 9786 073c ba1b a53c 47ad 873d ba50 343c
000003f0: 3525 f53c 4dc1 18bd 6d9a a6bd 5bfb 3b3d

actor.2.bias f4 [64]
0.04052704 0.03421123 0.010085625 0.08656806 0.017925877 0.003009738 -0.059742387 0.054073986
-0.028995872 -0.005500532 -0.03774093 0.040954765 -0.0051927236 0.08578157 -0.05853957 0.04255424
0.03228988 0.04752503 0.05091654 0.02570649 -0.06301313 0.08467363 -0.0066991886 0.062799595
0.03763647 0.05155026 -0.04172872 -0.039251864 0.06800418 0.02130579 0.016731793 0.06702877
-0.013649921 0.02480931 0.073520474 -0.022442732 -0.022907685 -0.02965117 -0.040049717 -0.019335983
-0.056556717 -0.054923117 0.01742003 -0.082290106 0.040518906 -0.01459498 -0.011659062 -0.023145689
-0.014453692 0.074448384 0.05458842 -0.07380357 -0.07691802 0.02662136 -0.061805286 -0.082638875
0.04117358 0.026113976 0.0827678 -0.06390305 -0.052426465 -0.02613839 0.08168311 0.073696926
00000000: aeff 253d 1321 0c3d 2d3e 253c 984a b13d
00000010: 4ad9 923c 063f 453b 6fb4 74bd af7c 5d3d
00000020: c088 edbc cf3d b4bb 3c96 1abd 2fc0 273d
00000030: b927 aabb 3fae af3d 30c7 6fbd 5b4d 2e3d
00000040: 6542 043d 9ba9 423d dd8d 503d 6b96 d23c
00000050: 070d 81bd 5e69 ad3d de84 dbbb 139d 803d
00000060: b328 1a3d 5e26 533d bceb 2abd 90c6 20bd
00000070: c745 8b3d 7b89 ae3c 1d11 893c 6146 893d
00000080: eba3 5fbc e53c cb3c e791 963d d2d9 b7bc
00000090: e6a8 bbbc 03e7 f2bc 2c0b 24bd 7f66 9ebc
000000a0: 04a8 67bd 10f7 60bd 73b4 8e3c b787 a8bd
000000b0: 27f7 253d c81f 6fbc a605 3fbc 079c bdbc
000000c0: 2ecf 6cbc 6578 983d 1b98 5f3d 5326 97bd
000000d0: 3287 9dbd 0a15 da3c 8a27 7dbd 923e a9bd
000000e0: a1a5 283d faec d53c 2a82 a93d 9adf 82bd
000000f0: 22bd 56bd 2d20 d6bc 7949 a73d 6aee 963d

actor.4.weight f4 [4, 64]
0.012691453 0.057579175 0.004934892 0.05995506 0.05715236 -0.010028288 0.029119775 -0.07915495
0.1092774 0.07793535 0.010762587 0.03029646 0.08396487 -0.098791555 -0.06390871 -0.11569883
-0.09429601 -0.119154364 -0.05186142 0.10623747 0.003998339 -0.044248536 0.12101306 -0.11028153
0.0050422847 0.055154964 0.12262893 -0.05052504 0.008549899 0.10981813 0.015000582 0.05970712
0.07318355 -0.10175642 -0.010738745 -0.017808974 0.052043095 0.01797244 0.044149682 -0.1067975
-0.014658287 0.105462715 -0.107922986 0.03993471 0.052784413 0.114587784 0.11471267 0.10736397
0.086746484 0.05415526 -0.10081908 -0.038815007 0.07715696 0.0027960837 -0.073120475 -0.103371516
0.05874762 -0.100949466 -0.053755 0.076704726 0.039836586 -0.036699325 -0.029456198 0.021209523
-0.10921374 0.020478636 0.11545755 0.04152094 -0.10889602 -0.052228034 -0.00851348 -0.08037534
0.012943 -0.034927636 -0.00096428394 -0.0398259 0.014811397 -0.115453884 0.012123197 -0.036224157
-0.02590996 -0.031626835 0.0043686926 0.0641125 0.045760304 -0.12169309 -0.10038455 -0.049432963
0.11944014 0.01281473 -0.079316124 0.061195433 -0.05109729 0.08232631 0.11380172 0.089053035
0.095395 0.112989575 0.007649988 0.09449735 -0.009358466 0.020470336 0.052509114 0.06730753
0.055805057 -0.048117936 0.055208772 -0.09978187 0.054324076 0.09069367 0.06169094 -0.06417094
0.099950254 0.11026676 0.04800196 0.09306443 0.07717119 0.042052954 -0.10089715 0.02805157
-0.09660506 0.08976604 -0.06983541 -0.068685055 -0.06055273 0.10782014 0.0319591 0.08259794
0.09498811 -0.092908636 0.09017664 0.060286567 0.07045008 0.04749295 -0.091321886 0.120020345
-0.059295043 0.08085252 0.027830705 0.034368247 -0.03346227 -0.10638808 -0.03440368 -0.0001706332
0.06790848 0.023296997 0.02631694 0.011315882 0.007724747 -0.059696406 -0.119393334 -0.040782735
0.1019693 0.11312929 0.11053161 0.087196335 0.0044716 -0.09058361 0.008775413 -0.12433818
0.10751103 0.0017656237 0.018707767 -0.0046193153 -0.07288565 0.086274415 -0.119099915 -0.06303108
0.10307765 -0.03665717 0.119126976 -0.07182637 -0.07014778 -0.05554898 -0.092914104 -0.06764799
-0.08240765 0.022211552 -0.09509951 0.02583 0.10227692 0.019187823 -0.07748312 -0.04990521
-0.003962651 -0.12049155 -0.030117437 -0.087695524 0.029505238 0.05210896 0.018075034 0.048780993
-0.031484216 0.049487248 -0.060340747 -0.0054749846 0.0923381 -0.11891936 -0.07523438 0.11074108
-0.022086754 -0.06280111 0.03358251 0.12109399 -0.09318265 -0.054520532 0.058126867 0.036384746
-0.052248955 -0.009536371 0.11904049 -0.09739064 0.09390563 -0.083310634 -0.10085718 0.07255535
0.0029657036 0.09319177 -0.07507153 0.06008692 0.04992242 -0.07744877 0.12235743 -0.02621843
-0.11333102 -0.11887136 -0.019823551 -0.0039359033 -0.041435555 0.013586789 0.032874167 -0.064940974
0.12356478 -0.12393001 -0.041982368 0.05604413 0.009077221 0.119059384 -0.0187805 -0.10603124
-0.10236512 -0.09668848 0.081247315 -0.052152842 -0.0748128 0.07870588 -0.02011241 0.0016133487
-0.0043586344 0.016565934 0.107338265 -0.10406774 -0.0017998815 -0.03313467 -0.107891634 0.046923533
00000000: d0ef 4f3c 24d8 6b3d e0b4 a13b 7093 753d
00000010: 9818 6a3d b04d 24bc 988c ee3c fe1b a2bd
00000020: d4cc df3d 929c 9f3d 9055 303c 4830 f83c
00000030: c6f5 ab3d 3a53 cabd 92e2 82bd 82f3 ecbd
00000040: 441e c1bd 3407 f4bd a46c 54bd 0893 d93d
00000050: 8004 833b f43d 35bd b2d5 f73d 48db e1bd
00000060: c039 a53b 2cea 613d e024 fb3d 58f3 4ebd
00000070: e014 0c3c 54e8 e03d 00c5 753c 748f 743d
00000080: 42e1 953d ac65 d0bd 90f1 2fbc 20e4 91bc
00000090: 242b 553d f03a 933c 4cd6 343d a6b8 dabd
000000a0: 5029 70bc d6fc d73d ba06 ddbd 9492 233d
000000b0: 7834 583d 00ad ea3d 7aee ea3d a4e1 db3d
000000c0: 24a8 b13d e8d1 5d3d 3c7a cebd 7cfc 1ebd
000000d0: 7804 9e3d 803e 373b 30c0 95bd 72b4 d3bd
000000e0: 58a1 703d 98be cebd 342e 5cbd 5e17 9d3d
000000f0: b02b 233d 0852 16bd 204e f1bc 98bf ad3c
00000100: 74ab dfbd d0c2 a73c 0275 ec3d dc11 2a3d
00000110: e004 dfbd 10ed 55bd 207c 0bbc d49b a4bd
00000120: e00e 543c 4810 0fbd 00c8 7cba 7c20 23bd
00000130: 80ab 723c 1673 ecbd 60a0 463c c85f 14bd
00000140: 2041 d4bc 248b 01bd 4027 8f3b 6a4d 833d
00000150: 286f 3b3d 3a3a f9bd 6a96 cdbd 387a 4abd
00000160: 089d f43d e0f4 513c 7e70 a2bd 10a8 7a3d
00000170: 644b 51bd b29a a83d e010 e93d 7061 b63d
00000180: 745e c33d 1467 e73d c0ac fa3b d487 c13d
00000190: 4054 19bc 68b1 a73c cc13 573d 88d8 893d
000001a0: d893 643d 5017 45bd 9822 623d 705a ccbd
000001b0: ec82 5e3d 9abd b93d a4af 7c3d 0e6c 83bd
000001c0: b8b2 cc3d 8ad3 e13d b49d 443d 9098 be3d
000001d0: ee0b 9e3d b83f 2c3d 2aa3 cebd 68cc e53c
000001e0: e0d8 c5bd 42d7 b73d de05 8fbd c0aa 8cbd
000001f0: 2406 78bd ced0 dc3d 8ce7 023d 1c29 a93d
00000200: 2089 c23d e246 bebd 88ae b83d 0cef 763d
00000210: 2248 903d f887 423d f806 bbbd 3acd f53d
00000220: 5cdf 72bd 0296 a53d 38fd e33c b8c5 0c3d
00000230: bc0f 09bd fee1 d9bd e0ea 0cbd 00ec 32b9
00000240: 9a13 8b3d 58d9 be3c a096 d73c 4066 393c
00000250: e01f fd3b 3884 74bd 7e84 f4bd cc0b 27bd
00000260: 48d5 d03d 54b0 e73d 665e e23d fe93 b23d
00000270: 8086 923b e683 b9bd c0c6 0f3c 04a5 febd
00000280: be2e dc3d 806c e73a 0841 993c a05d 97bb
00000290: 1245 95bd a4b0 b03d a8ea f3bd 7016 81bd
000002a0: 601a d33d d425 16bd d8f8 f33d b419 93bd
000002b0: a4a9 8fbd 5487 63bd c049 bebd 088b 8abd
000002c0: 58c5 a8bd 00f5 b53c 88c3 c2bd 7099 d33c
000002d0: 9076 d13d c82f 9d3c 78af 9ebd 6869 4cbd
000002e0: 20d9 81bb 46c4 f6bd d8b8 f6bc b699 b3bd
000002f0: f8b4 f13c 3470 553d 1812 943c 94ce 473d
00000300: 98f5 00bd 24b3 4a3d dc27 77bd 8067 b3bb
00000310: c21b bd3d fe8b f3bd 7c14 9abd 38cc e23d
00000320: 48ef b4bc de9d 80bd d08d 093d 2000 f83d
00000330: 8cd6 bebd ec50 5fbd 7016 6e3d 2c08 153d
00000340: 0003 56bd 703e 1cbc 80cb f33d be74 c7bd
00000350: 9851 c03d c49e aabd 368e cebd e697 943d
00000360: 405c 423b 54db be3d 1abf 99bd b41d 763d
00000370: 747b 4c3d 769d 9ebd 8896 fa3d 08c8 d6bc
00000380: 181a e8bd d472 f3bd 0065 a2bc c0f8 80bb
00000390: 54b8 29bd 209b 5e3c 10a7 063d c6ff 84bd
000003a0: 880f fd3d 04cf fdbd b4f5 2bbd 888e 653d
000003b0: a0b8 143c 68d5 f33d 90d9 99bc e826 d9bd
000003c0: cea4 d1bd 9c04 c6bd fe64 a63d 389e 55bd
000003d0: 7437 99bd 8c30 a13d c8c2 a4bc 0077 d33a
000003e0: e0d2 8ebb 48b5 873c 2ad4 db3d 7821 d5bd
000003f0: 00ea ebba 38b8 07bd 4af6 dcbd e432 403d

actor.4.bias f4 [4]
0.114127964 -0.11048272 0.09074749 0.029581025
00000000: ecbb e93d c444 e2bd d2d9 b93d e853 f23c

critic.0.weight f4 [128, 32]
0.09424804 0.06679797 -0.027571961 -0.14496933 -0.03279423 -0.021101367 -0.097534336 -0.068989836
-0.17161015 -0.1681562 0.120570585 -0.014041011 -0.09398692 -0.024823945 0.030382419 -0.048065234
0.08898593 -0.037988722 -0.03754494 -0.015223442 -0.09779006 0.06286004 -0.0659674 0.14823276
-0.13403994 0.030234 0.0142819015 0.12708543 0.07290088 0.07068345 -0.08854893 -0.035770282
0.0997716 0.0792487 0.1088954 -0.04866362 -0.10713483 0.1526171 0.018730555 0.060196906
-0.094987795 0.00017091792 0.06659208 0.027622664 0.08829364 -0.095560156 0.116772644 -0.15609002
-0.05456774 -0.07445563 -0.0768448 0.042657357 -0.17455675 -0.03834536 -0.11559526 -0.04936118
-0.06690522 -0.13607664 0.03842634 0.03460347 0.021320892 -0.15809292 -0.03939705 0.08266508
0.14937444 0.102838434 -0.015998311 0.09047405 0.1645319 0.12874179 -0.058863066 -0.12111923
-0.08507527 -0.024145592 0.1375977 -0.13216259 0.0052789347 -0.106201455 0.10833209 -0.13038191
0.04386998 -0.095667824 0.08470003 -0.13399243 -0.07827203 0.08707374 -0.0704518 -0.11183373
-0.016972346 -0.12707388 0.062970996 -0.012852344 -0.04670231 -0.010820487 -0.123640224 -0.054161314
0.0066229766 -0.06876819 0.04386861 -0.16677284 0.010092864 0.08285775 -0.13012962 0.12871355
-0.06624391 -0.12722823 0.054594267 -0.13098642 -0.04733013 0.14015795 -0.10076652 -0.11247504
0.092159286 0.00841523 0.05992934 0.087041646 0.061953884 0.041216835 -0.10375308 -0.08131225
0.16005605 -0.14621541 -0.0697768 -0.17507023 -0.067062676 -0.07089789 0.11126873 -0.12656231
0.014759912 -0.06616556 6.375361e-05 0.079393126 -0.01663069 0.023917792 -0.14940251 0.17760509
-0.107468456 0.08830693 0.17363471 -0.114885956 0.027979948 0.15163405 0.12297761 0.10675389
0.13881616 0.05475689 -0.17340417 0.041410867 0.09005862 0.063780755 -0.012723494 0.08512701
-0.10734481 -0.14752191 0.17140573 -0.02341647 -0.15950173 -0.006878972 0.08057873 -0.15681234
-0.09776948 -0.13161464 0.16717309 0.15253548 -0.012792286 -0.04651617 0.016806021 0.048743002
0.047120683 0.16777927 -0.094733335 -0.15658969 0.12916265 -0.110072166 0.07437327 -0.044298023
-0.013048292 0.021239612 -0.15840149 0.1597073 0.1467813 0.113661245 -0.14367646 -0.08266682
0.045974784 0.029756319 -0.1612858 -0.058022093 -0.14667074 -0.024589205 -0.0889724 -0.08099528
-0.03787596 0.1100221 -0.110135175 0.11815599 0.018498447 0.04050757 -0.06710497 -0.13982384
-0.012137325 -0.010538172 0.0387469 0.0074428404 0.11351831 0.09120289 0.08332807 0.1478867
0.09231685 0.002459102 0.13171239 0.09748944 0.08047081 0.12227054 -0.032892067 0.04011493
0.048634537 0.17515878 -0.11904618 0.11755223 -0.019353809 -0.06674136 0.076480225 -0.058532383
0.10187993 -0.06881499 0.14253345 0.121462874 0.045091227 -0.0073211812 0.013001101 0.10168216
-0.050937586 0.00785925 -0.057454478 -0.03138577 -0.16732545 -0.12729804 -0.019301318 0.09991679
0.016991628 -0.11284393 -0.10826476 -0.014310688 0.14927694 0.14045443 0.050600957 0.043923803
0.021841193 -0.059664004 -0.056216393 -0.14198022 0.17125651 -0.13710582 -0.039038263 -0.062408376
00000000: 1e05 c13d 60cd 883d 98de e1bc d772 14be
00000010: 3e53 06bd c6dc acbc 15c0 c7bd 8b4a 8dbd
00000020: 92ba 2fbe 2431 2cbe b6ed f63d 450c 66bc
00000030: 377c c0bd 965b cbbc 8de4 f83c 0de0 44bd
00000040: 413e b63d 109a 1bbd b9c8 19bd be6b 79bc
00000050: 2846 c8bd c4bc 803d eb19 87bd 54ca 173e
00000060: c441 09be 4bad f73c a3fe 693c af22 023e
00000070: 0e4d 953d 7cc2 903d 2459 b5bd dc83 12bd
00000080: 0d55 cc3d 244d a23d 8d04 df3d 8153 47bd
00000090: 8169 dbbd a847 1c3e d270 993c 0891 763d
000000a0: f688 c2bd 6e38 3339 6e61 883d ed48 e23c
000000b0: 4cd3 b43d 0bb5 c3bd 7f26 ef3d 10d6 1fbe
000000c0: 6c82 5fbd 317c 98bd ce60 9dbd 7bb9 2e3d
000000d0: 01bf 32be 0610 1dbd 35bd ecbd f32e 4abd
000000e0: 9b05 89bd ad57 0bbe f064 1d3d 5ebc 0d3d
000000f0: 27a9 ae3c 1ce3 21be cd5e 21bd 4f4c a93d
00000100: 9df5 183e f59c d23d e40e 83bc 754a b93d
00000110: 0d7b 283e e3d4 033e 661a 71bd 5c0d f8bd
00000120: f13b aebd facc c5bc 69e6 0c3e a155 07be
00000130: eafa ac3b 2680 d9bd 37dd dd3d d682 05be
00000140: 02b1 333d 7eed c3bd 3677 ad3d 5035 09be
00000150: 164d a0bd b853 b23d 0949 90bd 1509 e5bd
00000160: 9709 8bbc a81f 02be f0f6 803d a392 52bc
00000170: ec4a 3fbd 6948 31bc 1637 fdbd 41d8 5dbd
00000180: 8e05 d93b 56d6 8cbd 92af 333d 80c6 2abe
00000190: 8a5c 253c 53b1 a93d b340 05be 7ccd 033e
000001a0: e3aa 87bd 1e48 02be 3d9e 5f3d 4e21 06be
000001b0: 3ddd 41bd 9185 0f3e ad5e cebd 5059 e6bd
000001c0: 02be bc3d 08e0 093c 7878 753d e442 b23d
000001d0: 5bc3 7d3d fcd2 283d 7f7c d4bd 0987 a6bd
000001e0: bce5 233e 7eb9 15be 24e7 8ebd 9c45 33be
000001f0: 2858 89bd ea32 91bd dce0 e33d 8d99 01be
00000200: 8fd3 713c cf81 87bd 75b3 8538 dd98 a23d
00000210: 163d 88bc 3fef c33c f9fc 18be 1cde 353e
00000220: 6c18 dcbd 44da b43d 4ccd 313e 5449 ebbd
00000230: 3436 e53c f545 1b3e afdb fb3d c9a1 da3d
00000240: d325 0e3e c348 603d dd90 31be 719e 293d
00000250: a770 b83d 7c9f 823d 3476 50bc 1257 ae3d
00000260: 99d7 dbbd fc0f 17be fc84 2f3e e6d3 bfbc
00000270: 6c54 23be 0069 e1bb 7606 a53d 6a93 20be
00000280: 5d3b c8bd fdc5 06be 6c2f 2b3e 4332 1c3e
00000290: bd96 51bc bd87 3ebd c8ac 893c bea6 473d
000002a0: 9e01 413d 54ce 2b3e 8d03 c2bd 0c59 20be
000002b0: 3743 043e 846d e1bd 0351 983d d871 35bd
000002c0: 81c8 55bc b2fe ad3c 0034 22be 4f8a 233e
000002d0: d64d 163e 3ac7 e83d ec1f 13be 394d a9bd
000002e0: 0e50 3c3d 86c3 f33c 1b28 25be 93a8 6dbd
000002f0: db30 16be 4d6f c9bc 2937 b6bd dae0 a5bd
00000300: d323 1bbd 4453 e13d 8d8e e1bd c5fb f13d
00000310: 0e8a 973c 44eb 253d 556e 89bd fb2d 0fbe
00000320: a1db 46bc 4ca8 2cbc 12b5 1e3d 12e3 f33b
00000330: 4a7c e83d 95c8 ba3d e8a7 aa3d 9c6f 173e
00000340: 9e10 bd3d e328 213b 9ddf 063e 8ba8 c73d
00000350: e1cd a43d fa68 fa3d d5b9 06bd 8e4f 243d
00000360: 0235 473d d35c 333e 7cce f3bd 39bf f03d
00000370: e18b 9ebc b2af 88bd aaa1 9c3d a7bf 6fbd
00000380: 6da6 d03d e0ee 8cbd 4af4 113e 87c1 f83d
00000390: 94b1 383d 85e6 efbb 9202 553c bc3e d03d
000003a0: eea3 50bd 15c4 003c 6355 6bbd 5d8e 00bd
000003b0: 5d57 2bbe 6b5a 02be cc1d 9ebc 2da1 cc3d
000003c0: 0732 8b3c b81a e7bd eab9 ddbd 6077 6abc
000003d0: 0edc 183e 49d3 0f3e f342 4f3d 72e9 333d
000003e0: 4dec b23c 3e62 74bd 2943 66bd 4363 11be
000003f0: de5d 2f3e 7865 0cbe 96e6 1fbd ed9f 7fbd

critic.0.bias f4 [128]
0.11528465 -0.10644556 -0.08666669 0.12595809 -0.04492812 0.08266826 0.13084643 -0.11848499
-0.051548578 0.117291175 -0.033921026 -0.0878032 -0.14203522 0.012310727 -0.02604652 0.054964125
0.12757364 0.0116944015 0.009959869 0.015173919 0.14053248 -0.022166798 0.12251584 0.17091747
-0.117165394 -0.07126062 -0.015816322 0.1542009 -0.050429203 -0.031907868 0.13304111 -0.12521498
-0.06486434 -0.088723116 -0.13759069 0.13939324 0.023176594 0.033757683 0.053037763 -0.016119564
0.053154234 0.17189622 0.1235566 0.08126747 -0.0008450232 -0.13715002 0.044214066 0.0027807227
0.02147656 0.047184978 -0.06939554 -0.078580365 -0.10350417 -0.10719575 0.06216588 -0.11965182
-0.002671103 -0.032548126 -0.0092614535 -0.06751223 0.1756038 -0.16962776 -0.06249766 0.068637066
0.023441803 -0.057406176 -0.0943226 0.038737167 0.010898543 -0.03627946 0.034367274 -0.09073995
-0.16746679 -0.06494928 0.15803026 -0.015897574 0.034755766 0.15289459 -0.03930664 0.019051956
0.13656168 0.0013247585 -0.12157788 0.069672786 -0.09287264 -0.11388824 -0.14270948 0.1698958
-0.06370437 -0.17532484 -0.023285817 -0.05366613 0.09316468 -0.14359872 0.13745023 0.10144306
0.06489599 -0.17139444 0.1275441 0.06629039 0.07066178 0.16061069 -0.01986128 -0.026312208
0.15884517 -0.14978556 0.04669955 0.14104657 -0.12052588 -0.09330587 0.14840877 0.15675807
-0.084999874 0.13488983 0.039868657 0.01271444 0.03723221 0.05854393 0.13920549 -0.15177885
-0.13424084 0.121481635 0.08343941 0.11936949 -0.11661851 -0.13670376 -0.046596177 0.105495565
00000000: 5c1a ec3d 2100 dabd 4e7e b1bd 28fb 003e
00000010: 8c06 38bd fa4d a93d 9bfc 053e 42a8 f2bd
00000020: 9a24 53bd 5b36 f03d c6f0 0abd 2ad2 b3bd
00000030: ae71 11be eeb2 493c 835f d5bc 1022 613d
00000040: aaa2 023e e099 3f3c b82e 233c 079c 783c
00000050: bfe7 0f3e 2597 b5bc 96e9 fa3d fd04 2f3e
00000060: 69f4 efbd 17f1 91bd 3b91 81bc d7e6 1d3e
00000070: da8e 4ebd d3b1 02bd ee3b 083e 5b38 00be
00000080: 98d7 84bd 77b4 b5bd 93e4 0cbe 1abd 0e3e
00000090: d7dc bd3c 7f45 0a3d 203e 593d 2d0d 84bc
000000a0: 41b8 593d 9005 303e 3e0b fd3d 8f6f a63d
000000b0: 8c84 5dba 0e71 0cbe cf19 353d c93c 363b
000000c0: 9cef af3c 0945 413d 401f 8ebd beee a0bd
000000d0: fff9 d3bd 7289 dbbd a6a1 7e3d 030c f5bd
000000e0: ac0d 2fbb 2f51 05bd 5abd 17bc da43 8abd
000000f0: 7cd1 333e e6b2 2dbe 8cfd 7fbd 9791 8c3d
00000100: 0609 c03c bd22 6bbd 352c c1bd ddaa 1e3d
00000110: cd8f 323c c599 14bd b3c4 0c3d ded5 b9bd
00000120: 6a7c 2bbe 2104 85bd afd2 213e a13b 82bc
00000130: 105c 0e3d 6690 1c3e 0000 21bd d912 9c3c
00000140: d3d6 0b3e 85a3 ad3a d3fd f8bd 9bb0 8e3d
00000150: 0334 bebd 3d3e e9bd 6f22 12be 2af9 2d3e
00000160: 7077 82bd 5b88 33be e6c1 bebc 04d1 5bbd
00000170: 20cd be3d 8b0b 13be c1bf 0c3e 61c1 cf3d
00000180: 30e8 843d 0682 2fbe ec9a 023e 42c3 873d
00000190: 20b7 903d 2177 243e 20b4 a2bc b38c d7bc
000001a0: 4fa8 223e 6361 19be 0748 3f3d 836e 103e
000001b0: 46d6 f6bd 2617 bfbd 78f8 173e 3085 203e
000001c0: 6a14 aebd 8f20 0a3e 514d 233d 3a50 503c
000001d0: cd80 183d c3cb 6f3d e28b 0e3e ea6b 1bbe
000001e0: 6e76 09be 5dcb f83d 48e2 aa3d fe77 f43d
000001f0: afd5 eebd 12fc 0bbe a2db 3ebd 0f0e d83d

critic.2.weight f4 [64, 128]
0.06523115 -0.0011629369 0.08221541 0.054471567 -0.019493738 -0.008361629 -0.008262384 0.06827716
0.029356701 0.0668692 -0.083362415 -0.07069954 -0.016468406 0.055403095 0.0638695 0.008069161
-0.017682342 -0.04432192 -0.04400525 0.024764793 -0.0051266477 0.033147104 -0.05452267 0.08197149
0.002781808 0.08468126 -0.037360337 -0.035555523 -0.011262755 -0.0352763 -0.08053962 -0.0134566985
-0.07191379 -0.025897456 -0.017889336 -0.071467355 -0.0042286566 0.03569781 0.037693895 -0.0252467
0.063354 -0.048491064 -0.083144486 0.038585145 -0.086239204 -0.04933845 -0.028805831 -0.022717942
0.01879977 -0.04600965 -0.06017636 -0.07741851 0.07491342 -0.042861544 0.08790894 0.040045176
-0.035182945 -0.044824246 0.016734669 0.053591106 -0.07454052 0.02494516 -0.07426542 0.0067338017
0.0641674 0.018728057 -0.02648119 -0.07143107 0.075111784 0.005664568 0.04696359 -0.00036939606
-0.04877973 -0.04232748 -0.0032623662 -0.0025162406 -0.07711347 -0.08168388 0.048904356 0.066692986
-0.06091408 -0.0413548 -0.042699024 -0.05212938 -0.013567176 -0.028995408 0.004338544 0.0015854696
0.009107534 -0.0344382 0.033704825 -0.011672369 -0.07379827 0.026751447 -0.030358175 -0.050555598
-0.059424486 -0.04579709 0.010141416 0.021111725 0.0362485 0.021653755 0.0024188077 0.058000226
-0.030228162 0.0078785205 -0.033532 0.061937816 0.057708222 -0.0863898 -0.045879204 -0.034912575
-0.05911477 -0.008478471 0.005235081 -0.06961273 -0.029893063 -0.060860902 0.031171883 0.031304423
-0.014300088 -0.023814276 0.04522713 0.06457433 0.07577706 0.063190855 0.06716586 0.0717778
0.03002827 0.05546897 0.068375 -0.025173586 0.006521961 0.07305507 0.005230027 0.011382515
-0.08577386 -0.043525413 -0.020354006 0.03113475 -0.0068456703 0.036097296 -0.06977303 -0.065369494
0.0375599 -0.057968143 0.018920721 0.05522475 0.052863594 -0.08637995 0.02461428 0.028496891
0.052081943 0.06359165 -0.021163292 0.054217916 0.03929745 -0.062083397 -0.06042572 -0.082924195
-0.07893528 0.023691997 0.087012336 -0.052404314 0.050344653 -0.08130682 -0.0055040936 -0.07625156
-0.029428395 0.011158017 0.01697526 -0.009855303 0.057840783 -0.011396638 -0.06277351 -0.00082858594
-0.007156261 -0.06028187 -0.005226072 0.07930659 0.018709233 -0.022155019 -0.025133725 0.03345414
0.014769797 0.04465717 -0.0056581316 -0.007840779 -0.024601819 0.0809015 -0.014651224 0.04828458
0.066556014 0.07903016 0.0810166 -0.055949677 -0.076119885 0.0777418 0.077554815 -0.007252061
-0.061818797 -0.00069504365 0.044085447 0.07927754 0.08319561 -0.036029395 -0.06617712 -0.07625256
0.051951475 0.025022924 0.005367577 -0.060741816 -0.06514889 -0.06830124 0.032053404 0.0027765606
0.0039807274 0.019059764 -0.009036801 -0.06721627 -0.0025944968 0.029527687 0.085280366 0.017278211
-0.08383022 -0.00053489266 -0.03813213 0.0416336 -0.03610649 0.007760261 -0.036638983 0.065376
-0.011078697 -0.08567632 -0.042757567 0.058298763 -0.06463031 -0.08492947 -0.057339128 0.034658868
0.055387776 0.007906412 -0.08653736 -0.08141914 0.08082592 0.055016905 0.05396576 -0.00029281728
-0.029485028 -0.023558078 0.022423789 -0.008262584 0.017072223 -0.02388543 0.07932882 0.07554529
00000000: e997 853d b06d 98ba 8e60 a83d 941d 5f3d
00000010: 55b1 9fbc 37ff 08bc f35e 07bc e5d4 8b3d
00000020: 777d f03c b8f2 883d eab9 aabd ecca 90bd
00000030: c0e8 86bc 5bee 623d 03ce 823d 8434 043c
00000040: 8fda 90bc e78a 35bd d93e 34bd 89df ca3c
00000050: 70fd a7bb 42c5 073d 2a53 5fbd abe0 a73d
00000060: fe4e 363b 5e6d ad3d 2707 19bd aba2 11bd
00000070: 6b87 38bc e27d 10bd f5f1 a4bd 7c79 5cbc
00000080: 8a47 93bd e726 d4bc a88c 92bc 7a5d 92bd
00000090: 8b90 8abb de37 123d ea64 1a3d 2bd2 cebc
000000a0: bebf 813d 919e 46bd a847 aabd 750b 1e3d
000000b0: 2e9e b0bd 1d17 4abd 35fa ebbc fa1a babc
000000c0: fa01 9a3c 9d74 3cbd 7d7b 76bd 998d 9ebd
000000d0: 356c 993d 968f 2fbd 9a09 b43d 6906 243d
000000e0: fe1b 10bd a199 37bd 2517 893c 5982 5b3d
000000f0: b3a8 98bd cb59 cc3c 7818 98bd 39a7 dc3b
00000100: 336a 833d 956b 993c 15ef d8bc 744a 92bd
00000110: 35d4 993d d79d b93b e55c 403d 80ab c1b9
00000120: 41cd 47bd 945f 2dbd 6ccd 55bb 83e7 24bb
00000130: abed 9dbd e149 a7bd ef4f 483d 5596 883d
00000140: 0b81 79bd a763 29bd 2ce5 2ebd 9e85 55bd
00000150: dc48 5ebc c787 edbc 582a 8e3b 88cf cf3a
00000160: c437 153c 120f 0dbd 120e 0a3d 773d 3fbc
00000170: 8c23 97bd da25 db3c b5b1 f8bc 6313 4fbd
00000180: 1767 73bd bb95 3bbd 2f28 263c 7ff2 ac3c
00000190: 4f79 143d 3763 b13c dc84 1e3b a591 6d3d
000001a0: 0da1 f7bc e914 013c da58 09bd 82b2 7d3d
000001b0: 755f 6c3d 23ed b0bd d5eb 3bbd 7d00 0fbd
000001c0: 5422 72bd 49e9 0abc 0b8b ab3b 1e91 8ebd
000001d0: 4ce2 f4bc 4849 79bd 2d5c ff3c 1139 003d
000001e0: eb4a 6abc 2816 c3bc 1540 393d 8c3f 843d
000001f0: 0131 9b3d 356a 813d 418e 893d 3d00 933d
00000200: d9fd f53c 6e33 633d 3108 8c3d d638 cebc
00000210: 2db6 d53b e69d 953d a560 ab3b ba7d 3a3c
00000220: 35aa afbd b447 32bd 72bd a6bc 4e0e ff3c
00000230: a551 e0bb c2da 133d 2ae5 8ebd 71e0 85bd
00000240: 69d8 193d 0170 6dbd a1ff 9a3c 5933 623d
00000250: 7f87 583d f9e7 b0bd e3a3 c93c 5072 e93c
00000260: e053 553d 573c 823d a45e adbc 9b13 5e3d
00000270: 5df6 203d 294b 7ebd f680 77bd 29d4 a9bd
00000280: d2a8 a1bd b815 c23c 8633 b23d e8a5 56bd
00000290: 3236 4e3d 3184 a6bd af5b b4bb c729 9cbd
000002a0: d113 f1bc 1ed0 363c b30f 8b3c 2378 21bc
000002b0: 75ea 6c3d f7b8 3abc 668f 80bd 7635 59ba
000002c0: 117f eabb 1fea 76bd 783f abbb 7e6b a23d
000002d0: 1b44 993c 717e b5bc 3ee5 cdbc 3507 093d
000002e0: 05fd 713c 70ea 363d d967 b9bb 9c76 00bc
000002f0: c189 c9bc b0af a53d b00b 70bc 0dc6 453d
00000300: 854e 883d 91da a13d 08ec a53d 7d2b 65bd
00000310: bee4 9bbd 1837 9f3d 0fd5 9e3d b2a2 edbb
00000320: b535 7dbd 9733 36ba f192 343d 435c a23d
00000330: 7662 aa3d 8f93 13bd df87 87bd 4d2a 9cbd
00000340: 12cb 543d e0fc cc3c 80e2 af3b 69cc 78bd
00000350: c86c 85bd 85e1 8bbd 6e4a 033d f5f6 353b
00000360: c370 823b 3923 9c3c 170f 14bc afa8 89bd
00000370: 6f08 2abb 0ce4 f13c 79a7 ae3d 098b 8d3c
00000380: 2eaf abbd 0a38 0cba 7030 1cbd fe87 2a3d
00000390: 66e4 13bd ca49 fe3b c212 16bd dae3 853d
000003a0: 6c83 35bc 1177 afbd 8f22 2fbd afca 6e3d
000003b0: e55c 84bd 81ef adbd 6fdc 6abd 75f6 0d3d
000003c0: 4bde 623d e589 013c 803a b1bd 14bf a6bd
000003d0: 0f88 a53d 6859 613d 330b 5d3d 4585 99b9
000003e0: 968a f1bc dffc c0bc 18b2 b73c ca5f 07bc
000003f0: 0cdb 8b3c 61ab c3bc 2677 a23d 7db7 9a3d

critic.2.bias f4 [64]
-0.018978905 0.022147909 0.040493924 -0.025033653 -0.04466583 0.0061189462 -0.07654924 0.05996377
-0.08795429 -0.04998318 -0.06454159 -0.038411982 -0.05083835 0.08800089 -0.030142004 -0.039313443
-0.010662456 -0.06880667 -0.02234531 -0.0044139 -0.018400809 -0.06026427 -0.075039804 0.0717914
-0.0061492883 -0.029339211 0.07077311 -0.060892068 -0.061247155 -0.0026811357 0.06695557 0.032147847
-0.06322827 -0.045781676 0.019964874 -0.018180298 0.011903853 0.020617342 -0.035633642 -0.06561637
0.07005654 -0.058377106 -0.0123997815 0.076885074 0.04019803 0.0044521685 0.08793434 0.028937945
0.016707992 -0.013331247 0.0800099 0.06748287 -0.002008782 -0.07005567 -0.013006403 -0.08536406
0.019690974 -0.08697857 -0.011660674 0.07904097 0.00088864967 -0.051397648 -0.07808748 0.06262177
00000000: a679 9bbc 886f b53c f5dc 253d 6013 cdbc
00000010: 84f3 36bd 7181 c83b d9c5 9cbd 929c 753d
00000020: 6121 b4bd 2abb 4cbd 622e 84bd e255 1dbd
00000030: e03b 50bd d039 b43d 5dec f6bc 2207 21bd
00000040: 95b1 2ebc 83ea 8cbd 830d b7bc 7aa2 90bb
00000050: 4bbd 96bc abd7 76bd 78ae 99bd 5f07 933d
00000060: f87f c9bb c958 f0bc 7ef1 903d f669 79bd
00000070: 4cde 7abd feb5 2fbb 0020 893d 76ad 033d
00000080: d37d 81bd 9185 3bbd 608d a33c d9ee 94bc
00000090: 6108 433c b3e5 a83c 95f4 11bd e061 86bd
000000a0: ce79 8f3d d51c 6fbd 7428 4bbc ec75 9d3d
000000b0: b1a6 243d 7fe3 913b eb16 b43d 450f ed3c
000000c0: 33df 883c 4d6b 5abc 3bdc a33d 7534 8a3d
000000d0: c5a5 03bb 5979 8fbd cf18 55bc 5ad3 aebd
000000e0: f74e a13c d221 b2bd 690c 3fbc 3be0 a13d
000000f0: 45f4 683a 5786 52bd 54ec 9fbd d83f 803d

critic.4.weight f4 [1, 64]
0.06717381 -0.06421165 0.10145201 0.004887249 0.03369166 -0.029677538 0.021290937 -0.107004434
0.026444104 -0.103055105 0.11365591 0.024339706 0.008134082 -0.076064214 0.11580449 0.013904408
-0.00056850474 -0.027589336 0.11849025 0.040840067 -0.11270599 0.030784294 -0.0538688 -0.034204885
0.05459717 0.075061485 -0.12357099 -0.083647 0.04695517 -0.0016226791 0.09524875 0.069695145
-0.10255346 -0.09908737 0.123598404 -0.0022929022 0.033613194 -0.0014287829 0.10825794 0.030718278
-0.09896521 -0.079284556 -0.06520523 -0.018393239 0.07929594 0.019163582 -0.10359472 -0.0018117344
0.00807428 -0.07283525 0.122278646 -0.09224674 0.014709607 -0.10006343 0.06275269 0.0019918652
-0.069964364 0.10511097 0.078122154 -0.066621244 -0.05143046 -0.0069746673 0.087670326 0.09029114
00000000: 6c92 893d 6681 83bd 12c6 cf3d 3725 a03b
00000010: 4400 0a3d 4f1e f3bc 556a ae3c 2425 dbbd
00000020: 4ea1 d83c 8e0e d3bd 6ec4 e83d 1064 c73c
00000030: d044 053c 8ec7 9bbd e82a ed3d 50cf 633c
00000040: b507 15ba 0803 e2bc 04ab f23d ea47 273d
00000050: 66d2 e6bd 582f fc3c 88a5 5cbd 6c1a 0cbd
00000060: 48a1 5f3d d6b9 993d ca12 fdbd 1e4f abbd
00000070: 1054 403d 13b0 d4ba c711 c33d 54bc 8e3d
00000080: 8c07 d2bd 52ee cabd 2921 fd3d 8444 16bb
00000090: fdad 093d 0046 bbba 57b6 dd3d e6a4 fb3c
000000a0: 46ae cabd f15f a2bd 528a 85bd 6bad 96bc
000000b0: e965 a23d f2fc 9c3c 7829 d4bd b877 edba
000000c0: fc49 043c a62a 95bd 3a6d fa3d dceb bcbd
000000d0: 9000 713c 0eee ccbd 7b84 803d f489 023b
000000e0: 7a49 8fbd 6c44 d73d 82fe 9f3d b870 88bd
000000f0: bfa8 52bd c08b e4bb 808c b33d 90ea b83d
