models/saved_models/performance_predictor.pth (torch, 13245 bytes, 5 tensors)

model.0.weight f4 [64, 5]
0	0xbdd3b2e5	-0.10336856
1	0x3ef4cec9	0.47814015
2	0xbeae6654	-0.34062445
3	0x3ee1c3dc	0.4409474
4	0x3ea1e7b8	0.316221
5	0x3edda2e0	0.43288326
6	0xbecb206b	-0.3967317
7	0x3eac6b5c	0.3367566
8	0xbde3444b	-0.1109701
9	0xbed4a0b3	-0.41528854
10	0xbc417c6a	-0.011809448
11	0xbef1447f	-0.4712257
12	0x3ec147f7	0.37750217
13	0xbedf1d90	-0.43577242
14	0x3ece6114	0.4030844
15	0x3e123787	0.14278995
16	0x3e4da2c5	0.20081623
17	0xbec00e6f	-0.37511012
18	0x3e9c4bb5	0.3052651
19	0x3ed95ab5	0.42452016
20	0x3d5cd7ed	0.05391686
21	0x3ed95b5a	0.42452508
22	0x3b5c74d0	0.0033638962
23	0x3e167d50	0.1469624
24	0xbe705f51	-0.2347386
25	0xbe133e80	-0.1437931
26	0xbe56bc71	-0.20970322
27	0xbea1da90	-0.31612062
28	0x3d89d34b	0.06729754
29	0xbdfaaafc	-0.12239644
30	0xbedbf98d	-0.4296383
31	0x3e0bef55	0.13665517
32	0x3e90ce1b	0.28282246
33	0xbe6e4470	-0.23268294
34	0xbeab7b6e	-0.33492607
35	0xbe972b63	-0.2952529
36	0xbca6c2c7	-0.020356549
37	0x3de0b788	0.10972506
38	0x3e4ce12a	0.20007768
39	0x3e442e85	0.19158371
40	0xbeb3114c	-0.34974134
41	0x3ed1f64a	0.41008216
42	0xbacf7f6c	-0.0015830821
43	0xbe908436	-0.2822587
44	0x3e3e19c1	0.18564512
45	0xbe85b176	-0.26111954
46	0xbe3e6277	-0.18592249
47	0x3e90c57b	0.28275666
48	0xbe24f23b	-0.16108029
49	0xbd93dbda	-0.07219668
50	0xbd96474a	-0.07337816
51	0x3ea709ae	0.32624573
52	0x3eba735f	0.36416146
53	0xbe9775e8	-0.29582143
54	0xbe51717c	-0.20453447
55	0xbea4c3fd	-0.32180777
56	0xbee521c6	-0.4475233
57	0x3eb6d590	0.3570981
58	0xbf10f5e9	-0.5662523
59	0xbcf785eb	-0.030215224
60	0xbeb88521	-0.3603907
61	0x3ed8bc7a	0.42331296
62	0x3ed853d1	0.42251447
63	0x3ee5904e	0.44836658
64	0x3e66d0bd	0.22540565
65	0x3d3cbe25	0.046079773
66	0xbe80206e	-0.25024742
67	0x3ec11b2c	0.37716043
68	0xba5575ff	-0.0008142888
69	0xbe941538	-0.2892244
70	0x3ed36b94	0.41293013
71	0x3e9c4542	0.3052159
72	0x3ebf012d	0.37305585
73	0x3e6c9b4f	0.2310612
74	0x3e1c7929	0.15280594
75	0x3d1d7dbf	0.03845
76	0x3c215f96	0.00984945
77	0xbe8d5363	-0.27602682
78	0x3d8f2d2e	0.06991039
79	0x3e5f7879	0.218233
80	0x3e933368	0.28750157
81	0x3e6bbc26	0.23020992
82	0xbd057d82	-0.032590397
83	0xbe3e512a	-0.18585649
84	0xbecf34a6	-0.40469855
85	0xbe614de0	-0.22002363
86	0x3e06f3bd	0.13178916
87	0x3ce73ad8	0.028226301
88	0x3eaf4234	0.34230196
89	0xbdb14f1e	-0.086576685
90	0xbec4eaae	-0.38460296
91	0x3e6f5549	0.23372377
92	0xbcf365b2	-0.029711578
93	0xbe3bb543	-0.18330865
94	0xbd35b44f	-0.04436141
95	0xbee42c17	-0.44564888
96	0xbd52234e	-0.0513032
97	0xbed49191	-0.41517308
98	0x3eb5f547	0.35538694
99	0x3eb9f8df	0.36322686
100	0x3ecf251a	0.40457994
101	0xbe70926e	-0.23493358
102	0xbe9fb017	-0.31189033
103	0x3de07739	0.1096024
104	0xbecc4299	-0.3989456
105	0x3e82894f	0.25495383
106	0xbe793fa3	-0.24340682
107	0x3ed22fe6	0.4105217
108	0x3deb4ffd	0.11489866
109	0x3edef215	0.4354407
110	0xbe530aeb	-0.20609634
111	0x3e8afd13	0.27146205
112	0x3e074e1e	0.13213393
113	0xbeb47458	-0.35245013
114	0xbe00b5ad	-0.12569304
115	0x3ceaabbe	0.028646346
116	0xbe9aedc2	-0.3025952
117	0xbdb6a7e1	-0.08918739
118	0xbe0fbe43	-0.14037423
119	0x3dce447e	0.100716576
120	0x3ec5b6e2	0.3861609
121	0xbe0fe4bc	-0.14052099
122	0x3e64ea3d	0.2235498
123	0xbd08708f	-0.03331047
124	0xbde0a6f8	-0.10969347
125	0x3c266c37	0.010157636
126	0xbe8607a1	-0.26177695
127	0x3e45550f	0.19270729
128	0xbe7eff46	-0.24902067
129	0x3ea2578f	0.31707427
130	0xbedc8756	-0.43072003
131	0x3eacf163	0.33777913
132	0x3e838e8b	0.2569469
133	0xbe9ed623	-0.31022748
134	0x3d941482	0.07230474
135	0xbe0a141f	-0.13484238
136	0xbdbb927f	-0.09158801
137	0xbef14cd7	-0.47128937
138	0x3e6ad43e	0.22932526
139	0xbec7f69e	-0.3905534
140	0xbf0a2b49	-0.539723
141	0x3db458fc	0.08806035
142	0xbe83a0da	-0.25708658
143	0xbebcbf6d	-0.36864796
144	0xbeaf8d97	-0.34287712
145	0x3e467fc0	0.1938467
146	0x3ea37487	0.3192484
147	0xbe6dfce6	-0.23241004
148	0xbdd8c875	-0.10585109
149	0xbee47de9	-0.44627312
150	0xbee0d641	-0.43913463
151	0x3e06d7f8	0.13168323
152	0xbe5fbb5b	-0.21848814
153	0xbe8dda80	-0.27705765
154	0xbe888c48	-0.26669526
155	0x3b485f0d	0.0030574233
156	0xbdececf4	-0.11568633
157	0xbeb5535b	-0.35415158
158	0xbee45010	-0.44592333
159	0x3ed4a787	0.41534063
160	0x3ec09260	0.37611675
161	0x3e8f5932	0.27997738
162	0xbea30538	-0.3183992
163	0xbe91d21d	-0.28480616
164	0x3ecfd19e	0.40589613
165	0xbe5147b2	-0.20437506
166	0xbf0528ef	-0.52015585
167	0x3e9027ff	0.28155515
168	0xbeae5c31	-0.3405471
169	0xbe88eefa	-0.26744825
170	0x3c3df0ac	0.011593025
171	0x3e100350	0.14063764
172	0xbe8e42cf	-0.27785346
173	0xbeb72160	-0.3576765
174	0x3ea94a26	0.33064383
175	0x3e4d9efa	0.20080176
176	0xbe559195	-0.20856316
177	0xbeabbd79	-0.33542994
178	0x3df29a22	0.11845805
179	0xbe579e7c	-0.2105655
180	0xbea1af47	-0.31579039
181	0xbdafef6f	-0.0859059
182	0x3e0901c7	0.13379584
183	0xbdd5f09b	-0.104462825
184	0xbe8844a3	-0.26614866
185	0x3c7b179d	0.015325454
186	0xbe971453	-0.29507694
187	0x3d0603d1	0.032718483
188	0x3df74047	0.12072807
189	0xbed42122	-0.41431528
190	0x3e395e48	0.18102372
191	0xbed138df	-0.40863702
192	0x3eaa7841	0.3329487
193	0xbd545f32	-0.051848598
194	0x3ecabc40	0.39596748
195	0xbe8d9088	-0.2764933
196	0xbeaacbdb	-0.33358654
197	0xbe7e2998	-0.24820554
198	0x3ebc0deb	0.3672937
199	0x3ea0bb6c	0.31392992
200	0xbeb51a3a	-0.35371572
201	0xbd85f45c	-0.065407485
202	0x3eaacbc4	0.33358586
203	0xbebba0b2	-0.36646038
204	0xbe412fa9	-0.18865837
205	0x3e8114ec	0.25211275
206	0x3e967db5	0.29392782
207	0x3ebaa424	0.36453354
208	0xbe9f3763	-0.31096944
209	0x3e8e043e	0.27737612
210	0xbd817d78	-0.063227594
211	0x3e85f196	0.26160878
212	0xbec4b004	-0.3841554
213	0x3ec5baad	0.38618985
214	0x3e1823c7	0.14857398
215	0xbed4c352	-0.41555268
216	0x3d551c59	0.052028988
217	0x3e02abe7	0.12760888
218	0xbedf4cb7	-0.43613216
219	0x3e8497c9	0.25897053
220	0x3eca97c0	0.395689
221	0x3e96500e	0.29357952
222	0xbebecaa1	-0.3726397
223	0x3ea12573	0.31473884
224	0xbe85b982	-0.26118094
225	0xbebdcb50	-0.37069178
226	0x3ebf44b4	0.37357104
227	0xbdf8ab4f	-0.121420495
228	0x3ee5d44c	0.44888532
229	0x3e5541f6	0.20825943
230	0xbecee08c	-0.4040569
231	0x3ee7aa2a	0.45247012
232	0x3e285492	0.16438511
233	0x3e765158	0.24054468
234	0x3d9d8fa6	0.076934144
235	0xbe08ef41	-0.13372518
236	0x3dd98645	0.10621313
237	0xbd08a3e5	-0.033359427
238	0x3e80d4a7	0.2516224
239	0xbd70fc55	-0.058834393
240	0xbed4b865	-0.41546932
241	0xbecba234	-0.3977219
242	0xbeaed770	-0.3414874
243	0xbe909dfa	-0.28245527
244	0x3e8c9aaf	0.27461764
245	0x3e381488	0.17976582
246	0xbe23c960	-0.15994787
247	0xbe000d02	-0.12504962
248	0x3e1594f5	0.14607604
249	0x3e12beab	0.14330547
250	0x3e465920	0.19369936
251	0xbced9b27	-0.029004646
252	0x3f0d94f3	0.55305403
253	0xbecf0acb	-0.40437922
254	0x3d9337ab	0.07188352
255	0x3e2492a3	0.16071562

model.0.bias f4 [64]
0	0xbec12748	-0.37725282
1	0xbdcdd26e	-0.10049902
2	0x3edb8f58	0.428828
3	0xbe5d93b4	-0.21638376
4	0xbeab11d0	-0.33412027
5	0x3df4f1d7	0.1196019
6	0x3ec9a604	0.39384472
7	0x3d387a65	0.0450386
8	0xbe86b96d	-0.26313344
9	0x3de6a5ae	0.1126207
10	0x3d30484b	0.043037694
11	0x3e9e34bc	0.30899608
12	0x3d12243e	0.035679094
13	0xbe9d9316	-0.3077628
14	0xbed39623	-0.41325483
15	0x3edcdb47	0.43136045
16	0xbc92777b	-0.017879238
17	0xbc96032d	-0.018312061
18	0xbe88d44f	-0.2672448
19	0x3e62b60b	0.22139756
20	0x3ef7b5ee	0.4838099
21	0xbe352d34	-0.17693025
22	0x3eb0f30c	0.3456043
23	0x3cbb387f	0.022854088
24	0x3e20100c	0.15631121
25	0x3d16d50a	0.036824264
26	0x3d4028c3	0.046913873
27	0xbd8e1d8f	-0.069392316
28	0x3d6c789a	0.057732202
29	0x3e9d32c6	0.307028
30	0x3d800bb2	0.06252231
31	0xbe976daf	-0.2957587
32	0xbe207440	-0.15669346
33	0x3ec47152	0.38367707
34	0x3dfa0c90	0.12209427
35	0xbec3a8f9	-0.38214853
36	0x3e31f904	0.17380148
37	0x3d6365c9	0.05551699
38	0xbed43ec6	-0.41454142
39	0x3e5b5494	0.21418983
40	0x3e8b023d	0.27150145
41	0xbdda92dc	-0.106725425
42	0xbda24efa	-0.0792522
43	0x3e8b10cd	0.27161255
44	0xbebc0036	-0.3671891
45	0xbe03e5b6	-0.12880597
46	0x3e0c90e9	0.13727154
47	0xbe7a0cdd	-0.2441897
48	0xbe56afc8	-0.20965493
49	0xbecd54d1	-0.40103772
50	0x3e948b15	0.2901236
51	0xbeb2b4b5	-0.34903494
52	0x3e60dbde	0.21958873
53	0xbed53049	-0.416384
54	0xbeb3cb27	-0.3511593
55	0xbdcdf028	-0.10055572
56	0xbebb8156	-0.36622113
57	0xbe4b71c6	-0.1986762
58	0xbbbe58ca	-0.0058089243
59	0xbe9840e8	-0.2973702
60	0x3eba6a7c	0.36409366
61	0x3de3c21a	0.11121006
62	0x3d65f040	0.056137323
63	0x3e719ed2	0.23595741

model.2.weight f4 [32, 64]
0	0x3d2b1b05	0.041773815
1	0xbdbb04fa	-0.091318086
2	0xbe5fec62	-0.21867517
3	0xbf802087	-1.0009927
4	0xbddc55f1	-0.107585795
5	0xbe31cae6	-0.17362556
6	0x3dbbe6f7	0.091749124
7	0x3c6988d2	0.014253812
8	0xbcbaabe8	-0.02278705
9	0x3de79eb8	0.1130957
10	0x3d2f2e1d	0.042768586
11	0x3eaa1976	0.3322255
12	0xbd016420	-0.031589627
13	0xbcc66f97	-0.024223132
14	0xbe60a6cf	-0.21938632
15	0x3e341c03	0.1758881
16	0xbe225d44	-0.1585589
17	0x3dfc8746	0.12330489
18	0x3c83ea2a	0.016102869
19	0xbcadce73	-0.021216607
20	0xbd956f4e	-0.0729662
21	0x3d7ca733	0.06168289
22	0x3db2e8ce	0.0873581
23	0xbe0c93a1	-0.13728191
24	0xbc808986	-0.015690576
25	0xbe2b4ca7	-0.1672846
26	0xbd2193df	-0.03944766
27	0xbbbc11a0	-0.0057394058
28	0xbeb88dda	-0.36045724
29	0x3ef93363	0.48672017
30	0x3e21bd97	0.15794979
31	0xbe569ea6	-0.20958957
32	0xbe3a6877	-0.18203913
33	0x3ee25ede	0.44213003
34	0xbe315427	-0.17317258
35	0xbd81259e	-0.06306003
36	0xbda362dd	-0.07977841
37	0xbdaf717c	-0.08566567
38	0xbd4acb84	-0.049510494
39	0x3e12df6e	0.14343044
40	0xbdac96f0	-0.084272265
41	0xbdfdd894	-0.123948246
42	0x3dae0ec6	0.084989116
43	0x3e220d96	0.15825495
44	0x3d49555c	0.04915367
45	0xbdadedb0	-0.08492601
46	0x3da433a6	0.08017664
47	0xbd8b1a2b	-0.067921005
48	0xbd98ff23	-0.074705385
49	0x3dfa4616	0.12220399
50	0xbde2f448	-0.11081749
51	0xbdfa1838	-0.122116506
52	0xbdd86f51	-0.10568107
53	0x3d2b08ac	0.041756317
54	0x3cb4eb10	0.022084743
55	0x3dc8f875	0.098130144
56	0x3b4d4e00	0.003132701
57	0x3cafd0d3	0.02146188
58	0x3e0ba6ee	0.13637897
59	0xbf4adb33	-0.7924072
60	0x3d1c3bbf	0.038142916
61	0xbe001a31	-0.12509991
62	0x3cdc96d4	0.02692739
63	0xbe2eba7b	-0.17063324
64	0xbe84d211	-0.25941518
65	0xbd4574c0	-0.048207045
66	0xbd7b76e8	-0.061392695
67	0xbd320e10	-0.043470442
68	0xbe4869ba	-0.19571581
69	0x3ce68d26	0.028143477
70	0x3daba2ee	0.08380686
71	0xbd97a87d	-0.074051835
72	0x3dab69a8	0.08369762
73	0x3e45b237	0.19306265
74	0x3dc26fdf	0.09493994
75	0x3d67db83	0.056605827
76	0xbd0692a1	-0.03285468
77	0xbd901405	-0.070350684
78	0xbeccba7c	-0.39986026
79	0x3e11a77a	0.14224043
80	0xbd7f7dc0	-0.062375784
81	0xbe16767e	-0.14693639
82	0xbd625428	-0.05525604
83	0x3c4a9174	0.01236378
84	0x3dcdf87e	0.10057162
85	0x3d1fb4c0	0.038990736
86	0x3df6251c	0.12018797
87	0xbd7e3acd	-0.062067796
88	0x3df811f8	0.12112802
89	0x3d6c63cb	0.057712357
90	0x3d01c836	0.031685077
91	0x3ea205d2	0.31645066
92	0x3e3bd3df	0.18342541
93	0xbd8a9753	-0.06767144
94	0xbc101e19	-0.008796238
95	0x3daa781f	0.083236925
96	0x3bc5ee9f	0.0060404087
97	0x3e35c1d2	0.17749718
98	0xbbdd34e2	-0.006750689
99	0x3d478e75	0.048719842
100	0x3d42aa02	0.047525413
101	0x3cee09c2	0.029057387
102	0xbcf50270	-0.029908389
103	0x3de447cc	0.11146507
104	0x3df76fec	0.12081894
105	0xbc12d6b4	-0.008962322
106	0xbea82a2a	-0.3284467
107	0x3e22963a	0.1587762
108	0xbdc61f02	-0.09673883
109	0xbddcd041	-0.10781909
110	0xbded4888	-0.115861
111	0xbe0cb04c	-0.13739127
112	0xbd855172	-0.06509675
113	0x3df9127c	0.12161729
114	0xbcf01f5b	-0.029311826
115	0xbe3a6109	-0.18201078
116	0x3e24a396	0.16078028
117	0x3d9acf80	0.07559109
118	0x3d97ef40	0.0741868
119	0x3d37878d	0.044807006
120	0xbde171e6	-0.110080525
121	0x3dc0da8a	0.09416683
122	0xbd66ebc4	-0.056377187
123	0xbdaeccbb	-0.08535143
124	0xbd343de3	-0.044004332
125	0xbdd6bf0a	-0.104856566
126	0xbc578442	-0.013154091
127	0xbd86898f	-0.06569206
128	0xbe3ccec6	-0.18438253
129	0xbd9e278f	-0.07722389
130	0x3c7a5a7e	0.015280364
131	0xbdcc9f24	-0.09991291
132	0xbe241665	-0.16024168
133	0x3dc6119d	0.09671328
134	0x3d86c830	0.065811515
135	0xbcd3aa29	-0.025837975
136	0xbe0291e6	-0.12750968
137	0x3def556a	0.11686213
138	0x3d36efe0	0.044662356
139	0x3dc679a5	0.096911706
140	0x3cd3b686	0.02584387
141	0xbd78754e	-0.060658745
142	0xbdedae72	-0.116055384
143	0xbcdbfb62	-0.026853267
144	0x3df3c08d	0.119019605
145	0xbc85b30e	-0.016320731
146	0x3d23f39a	0.04002724
147	0x3d1c15fd	0.038106907
148	0x3d26eb6d	0.040751863
149	0x3dd80401	0.10547639
150	0xbd4261e6	-0.047456644
151	0x3e088893	0.13333349
152	0x3df93271	0.12167824
153	0xbdb3b870	-0.08775413
154	0xbd92067a	-0.071301416
155	0x3dfef8f3	0.12449827
156	0x3de290db	0.11062785
157	0x3c8d805d	0.017273122
158	0x3d7b2dfd	0.061323155
159	0x3d55e88e	0.052223735
160	0x3dc2a561	0.095042
161	0x3db2c05b	0.08728095
162	0x3e0c9975	0.13730414
163	0x3d800992	0.062518254
164	0x3d446f91	0.04795796
165	0xbd8eb8fb	-0.06968876
166	0xbd89539c	-0.067054
167	0x3e040b75	0.12894996
168	0xbe047c28	-0.12937987
169	0x3d66f97c	0.05639027
170	0xbc79bf43	-0.015243354
171	0x3dd1e3be	0.102485165
172	0x3d17069c	0.036871538
173	0x3d7df84f	0.062004384
174	0xbda23d61	-0.07921863
175	0xbd316347	-0.04330757
176	0xbcd8b6d4	-0.026454367
177	0xbd9b427e	-0.07581042
178	0x3bf5aeee	0.00749766
179	0xbdb7813b	-0.08960196
180	0x3d7e4dd5	0.062085945
181	0x3d703540	0.058644533
182	0x3c9202e8	0.017823651
183	0xbdc9823f	-0.098392956
184	0x3da454e2	0.080240026
185	0x3dd9d3f2	0.106361285
186	0x3cf373c4	0.029718287
187	0xbd8afc07	-0.06786352
188	0x3d973bf9	0.07384486
189	0xbd632602	-0.05545617
190	0xbd465a90	-0.04842621
191	0x3e07a579	0.13246717
192	0x3e235ff2	0.15954569
193	0x3c9d207f	0.019180534
194	0xbe8df7c7	-0.27728102
195	0xbf347022	-0.704836
196	0x3cc42dd3	0.023947632
197	0xbcad0bae	-0.021123733
198	0xbdb60b12	-0.0888883
199	0x3c9f6c1b	0.019460728
200	0x3e0c577a	0.13705245
201	0xbd81d80b	-0.06340035
202	0x3b17566e	0.0023092288
203	0x3ec1a930	0.37824392
204	0x3e0844aa	0.13307443
205	0x3dcc89ea	0.099872425
206	0xbe312e3d	-0.17302795
207	0x3e402538	0.18764198
208	0xbe034759	-0.12820186
209	0x3d60e47e	0.054905407
210	0xbcf5f03a	-0.030021776
211	0x3e19b8c8	0.15011895
212	0xbe22473d	-0.15847488
213	0x3cda3a77	0.026639206
214	0x3d7630ba	0.060105063
215	0xbe0b49d2	-0.13602379
216	0xbddaef11	-0.106901295
217	0xbd07e639	-0.03317854
218	0xbd26c94c	-0.040719315
219	0xbcb2d7f9	-0.0218315
220	0xbee0bfcd	-0.43896332
221	0x3df45f08	0.11932188
222	0xbbc77345	-0.0060867392
223	0xbd313a3f	-0.04326844
224	0xbdbdc4be	-0.09266041
225	0x3eca7e8b	0.3954967
226	0xbd3c7d9c	-0.046018228
227	0x3d59eb74	0.05320306
228	0x3dd05400	0.10172272
229	0xbe4b482e	-0.19851753
230	0x3defa684	0.11701682
231	0x3e2ec8ae	0.1706874
232	0x3d975b6a	0.07390483
233	0xbda6182f	-0.081100814
234	0xbd2382a6	-0.039919518
235	0x3e069a87	0.13144885
236	0x3df6505c	0.12027046
237	0x3c062796	0.008188149
238	0x3cb14bab	0.021642527
239	0x3dbc705a	0.09201117
240	0xbe1c4472	-0.15260485
241	0xbc3f88b0	-0.011690304
242	0xbe7019c5	-0.2344733
243	0xbd57a401	-0.05264664
244	0xbde27f5e	-0.110594496
245	0xbbf6cf80	-0.00753206
246	0xbd8bdc44	-0.06829122
247	0xbd42ebd1	-0.047588173
248	0x3cc0f5d0	0.023554713
249	0xbe0b4287	-0.13599597
250	0x3d601870	0.054710805
251	0xbe4622be	-0.1934919
252	0xbcfdd815	-0.030986825
253	0x3dcb38f8	0.09922975
254	0xbdbfb2b5	-0.093602575
255	0xbe297a8a	-0.16550651

model.2.bias f4 [32]
0	0xbcc451ba	-0.023964752
1	0x3dd7651b	0.10517331
2	0x3d378935	0.044808585
3	0x3e1ed7ce	0.1551201
4	0x3e10d7fc	0.14144892
5	0xbda79272	-0.08182229
6	0x3e05f34d	0.13081093
7	0xbc35616f	-0.011070593
8	0xbca555fe	-0.020182606
9	0xba995bbd	-0.0011700314
10	0xbe00a3e5	-0.12562521
11	0xbcf20143	-0.029541617
12	0xbda39926	-0.07988195
13	0xbcc0bf75	-0.023528794
14	0xbc034c3c	-0.008013781
15	0xbdeaa782	-0.11457731
16	0xbd847925	-0.06468419
17	0xbbd8efa0	-0.0066203624
18	0xbd79f5b3	-0.061025333
19	0xbd7d1cc4	-0.06179501
20	0x3ca387c1	0.019962193
21	0xbcdb9a64	-0.026807018
22	0x3bb2cedf	0.00545679
23	0x3e23749d	0.15962453
24	0xbda0499b	-0.07826539
25	0x3c253068	0.010082342
26	0xbb6b5a51	-0.0035911987
27	0x3e2d5cbb	0.16929905
28	0xbda0a425	-0.07843808
29	0x3e12626f	0.14295362
30	0xbb81c9ca	-0.0039608227
31	0xbdb9e8dc	-0.090776175

model.4.weight f4 [1, 32]
0	0x3e81454d	0.25248185
1	0xbe0b3dd4	-0.13597804
2	0xbd609418	-0.054828733
3	0x3e623ef1	0.22094323
4	0x3e003fe0	0.12524366
5	0xbe903af3	-0.28169975
6	0x3d9dd4a4	0.077065736
7	0x3e0473df	0.12934826
8	0x3e1513d7	0.1455835
9	0x3d593127	0.05302539
10	0xbe0c496a	-0.1369988
11	0x3e3ec478	0.18629634
12	0xbacceb6a	-0.0015634124
13	0xbde12480	-0.1099329
14	0xbde4883f	-0.111587994
15	0xbb47d72d	-0.0030493245
16	0xbca800fc	-0.020508282
17	0xbdbadc53	-0.09124055
18	0x3d5c450e	0.053776793
19	0x3ce379c7	0.027768029
20	0xbe4b0d3a	-0.19829264
21	0x3de50835	0.11183206
22	0xbe3a3c28	-0.1818701
23	0xbe17de97	-0.14831005
24	0x3de338c5	0.11094812
25	0xbe526c54	-0.20549136
26	0xbd7646a4	-0.060125962
27	0x3dc8aa25	0.097980775
28	0x3dee2b2c	0.11629328
29	0xbe2d3482	-0.16914561
30	0xbe1556e0	-0.14583921
31	0x3d52ad55	0.051434834
