models/saved_models/performance_predictor.pth (torch, 13245 bytes, 5 tensors)

model.0.weight f4 [64, 5]
00000000: 4873 ba3e d951 d4be 5040 d83d 2894 1b3e
00000010: 6fc1 edbd ebb0 4abe 694b 6abd bbbe 89be
00000020: 028f dd3e 1b94 8bbe 7d28 a13e f237 a8bd
00000030: 482a 1b3e 92fa 59be 9b2b 22be 1a0c 0f3e
00000040: 202a ec3e 9799 c63d 52be e83e 6a92 e93d
00000050: 3ba5 bb3e 774a a7be 4fa5 cdbe 6b76 c23e
00000060: 6057 cb3e f2dd 943e 3c09 d4be 09e9 9c3c
00000070: 8de7 023e b9ae e7bd 906c 5b3e 0bac ccbd
00000080: 1614 8a3e e7a8 773e 2782 99be c42c b3be
00000090: 4b6a 98be 1825 e13e 53d5 833e 8fb8 19bc
000000a0: 1979 9d3e 02e3 6fbe 8aaf 013e 5190 bcbd
000000b0: a3da e0be f0f6 f3bd f160 7e3e 9106 37be
000000c0: 958c afbe 0e62 e23e 50f6 b93e 0ef9 983e
000000d0: ab48 95be fb43 c33d 2130 cc3e 5aad a83d
000000e0: 6823 73be 9613 9f3e 22cd 6ebe bce6 ac3e
000000f0: 5399 fabe e64a 06bd 5fb9 d83e 40c8 87bd
00000100: 16c2 25be bb3c e4be f8e8 423e beb4 babe
00000110: fadf 86be b195 9d3e e0ae c9be 9f78 0c3e
00000120: fbea e03e 4757 27bd 4710 d7be 61ee 17be
00000130: 5743 a63e e831 693e b08e bd3e c2cf 283e
00000140: f291 2c3e e3ab dabe 8507 c03e d655 d5be
00000150: cf53 8fbe 4157 d13e 2478 98be e431 893e
00000160: bd2c a2be a73c dd3e 2e91 9ebd 3b49 2ebe
00000170: 6d0b fa3e ef00 bdbd 856f b63d a5d8 d9be
00000180: 9cd9 853e d94f 0a3e 5e0e bc3e 4606 20be
00000190: 13bc f6be e2ee 203d 3199 68be dc71 e0bb
000001a0: cb91 c7be d5a6 cc3d db03 c9be c4b3 a9be
000001b0: 2ee4 9abe 811e b83e 63db d63e 324d b0bc
000001c0: 30bc ed3e e3d1 623b efee b43e 65ce ab3e
000001d0: a44f b7be e459 38bc 3362 cf3e 458e 3fbe
000001e0: 046e 45bc c6a2 e3be 4932 59be 71e5 f1bc
000001f0: f6e8 8bbe e8c1 d93d ed5f 9cbe 3767 bfbe
00000200: 34da a0be 30b8 ac3e ded8 373d b618 933e
00000210: 9894 0ebe 4c07 8f3a 382b 8dbd 6cec 9ebe
00000220: 61eb aabe 94ff e2be bca5 893e 5b12 dc3e
00000230: 486f 8e3e 1531 a9bb a27e 9abe 28cf bb3e
00000240: e16e c5be 2f2d b83e 9d54 bbbe 0760 31be
00000250: 7482 cd3d 2191 913e 9d2e e53d 1499 30be
00000260: 26d8 f43e 1a58 e73e 3cff b73e e815 ec3e
00000270: a7d4 823e e758 45be 7f23 56be 26d6 ccbe
00000280: 513d 993e 2a24 85be 7f31 35be 0e9c 4f3e
00000290: 050a ec3d 09c6 eabe 31ff 853e 3a7b 463c
000002a0: 29d5 773e b5ee 43be 521a 593d e568 a63e
000002b0: f529 a8be ba5c 5f3e 8236 e7bd 1000 e5bc
000002c0: 8b81 90be 0771 b7be 6403 dbbe 3b86 fa3c
000002d0: 634d 80be 9075 f13e cd37 4cbe e8cc 663e
000002e0: 0607 4abd 0699 debe e693 d3be 56b4 9a3d
000002f0: a54c ce3d d468 a8be f141 96bd 43b6 e6be
00000300: b2c1 67be 4f27 ebbe a9ae 9e3e 726e 8ebe
00000310: 45a6 9e3e e655 95be adda 0b3e 7e5e b33e
00000320: 72a7 b63e 756b 013e 46a6 d63e 8bf1 023d
00000330: 7f57 9fbe 51d7 3e3e b5bf edbe 69fc 24be
00000340: e61d 8f3e 18ca 44be d760 3b3e 9e85 c4bd
00000350: 9d37 56be 8421 27be 87a8 b6be 01fb f03e
00000360: 0675 ccbe 2a26 d4be e3f6 6fbd 6269 cc3d
00000370: 00fc f7bd 76bf 133d 28dd a6bd 8ff7 823e
00000380: 7e18 ac3d a61b 73bd 3347 d83e 5c31 7c3d
00000390: f706 d2be 1b4e 003d 2702 85be de14 b6be
000003a0: 4cb5 81be 16c4 5fbe e565 cb3e 60f1 84bd
000003b0: 3f8c d0be dab8 1dba d7ba 01be c05b a13d
000003c0: f3a7 83be 87e7 1ebe 3263 033e 1ab7 19be
000003d0: a6c4 af3e c38c 2fbe ffd4 ca3e 0163 453e
000003e0: 3387 b0be 8fe4 58be ac72 e03d 7de5 dd3d
000003f0: 8e75 a83e 8697 e2be 2116 05be bb1c 8f3e
0.36416078 -0.41468695 0.10559142 0.15193236 -0.1160916 -0.19794051 -0.057200823 -0.26903328
0.4327317 -0.27261433 0.31476203 -0.08213796 0.15152848 -0.21286991 -0.15836947 0.1396946
0.4612589 0.09697264 0.45457703 0.114048794 0.36649498 -0.32674 -0.40165183 0.3798097
0.397151 0.2907558 -0.41413295 0.019154089 0.12783642 -0.113126226 0.21428132 -0.09993752
0.2696845 0.24185525 -0.2998211 -0.3499509 -0.29768595 0.43973613 0.2574869 -0.009382381
0.30756453 -0.2342644 0.12664619 -0.09207214 -0.43916807 -0.11912334 0.24841668 -0.17873599
-0.34286943 0.44215435 0.36320734 0.29877514 -0.29157004 0.095344506 0.3988047 0.08236189
-0.23743975 0.3106963 -0.2332044 0.33769786 -0.48945102 -0.032786272 0.42328927 -0.066299915
-0.16187319 -0.44577584 0.19034183 -0.3646602 -0.26342756 0.30778268 -0.39391232 0.13717888
0.43929276 -0.04085472 -0.42004606 -0.14837028 0.3247325 0.22772944 0.37022924 0.16485503
0.16852549 -0.42709264 0.37505737 -0.4166705 -0.27993628 0.40886882 -0.2977916 0.26795876
-0.31674758 0.43210337 -0.077425346 -0.17020123 0.48836842 -0.09228694 0.089079894 -0.425481
0.26142585 0.13507022 0.3672971 -0.15627393 -0.48190364 0.039290316 -0.22714688 -0.0068495106
-0.3897842 0.09992758 -0.39260754 -0.33144963 -0.30252212 0.35960773 0.41964254 -0.021521185
0.46432638 0.0034609966 0.35338542 0.33555904 -0.35802948 -0.0112519 0.40504608 -0.18706615
-0.012050156 -0.44460124 -0.21210589 -0.029528352 -0.27326173 0.10632688 -0.30541936 -0.37383434
-0.31416476 0.33734274 0.044884555 0.2872979 -0.13923872 0.0010912209 -0.06893009 -0.3103975
-0.33382705 -0.44335616 0.26884258 0.42982754 0.27819276 -0.0051633217 -0.30174738 0.36681485
-0.38561156 0.35971972 -0.36587992 -0.17321788 0.100346476 0.28431037 0.111905314 -0.17245895
0.47821158 0.45184404 0.35936916 0.46110463 0.25552866 -0.19272195 -0.20911978 -0.40007132
0.29929593 -0.26004153 -0.17694663 0.20274374 0.115253486 -0.45854214 0.26171258 0.01211434
0.24202408 -0.19134028 0.053003617 0.32501903 -0.3284451 0.21812716 -0.112896934 -0.027954131
-0.28223833 -0.3582842 -0.42776024 0.030581584 -0.2505904 0.47160006 -0.19943161 0.22539103
-0.049323104 -0.43476123 -0.41323775 0.075539276 0.100732125 -0.32892478 -0.07336796 -0.4506093
-0.22632483 -0.45928428 0.3099263 -0.27818638 0.3098623 -0.29167098 0.13657637 0.3503303
0.35674626 0.12638648 0.41923732 0.031968635 -0.31121442 0.18636824 -0.46435323 -0.16111912
0.27952498 -0.19217718 0.1829866 -0.09595798 -0.20919652 -0.16321379 -0.3567545 0.470665
-0.39933032 -0.41435367 -0.05858506 0.09981038 -0.12108612 0.036071263 -0.08147651 0.25579497
0.08403109 -0.05935254 0.4224182 0.06157051 -0.4102094 0.031324487 -0.25978205 -0.35562795
-0.2533363 -0.21852145 0.39726177 -0.06491351 -0.40732 -0.000601662 -0.1266893 0.07878828
-0.25714073 -0.15518008 0.12830809 -0.15011254 0.34329718 -0.1714354 0.39615628 0.19276048
-0.3447815 -0.21180938 0.10959372 0.10834787 0.32902187 -0.44256228 -0.12996723 0.27951607

model.0.bias f4 [64]
00000000: 25de 77be 49a4 a8bd 5a53 95be e511 003d
00000010: 4cb6 86be e113 cebe f11e 76bd 5dda c7be
00000020: bc66 c23e bd8f 8c3e 2457 f3bd 21ba d8bd
00000030: afb3 753d 8e3e ad3e 08fc 0b3e 8949 26be
00000040: 3583 bebe 1e46 c2be ae80 ea3d 37c0 c03e
00000050: bd98 4abd 1004 67be 8f32 853e c62d d93e
00000060: ba4a 013f 8ac6 f33d 11d5 ac3d 5e41 f1bd
00000070: 4696 debe d0e4 f2bd fbcb d4be 8328 cabe
00000080: 2da2 b33d f76c ac3e c52f 113e bfd8 333e
00000090: c6f5 663e 9f9b c93d 411d babd baa6 8b3d
000000a0: 67e9 ea3e 86e9 0e3e a1b7 d03d 6f8f 7d3e
000000b0: a556 06be 89de 34be 0a4f b63e 2233 a6be
000000c0: a885 03be 1ce0 cd3d 055f bbbe 2d33 fcbd
000000d0: 0d98 88be 1a62 d7be e0c0 afbe 0146 fc3e
000000e0: 94b8 55be 3200 553e 245f 19be df37 ab3e
000000f0: f837 993e 436e 46bd cc58 ae3e 65cc ed3e
-0.24205835 -0.0823446 -0.29165155 0.031267066 -0.26310956 -0.4024954 -0.0600881 -0.39033785
0.37969005 0.27453414 -0.11881855 -0.10582376 0.059985813 0.33836788 0.13670361 -0.16238989
-0.37209478 -0.3794412 0.11450325 0.37646648 -0.04946207 -0.22560143 0.26015136 0.42417735
0.5050465 0.11903103 0.08439077 -0.11780046 -0.43474025 -0.11860049 -0.41561875 -0.39484033
0.08771167 0.33676884 0.14178379 0.17563151 0.22554693 0.098441355 -0.09087611 0.0681891
0.45881197 0.1395627 0.101912744 0.24761747 -0.1311899 -0.17663015 0.35607177 -0.32460886
-0.12843955 0.10052511 -0.36595932 -0.123144485 -0.26678506 -0.42067033 -0.3432684 0.4927216
-0.20871192 0.20800856 -0.149777 0.33441064 0.29925513 -0.048444998 0.34052122 0.46445003

model.2.weight f4 [32, 64]
00000000: 8090 a03b 202e d0bb 10c7 f03d 8842 88bc
00000010: 0871 763d f40a 8b3d 14be 443d ae56 a13d
00000020: 2840 cebd 2620 bdbd 5e00 e6bd 7e1a bebd
00000030: 6692 e13d 2c5e e13d 980a 97bd e09c efbb
00000040: 403c adbd 106d 4dbd 6a66 963d c060 163b
00000050: a2b0 de3d c091 cdbd 6c75 dfbd 2060 0c3d
00000060: d8d9 71bd 0000 8f3a 8af5 b4bd e038 fd3b
00000070: 5439 a23d ec03 d1bd 98f6 7abd 303a fcbc
00000080: 125c 913d a64d d9bd f4e1 723d 84ac 073d
00000090: 682d f53c 58c3 ec3d 3818 8bbc ec79 8b3d
000000a0: b642 bbbd b0af 7f3c f248 c4bd 225f 833d
000000b0: 30ed 973c a252 e73d 8077 c1bb aed8 a2bd
000000c0: 907b cb3d a0c9 b63b b025 1c3c cae8 a63d
000000d0: bc99 62bd 3ad4 803d 58a9 97bd 9838 c4bd
000000e0: b096 4ebd 6008 20bd eab8 cfbd ac8c 643d
000000f0: fc08 e43d 64f7 d1bd 6c33 113d 3ced bdbd
00000100: 14e5 3dbd a6dc 253c 0f3a 80bd fd05 af3d
00000110: 7c61 fbbb 884d 7b3d 67ab 8fbd 65d2 2cbd
00000120: 7972 643d 0985 1b3e 51ae 1fbd a008 9b3d
00000130: f464 1c3e 2c18 103e 5f66 1f3e 2978 113e
00000140: a688 443d e941 8d3d 4436 56bc 5225 d1bb
00000150: 8d5e 063d 3113 fdbd 2b63 fbbd 9404 6f3c
00000160: 2cf7 aabc 4817 c6bb 700d 83bd 906b 41bd
00000170: 763f b6bd efa7 9c3d 20a3 90bc feb6 90bd
00000180: cb05 b13c 2543 0b3e 73a4 143e 025f 69bd
00000190: 9b16 cb3d c5b1 21bd 6774 2bbd 41a8 993d
000001a0: 759b 0f3d e952 fabd c360 943d f7a4 d6bd
000001b0: 69e5 ae3d b21d 62bb 223b 17bd 56d6 dc3d
000001c0: 8aad 363e 5751 ad3d c261 af3d 1c08 303d
000001d0: 70b4 2a3d 7ddc c63d e79a a4bd d93d e83d
000001e0: 0f9e 82be f5d8 1e3e 1838 9cbd 25ab c73d
000001f0: 2d50 a93d 191c a8bd fe9c 34bd 96e0 a13d
00000200: 4df0 b4bd 006f 553c 5d53 9d3d 5cd1 753d
00000210: 455f c53d 3d44 cc3d 7e45 053d c625 853d
00000220: 5dc2 3abc 3454 dcbd 480e 2cbb c295 9a3d
00000230: caae 82bd 918c af3d 58ff 65bd 08c7 cdbc
00000240: 0fce 003d 6828 793d c528 0bbe 8883 6ebd
00000250: 3c43 7cbd ecd4 30bb 23ec 60bd 8b18 a83d
00000260: 8931 7e3d 0fc4 fabb 7924 07be d944 89bd
00000270: 409e cabd a502 cebd 80b5 643d e8bf dcbd
00000280: a14e 943c 68b2 c8bd d751 9f3d 18a4 31bc
00000290: 8010 e03a 5244 cd3d 22d2 cabd 40ed c63d
000002a0: d296 ee3c 1bf2 3cbd d897 9fbd dc5d 46bc
000002b0: e2b6 afbd 98a8 cfbc 568d 45bd 19d9 eebd
000002c0: 5cb8 54bd 608b 863b ce09 fabd 0dc9 b73d
000002d0: 482f 8a3c 6441 543d 3707 e3bd 0842 583d
000002e0: 2021 713c 9060 fa3d d59e 3f3d 1ee0 b33d
000002f0: e5cb 8e3d 9016 413c 296b 48bd d0ed 7abd
00000300: b197 e93c ba1b be3d b161 5a3d 085f 423d
00000310: 0904 cd3d ba08 f93b a635 b33d 20c8 19bd
00000320: b459 01be 0068 86bd c21a 953d d30c c53d
00000330: c0d2 1dbc 02fd 483d f66b 963d ec7f 7e3d
00000340: d28d 003d b595 c0bc 2ad8 c63b 7492 433d
00000350: fc31 9fbd e7c5 c5bd acdc 6cbc 5f1b 12be
00000360: 4747 b43d 3244 623d 5b97 dfbd 83ca f9bd
00000370: 3e3f 8b3d f3a6 c43d baf1 84bd ed1f 2d3d
00000380: 2507 8bbd ac0b 0bbd 3d33 e1bd 5172 8d3d
00000390: 8834 88bc cd9d 4a3d c479 ac3d 4032 93bb
000003a0: efae 08be 8d7f 91bd 723b 363d 5064 1dbc
000003b0: 9803 18bd 7058 383d 0599 eabc 9f94 b0bd
000003c0: b8ab b3bd a0d8 6bbd 0cc3 00bd 06ef f6bc
000003d0: e2cd b63d 2872 6f3d a2ee cebc 6029 88bc
000003e0: 410d 433d 1a02 fdbd 1026 4cbd a56e e8bd
000003f0: 14ce cfbd 2034 d3bd 1ba8 cebd 8030 de3a
0.0049000382 -0.006353155 0.11756718 -0.016633287 0.06016639 0.067891985 0.048032835 0.07877861
-0.100708306 -0.092346475 -0.11230539 -0.09282397 0.110142514 0.1100429 -0.073750675 -0.007312402
-0.084587574 -0.05015284 0.07343753 0.002294585 0.10873534 -0.10037565 -0.10911068 0.03427136
-0.059045643 0.0010910034 -0.08835895 0.0077277273 0.07921091 -0.10205826 -0.061270326 -0.030789465
0.07097639 -0.106105134 0.059297517 0.033123508 0.029928878 0.11560696 -0.016979322 0.06810364
-0.091435835 0.015605852 -0.09584226 0.064146295 0.018545717 0.11295058 -0.005904138 -0.079514846
0.09935677 0.005578235 0.00953047 0.0814987 -0.055322394 0.06290479 -0.07405347 -0.09581107
-0.050436676 -0.039070487 -0.101426914 0.055798218 0.11134526 -0.10252264 0.03544943 -0.092737645
-0.046361044 0.0101234075 -0.06261074 0.08546064 -0.007671533 0.061353236 -0.07015114 -0.042192835
0.055773232 0.15187468 -0.0389846 0.075700045 0.15272886 0.14071721 0.15566395 0.14205994
0.04798188 0.06897337 -0.013074461 -0.0063826228 0.032805014 -0.12357176 -0.12274774 0.014588494
-0.020869814 -0.006045256 -0.063990474 -0.04722172 -0.08898823 0.07649218 -0.017655909 -0.07066153
0.021609208 0.13599832 0.14515857 -0.056975372 0.09916421 -0.039476175 -0.041859057 0.07502795
0.035060365 -0.12222845 0.07245018 -0.10480683 0.0853985 -0.0034502563 -0.036921628 0.10783069
0.17839637 0.0846278 0.08563568 0.042976484 0.041675985 0.097100236 -0.08037358 0.113399215
-0.25511214 0.1551245 -0.076278865 0.0974944 0.082672454 -0.08208484 -0.044095032 0.079041645
-0.08834896 0.013026953 0.07681916 0.060014114 0.09637312 0.09973953 0.032536976 0.06501345
-0.011398879 -0.10758248 -0.002625363 0.07548095 -0.063809946 0.08571733 -0.056151718 -0.02511932
0.031446513 0.06082955 -0.13589771 -0.058230907 -0.061587557 -0.002698238 -0.054912698 0.08207806
0.06205896 -0.0076527665 -0.13197507 -0.06702585 -0.09893465 -0.10059098 0.055837154 -0.10778791
0.0181039 -0.09799653 0.077792816 -0.010842346 0.0017094761 0.10022797 -0.09903361 0.097132206
0.029124651 -0.046129327 -0.07792634 -0.012107339 -0.08579804 -0.025348946 -0.04823049 -0.11662502
-0.05193363 0.0041059703 -0.12208901 0.08973894 0.016868249 0.051820174 -0.110853605 0.052797347
0.01471737 0.12225449 0.046782333 0.08782981 0.069724835 0.0117851645 -0.04893032 -0.061261952
0.028514715 0.09282632 0.053315822 0.04745391 0.10010535 0.0075999172 0.08750467 -0.03754437
-0.12631875 -0.06562805 0.07280494 0.09621587 -0.009632766 0.049069412 0.07344811 0.062133715
0.03138525 -0.023508886 0.0060682492 0.04774709 -0.07773206 -0.096568875 -0.014456909 -0.14268254
0.088026576 0.055240817 -0.10917541 -0.12196829 0.06799172 0.096021555 -0.06491418 0.042266775
-0.06788472 -0.033946678 -0.10996101 0.0690657 -0.016626611 0.049466897 0.084216624 -0.0044920743
-0.13347982 -0.071044065 0.044490285 -0.009606436 -0.037112802 0.045006216 -0.028637419 -0.08622097
-0.08772987 -0.057579637 -0.03143601 -0.030143272 0.08925988 0.058458477 -0.025260273 -0.016621292
0.04762006 -0.123539165 -0.049840987 -0.11349229 -0.10146728 -0.103126764 -0.10090657 0.001695171

model.2.bias f4 [32]
00000000: 4cfb d0bd d199 b83d df04 04be 739b 5ebd
00000010: 6cfc 553c f3d4 03bc 16a7 9c3c 5844 363e
00000020: 80c2 083e 8e8e 53bb 983f 93bd 84e0 cabd
00000030: f633 ec3c 49da f6bd e606 9fbd c02b b0bd
00000040: 84de cd3d 5859 123e 58a9 aa3d 06dc 37bc
00000050: e28e aa3d 62a6 9e3c 7027 493d c298 96bc
00000060: 2e13 123e 4061 ffbd 80c2 84bc 0f05 19bd
00000070: f9a2 2ebd aeb7 9fb9 eed3 9c3c 2263 2e3e
-0.10204181 0.09013713 -0.12892483 -0.054347467 0.01306067 -0.0080463765 0.019122642 0.17799509
0.13355446 -0.0032281014 -0.07189864 -0.09906104 0.02883337 -0.12053353 -0.07764988 -0.08602095
0.10052207 0.14291894 0.08333081 -0.011221891 0.08328034 0.019366447 0.049109876 -0.018383387
0.14265129 -0.12469721 -0.016206026 -0.03735834 -0.04263589 -0.00030463695 0.019144025 0.17030004

model.4.weight f4 [1, 32]
00000000: 5e1f a63d 1087 1a3e 0d46 783d f6ab 4d3d
00000010: e57f 85bd f75b 54be 7e13 6abd 3053 073e
00000020: eb26 f5bd 8408 cc3d 8f5d afbd 19e0 b1bd
00000030: 6127 15be d446 a93d be7c 10be 508a 25be
00000040: 020e aabd 876f 01bd 9e25 c8bd a2fe 823d
00000050: 0bd8 7b3d 0c1c babd f886 10be 2fcd 9b3d
00000060: 7826 5abe 97b2 04be f279 9dbd 895c 473e
00000070: de39 1e3e ab0e d6bd e432 133e 1465 7c3d
0.081114516 0.15090585 0.06061368 0.050212823 -0.065185346 -0.20738207 -0.057147495 0.13215327
-0.11970314 0.09962562 -0.08562767 -0.08685321 -0.14565803 0.082654625 -0.14110085 -0.16166043
-0.08303453 -0.0316005 -0.097728 0.063962236 0.06148533 -0.09087381 -0.14113986 0.07607495
-0.21303737 -0.12958752 -0.07689275 0.19468893 0.15451762 -0.104520164 0.14374882 0.061619833
