models/saved_models/performance_predictor.pth (torch, 53437 bytes, 5 tensors)

model.0.weight f4 [128, 32]
00000000: 0ff5 27be ab02 1abe d663 ba3d 10cb d3bd
00000010: 928e 07be 2b9a 1fbe a493 2b3e 75f8 4fbc
00000020: 3d0c e03b 8cbf 08be 43d0 95bd 1cea e1bd
00000030: 08c3 fe3d 3c9e f4bd 2c92 b23d a83f a03d
00000040: a618 b13b 68a5 393d 4702 083e 631d 023e
00000050: b8e5 803d ecdc 3a3e a447 173e 6a66 873d
00000060: 32d4 f4bc 470f f6bd f3dd fbbd 7cbc 873d
00000070: 2cf6 283e 5170 003e ae43 92bd 326e 8a3d
00000080: 6959 8c3d 6207 e6bd 5964 7abd 63d2 f43d
00000090: c60a 31be 9f3f 1cbe 6996 f93d cdfa 8f3d
000000a0: 7741 383d e151 b0bb 52d6 e83d 0021 a0bd
000000b0: 6a3c 7c3d 6ba0 033c 9de9 1c3e 28bc a9bd
000000c0: a9d0 433d a1ba ff3c e6ca 51bc 8e92 023d
000000d0: 0da1 953c 89c5 89bb 06bd 253e 2d08 bebd
000000e0: e35b 0fbd 582f 833c 8ea1 0e3e ab37 a8bd
000000f0: 60b8 233e 977d fcbd c99d 253d 88bc 1b3d
00000100: 1787 04bd 4dcc 4ebd 152d 033e ccf0 bcbb
00000110: 41fb 7fbd 2a1f 3abd 1f06 383d 5a7d 4a3d
00000120: 5833 053e a9bc f03d 0b11 45bc fc59 da3d
00000130: e911 123d 988e 433d 8acf edbd a870 8dbd
00000140: bf52 04be c6ec d73c c221 0bbe e617 a73c
00000150: e24b e6bb a574 6b3d ce0d a4bd 3327 82bd
00000160: c6aa 093d afb1 253e 67d9 9c3d 0ef6 2abe
00000170: f86d 6bbd 166f 2e3e 0c19 cb3d ab05 853d
00000180: 1415 34be 816f 2cbc 10e0 6bbd aca8 b53d
00000190: afa5 553d b3d0 f2bd 62a0 8ebd ab96 ab39
000001a0: 91d9 13be 7de2 bb3c 48ac ee3d 5e81 a7bd
000001b0: 9a2d 94bd 978f 113e 98b3 44bd 4144 dd3d
000001c0: b07f 53bd 3ddb 40bd d425 30be 3008 2fbe
000001d0: 9644 da3c a7a7 0b3e 9b57 3a3d 3083 f3bd
000001e0: fcb8 b6b9 ce43 a9bd 03ac 1fbe 03e9 a53d
000001f0: 8f52 233e 186a 06be 0b6d 753d f4ac 803c
00000200: b124 de3d e763 85bd a017 f63d 6104 af3d
00000210: 0cc5 27be 96e9 213e 7bb0 b23c 75f1 37ba
00000220: d071 1b3e fe36 b9bd 91e0 2e3e c63d dcbd
00000230: 4cde ddbd 4ec2 213e 1ee2 023d 82cc 723d
00000240: d58f b4bd 76c2 f3bd 4f8d e8bd 6b26 8fbc
00000250: 519b 22be 26eb 7dbd 6499 4d3c 0c1f 19be
00000260: 118a 143d 9597 0fbe b359 ce3d 62e6 bbbd
00000270: c294 8c3c 2799 063e 6555 cebd f01e 933d
00000280: 59e0 023e 6606 0cbe 888e 633d b2f6 25be
00000290: aaaa 103e 040d 8d3c 957b 943c e26a cbbb
000002a0: 7b62 1abb bf01 b7bc 8180 6dbd a824 423b
000002b0: 9945 f3bd 9466 dfbc f3f5 49bd 8b33 dbbc
000002c0: a58a 11bd 21bb a4bd 0d84 a73d cbf3 ecbd
000002d0: cc5f cb3c ae39 a9bd 6405 0abd d8b9 403d
000002e0: 4aa4 183e 984e bb3d b720 e3bc 643f 35be
000002f0: cb4b 0fbe 06e2 90bd b32f f53d e629 14bd
00000300: 49af 2b3e e1ce 1fbe e6a8 e1bd 24c9 1f3d
00000310: 52ff f4bd 3e80 77bd e0c7 0f3d 4046 5f3d
00000320: e413 d7bc 48b0 c33b c6e4 53bc c646 083e
00000330: 2a4f 00be 8a72 e7bd 67dd 40bd 5ee5 f7bd
00000340: 1be2 66bd 080e 16bd 96f0 bdbc 780c 1fbe
00000350: f71f b5bd 9b22 573d 820a 3abd 997d a83d
00000360: c578 b23c 41bf 213e fb54 22be f6d7 dcbd
00000370: 5c6d ccbc efda debd 7e9e dabd 42c6 28bd
00000380: 2d52 e83d 2cb7 f53c 41f7 d2bc 52d0 29be
00000390: d4cf 91bd 5e3e 16be c15a 2fbe 03b2 ed3d
000003a0: 6a54 d6bd a2fb c03d 2dfa 0ebd fca1 733b
000003b0: 3c72 e33d ee0a 453c 6762 4d3d 930c 833d
000003c0: d4ed 1c3e 235a 57bd e20f 4f3d c705 3a3e
000003d0: 1bae a43d ae4c 9fbd f87e 1c3d 7548 09bd
000003e0: 2849 2cbd 7b8c ce3d bbff 70bd 2fbf 02be
000003f0: 3f10 1c3e eab9 273e dbc1 af3c e1f0 d23c
-0.16402076 -0.1504008 0.091010734 -0.103414655 -0.1323798 -0.15586154 0.16755539 -0.012693514
0.0068373964 -0.1335432 -0.073151134 -0.11030981 0.12439543 -0.11944243 0.08719286 0.078246415
0.0054045497 0.04532376 0.13282119 0.12706523 0.062938154 0.18248338 0.14773422 0.06611331
-0.029886339 -0.12014633 -0.12298193 0.066277474 0.16500157 0.12542845 -0.07141815 0.06759299
0.06852991 -0.11231877 -0.061130855 0.119541906 -0.17289266 -0.15258645 0.121868916 0.07030258
0.044984307 -0.0053808545 0.11369003 -0.07818794 0.061581053 0.008033852 0.15323491 -0.08287841
0.047806416 0.031216921 -0.012804722 0.031878047 0.018265272 -0.004204456 0.16185388 -0.09278903
-0.03499974 0.016013786 0.13928816 -0.08213743 0.15988302 -0.12328642 0.04043368 0.038021594
-0.032355394 -0.050487805 0.12810166 -0.00576601 -0.062495474 -0.045439877 0.044927713 0.04943595
0.13007867 0.11754734 -0.012027989 0.106616944 0.03566161 0.04774341 -0.116118506 -0.06906253
-0.1292219 0.02635802 -0.13587096 0.020397138 -0.007028089 0.057484288 -0.080104455 -0.06355133
0.033610128 0.16181062 0.07658654 -0.16695425 -0.05747792 0.17034563 0.09916887 0.06495222
-0.17586166 -0.0105246315 -0.05758673 0.08870062 0.05215996 -0.118562125 -0.06964184 0.00032727918
-0.14438464 0.022935146 0.11653954 -0.08178972 -0.0723526 0.14214931 -0.048022836 0.10804034
-0.051635444 -0.047084082 -0.1720193 -0.17092967 0.026644032 0.13638173 0.045493703 -0.118902564
-0.0003485157 -0.08264886 -0.15592961 0.08101084 0.15949462 -0.13126409 0.059918445 0.01570747
0.10846842 -0.065131955 0.12016225 0.08545757 -0.16383761 0.15811762 0.021812668 -0.0007016876
0.15180135 -0.09043692 0.17077853 -0.1075397 -0.108334154 0.15796778 0.031953923 0.059277065
-0.08816496 -0.11902325 -0.113550775 -0.017474374 -0.15879561 -0.061991833 0.012548778 -0.1495325
0.036264483 -0.14022668 0.100757025 -0.091748014 0.017160777 0.1314436 -0.100748815 0.07183635
0.12780894 -0.13674316 0.05555585 -0.16207388 0.14127603 0.01721812 0.018125335 -0.00620781
-0.0023557234 -0.0223397 -0.05798388 0.00296239 -0.11878509 -0.027270593 -0.04930682 -0.026757976
-0.035532612 -0.080435045 0.081794836 -0.11569937 0.024825953 -0.08262955 -0.033696547 0.047052234
0.14906421 0.0914585 -0.02772556 -0.17699963 -0.13993756 -0.070743605 0.119719885 -0.03617277
0.16766085 -0.15606262 -0.11018543 0.039010182 -0.11962761 -0.060425036 0.035102725 0.054510355
-0.026254602 0.005971942 -0.012932962 0.13308248 -0.12530199 -0.113011435 -0.047086146 -0.12104295
-0.056367975 -0.036634475 -0.02318601 -0.155321 -0.088439874 0.052523237 -0.045420177 0.08227081
0.021786103 0.15795614 -0.1585273 -0.10783379 -0.02495449 -0.10881602 -0.10674761 -0.0412047
0.11343799 0.02999457 -0.025752665 -0.16583374 -0.07119718 -0.14672229 -0.17124464 0.11606219
-0.104653195 0.09422995 -0.034906555 0.0037175408 0.11105773 0.012026532 0.050142672 0.06398883
0.15325099 -0.052576195 0.050552256 0.18166266 0.080410205 -0.07778297 0.038207024 -0.033516366
-0.042061955 0.10085388 -0.058837634 -0.12768243 0.15240572 0.16379514 0.021454742 0.025749626

model.0.bias f4 [128]
00000000: 680b c8bd 4772 f43d 6867 a73d 1592 c9bd
00000010: dc16 07bd 964d 08be b1e6 2b3d 8f40 053e
00000020: d29b 863d da71 d23d 1760 093e 7cdd f93d
00000030: 8078 c6bc cc72 f63d 2d31 afbd 25df 4c3d
00000040: 422d 043e 5ac7 2cbe 11a9 fa3d 2085 5dbd
00000050: 2fc1 b33c c415 20be b134 11bd 9273 173d
00000060: a7cd f1bd 6612 783b 66b5 1b3e 2d01 ea3b
00000070: 819e 49bc 437e 25be 9d4b 6fbc 0a51 d0bd
00000080: 1c77 1e3e dd89 c0bd 135c c03d 2981 d53d
00000090: 08be 1b3e 8be8 86bd dd4a 4fbd 4028 bf3b
000000a0: a32d 9fbd 8d82 d2bd c863 db3c ee83 b53d
000000b0: 4799 13be 0798 eb3d 1dad 1fbe 9135 443d
000000c0: 5419 1f3e a419 1dbc 93fb 3d3d 76bf f43d
000000d0: ed34 00be 1f80 1a3e a5f0 1f3e a8fc 2bbe
000000e0: 5089 bfbd 9f43 af3d 3c45 cabd 26c2 2abe
000000f0: 5569 0e3e a0d3 893d 2ec0 c83d f0da 09be
00000100: 6adc 0a3e 9ef0 fabd c2b8 14be 1eb2 c5bd
00000110: f3d3 1abd ad25 1ebd c7e2 98bd a7c3 ac3d
00000120: 283c cfbd e52a 04be f809 c7bc 436c 72bd
00000130: 1b02 d43c 0b5c ee3d 7c47 01be a4db 70bd
00000140: d78d a53c cded b73d 4305 093e 2387 a33d
00000150: 645a fabd f32b 94bd 70a3 c13d 4ca2 08be
00000160: 532a a03d 0c52 e53d 2b73 18be c3e0 273d
00000170: 9cd3 213c 7b68 863d 20d8 6dbd df61 c6bc
00000180: cf33 18be 92df 2ebe 6270 a63c af69 9bbb
00000190: 28a7 aebd 2f47 993d 1da5 febd c24d 1c3e
000001a0: ac56 4cbc 2c98 5dbd 5529 2a3e 9b71 0cbe
000001b0: 2e07 dd3d ce2c 063e c9c1 143e cc5a e43d
000001c0: d8b2 04be f6a4 4ebd d88f c83c 9622 183d
000001d0: 9377 ddbd 4c31 aabd 34ee 98bd 5714 86bd
000001e0: 1ffe 73bd d73e eb3d f687 313e a6b4 0dbe
000001f0: 4c3c 0fbe d6da cf3d 1f8c 30be 3c9f 3f3d
-0.097678006 0.11935859 0.0817402 -0.09842316 -0.032980785 -0.13310847 0.04196805 0.13012908
0.06572689 0.10275622 0.13415562 0.12200448 -0.02422738 0.120336145 -0.085543014 0.050017495
0.1290789 -0.16872922 0.12239278 -0.054082036 0.021942703 -0.15633303 -0.03545064 0.03697545
-0.11806803 0.0037852763 0.15205917 0.0071412534 -0.012305857 -0.16161446 -0.01460543 -0.10171707
0.15475124 -0.09401295 0.09392562 0.10425026 0.1520921 -0.06587323 -0.050608505 0.0058336556
-0.077723764 -0.10278807 0.026780978 0.08863054 -0.1441394 0.11503606 -0.15593381 0.047902647
0.15537006 -0.009588633 0.046382498 0.11950581 -0.1252019 0.15087937 0.15619142 -0.167956
-0.09352362 0.085578196 -0.09876487 -0.16675624 0.13907368 0.067298174 0.0980228 -0.13462424
0.13560644 -0.12252925 -0.14523605 -0.09653114 -0.037799787 -0.03861015 -0.07465129 0.08435755
-0.10118896 -0.12906988 -0.024296746 -0.059185278 0.02587991 0.116386496 -0.12624925 -0.058803216
0.020209236 0.08980904 0.13380913 0.0798476 -0.12224272 -0.07234945 0.09455001 -0.13343161
0.07820573 0.1119729 -0.14887683 0.040985834 0.009877112 0.06562897 -0.05806744 -0.02421659
-0.14863513 -0.17077473 0.02031726 -0.004742823 -0.08527976 0.0748428 -0.124338366 0.15264037
-0.012471836 -0.0541002 0.1661733 -0.13715212 0.10792385 0.13103029 0.14527048 0.11150131
-0.12958848 -0.050450288 0.024482653 0.03714236 -0.108138226 -0.08310184 -0.07467309 -0.06546848
-0.05956852 0.11486595 0.17337021 -0.13838443 -0.13987845 0.101491615 -0.17240952 0.046782717

model.2.weight f4 [64, 128]
00000000: 2e05 fbbb 673f 7cbd 813a 8a3d 92b5 a23d
00000010: df70 86bd f77a f33b f630 24bd 8e8d b0bb
00000020: 0176 afbd 001b 173c 2599 883d 4837 953c
00000030: 4162 cb3c aaea 8cba dd24 a43d 67d7 9a3d
00000040: 4f67 6fbd 4c35 45bc 7160 933d b03a 223c
00000050: 1601 f53c 9e4a 80bc cf66 953c 5fd7 3b3c
00000060: 2d53 9cbd 416f 383d 03fd d0bc 5871 333d
00000070: d00b aabd c219 71bb 6318 aa3d e720 683d
00000080: fd78 753d 5572 f0bb 3f77 7fbd a260 ddbb
00000090: 5156 303d 8ade 5b3d 5ac2 e4bc a9d4 8b3d
000000a0: 43a4 983d a254 a7bd 7fc4 783d 63a0 27bd
000000b0: 5209 5cbd 9d3b a7bc 2b9d 91bb 2392 0a3d
000000c0: bac7 96bc fdd1 1e3d 13f2 71bc 36e3 b2bd
000000d0: 10f5 a43d 2e49 3b3d 35e7 b43c 55a3 783d
000000e0: 352a 583d b5bf 2ebd 1df1 263d 2663 8a3d
000000f0: 4d3c 433c bfe1 c4bc 1688 913b 58e2 92bd
00000100: bdef 2b3d 7e8d 38bd 383d 9f3d 2c39 ffbc
00000110: 07af fb3c 2131 b6bd 3c03 f4bc 83c7 82bc
00000120: d355 f5bc fc12 c93b 530a 2c3a e5b6 4fbd
00000130: 4a43 583d a317 0b3d 73db 973d 072c 8bbd
00000140: 1058 f0bb 4dba 1dbc 0dfe 3c3c 1b4f 423c
00000150: f2b7 a13d e552 ccbc cb13 8e3d ea9e 32bc
00000160: 6b82 84bd 3088 a0b9 06db 5fbc 0647 a73c
00000170: 443b 723d 012c 02bd 4729 883d bf14 843d
00000180: aef7 6f3c 229b 8bbd f34c 7ebd db0d 333c
00000190: ea85 71bd e227 443d d582 a8bd e335 42bd
000001a0: fcd5 eabc 1571 2ebd 3ee8 07bb d081 adbd
000001b0: 0bca 943d cb67 8dbd 54d5 34bd 8a30 9b3d
000001c0: 6c80 62bd 6ef6 d13c c3e5 c1ba 1595 b6bc
000001d0: 514e 6d3d f3fe 5dbd 3018 32bd 53d2 813d
000001e0: 6c61 36bd 8d50 94bd ae66 a3bd b63f c5bc
000001f0: 94f1 a93b 9456 babc eecb fd3c 7d69 16bc
00000200: c695 30bc dabc 313d 0ef3 c53c 3de3 213d
00000210: 3a74 e53c fe9b 233d 9ba1 08bb d634 44bd
00000220: 7ef4 9f3c bfba 9a3b 0cb5 b9bc cd1b b7bc
00000230: 8eb5 f13c f67c 963d a3dd 0a3d a6b3 7b3d
00000240: 17ba ae3d bd64 823d 536b 01bd 0105 96bd
00000250: c542 833d 134a 743d df53 853d 0a93 5abc
00000260: 7aa0 a63d 8df4 a3bd 2531 30bd c84e 0bbd
00000270: 53d0 b23d f468 743c d6d2 eabc eaee 533d
00000280: 0dc8 08bc 2936 93bd dff6 dabc 0dbd aa3d
00000290: 5f4d 84bd 5f99 21bd d6a4 0f3b 43e5 22bd
000002a0: 17b0 fa3c 602e b6bb f9f4 8abd 91d0 b5bd
000002b0: 7612 d9ba 0432 0e3c 527f ad3d a8a4 f63b
000002c0: b3f9 3a3d 2c1b 9ebd 28fd d7bc 9423 703b
000002d0: e1df d03c 21ea d6bc 81ff 913d 2a89 233d
000002e0: 3e52 953d 7cdf 7f3d 57bb 2abd a015 b53c
000002f0: 1daf c0bc f8eb 8ebd 3a1d babc 8a25 b6bd
00000300: 877a d93c efec 05bd 4a50 563d 65b4 6fbd
00000310: c417 823d 68f1 93bd 30e9 e4bb cac8 903d
00000320: d949 bbbb 6cc9 21bd 4b3d 033c 8483 803d
00000330: 5933 283d a22e ae3d 394d 8abd 2a5e 8c3d
00000340: 9d25 003d 1562 c33c a277 ab3d d40b 08bd
00000350: 6694 64bc 7002 2fbd f508 573d 5d15 363d
00000360: 80df b6bb 711b 0abd 2bdf 05bd 8b61 80bd
00000370: 6fd8 fb3c 16ce 513b 7de4 49bd 3179 893c
00000380: e79b 023d c1d0 a43c d41a 88bd 8822 0cbd
00000390: 280c 67bc bf91 9e3d 605f 4f3d 358d 4ebd
000003a0: 8303 b5bb 0674 1c3c 987d 3bbd bb93 00bc
000003b0: 7010 623d bcf2 e6bc 0b2f 043d eb6e 863d
000003c0: bcab aa3d c238 a03d 56aa 5a3c ddbf 8c3d
000003d0: 10f0 8bbd 90f7 74bd c417 8a3d 3420 ab3d
000003e0: ea31 9cbc 23fa a43c 39a1 b63d e1b2 7cbd
000003f0: 4fa0 e6b9 638e 4bbd b10a 9cbc cfa4 523c
-0.0076605296 -0.061583903 0.0674944 0.07944788 -0.06564497 0.00743043 -0.040085755 -0.0053879684
-0.08567429 0.009222746 0.06669835 0.018214837 0.024827125 -0.0010751088 0.080148436 0.07560616
-0.058448132 -0.012036633 0.07196129 0.0099016875 0.029907744 -0.01566058 0.0182375 0.011464923
-0.07633052 0.045027975 -0.02551127 0.043809265 -0.08303034 -0.0036789034 0.08305433 0.056672003
0.059929837 -0.007337848 -0.06236958 -0.0067559043 0.043051068 0.053679027 -0.027924705 0.06827671
0.074532054 -0.08170439 0.06073427 -0.04092444 -0.053719826 -0.020414168 -0.0044437847 0.033830773
-0.018405784 0.03877448 -0.014767188 -0.08734743 0.080545545 0.045724086 0.022082904 0.06070264
0.052774627 -0.042663295 0.040757287 0.06757192 0.011916232 -0.024033425 0.0044412715 -0.07172078
0.04197668 -0.045056812 0.077753484 -0.031155191 0.030723108 -0.08896089 -0.029786699 -0.015964275
-0.02994815 0.0061362963 0.0006562818 -0.05071153 0.052798547 0.03395809 0.074149035 -0.06795507
-0.0073347166 -0.009626937 0.01153518 0.0118596805 0.07896413 -0.024941871 0.06937369 -0.010902146
-0.06470188 -0.00030619046 -0.013663059 0.020419609 0.05913855 -0.031780247 0.06648498 0.064492695
0.014646454 -0.068166986 -0.062085103 0.010928596 -0.0589656 0.047889598 -0.08228079 -0.04741467
-0.028666489 -0.042588312 -0.0020737792 -0.084720254 0.07265099 -0.069045626 -0.044148758 0.075776175
-0.055298254 0.025630202 -0.0014793206 -0.022287885 0.057936016 -0.054198217 -0.0434801 0.06338944
-0.044526502 -0.07241926 -0.07978569 -0.024078231 0.005186269 -0.022746362 0.03098103 -0.009180424
-0.010777896 0.043392994 0.02416375 0.039523352 0.028009523 0.039943688 -0.0020848277 -0.04790195
0.019525763 0.004721969 -0.022669338 -0.022352124 0.029505517 0.07348053 0.033902775 0.061450623
0.085315876 0.063668706 -0.031596493 -0.07325173 0.0640922 0.059640955 0.06510138 -0.013340721
0.08136077 -0.08005629 -0.043015618 -0.03401068 0.08731141 0.014917601 -0.028664988 0.051741518
-0.008348477 -0.071880646 -0.026729045 0.0833684 -0.0646007 -0.039452907 0.0021918318 -0.039769422
0.030601544 -0.0055597275 -0.06785006 -0.088776715 -0.0016561288 0.008678917 0.0847155 0.007526953
0.045648288 -0.077200264 -0.026365831 0.00366423 0.025497379 -0.026234688 0.07128812 0.03992573
0.07291077 0.06246899 -0.041682567 0.022105038 -0.023521 -0.06978601 -0.022719014 -0.08893879
0.026547683 -0.03269666 0.052322663 -0.058521647 0.06352189 -0.07223779 -0.006985806 0.070695475
-0.0057155904 -0.03949873 0.008010219 0.062750846 0.041064594 0.08504988 -0.0675301 0.06853898
0.03128587 0.02385048 0.083724275 -0.033214405 -0.013951397 -0.042726934 0.052498776 0.044453967
-0.0055808425 -0.033717576 -0.032683533 -0.06268605 0.030742852 0.0032013706 -0.04929017 0.016781421
0.03188696 0.020119073 -0.06645742 -0.03421262 -0.014102019 0.077426426 0.050628066 -0.050427634
-0.0055241003 0.0095491465 -0.045774072 -0.007847722 0.055191457 -0.028191917 0.032271426 0.06564125
0.08333537 0.07823326 0.013346275 0.068725325 -0.06832898 -0.059806406 0.06742814 0.08355752
-0.01906677 0.020138806 0.089174695 -0.06169403 -0.00043988458 -0.049696337 -0.019048067 0.012856676

model.2.bias f4 [64]
00000000: 0884 623d d685 bbbb b86c 63bd 0506 f33c
00000010: 7a85 96bd 381c 39bc 7d39 ee3b 5c38 143c
00000020: 86eb 193b 2a80 28bd 6e8a 5f3d e274 3a3d
00000030: c953 3c3d 0ae5 223d 2994 86bc 31be 023c
00000040: db5f 9a3d b860 863d da95 96bd 9bda 6bbd
00000050: 67b9 513d e94d 573d e7ac 9b3c cb45 843d
00000060: d178 543c 05bb 97bd 77ce 723d cff3 a4bd
00000070: c68d 673d 3ebc e9bc 4336 ad3c ffa0 ad3c
00000080: f87c 2abc a8eb 4f3c 87b2 f73c a0c6 a7bc
00000090: 6498 133d 247d 1dbd 9d92 d8ba 5a37 9e3d
000000a0: 4fec e33c 68df a8bd a96c c4bb 0668 9fbd
000000b0: ab12 e63c 61e1 8e3b 7863 9c3c 5bee 6c3c
000000c0: 9cc9 573d a456 84bd 7046 81bd e5a1 22bd
000000d0: d5a6 81bc 2506 a83d d568 b23c f3c7 b5bd
000000e0: 1b9d e9bc 8715 92bd b7d2 83bc 4cd8 8f3c
000000f0: 7f3f aabc f85a 8c3d ed8b ecbc 6c5e b6bd
0.055301696 -0.0057227416 -0.055523604 0.029665956 -0.073496774 -0.011298232 0.0072700367 0.00904664
0.002348633 -0.04113785 0.054575376 0.045521624 0.04597834 0.03976921 -0.01642807 0.0079799155
0.07537814 0.065614164 -0.07352801 -0.057581525 0.051202204 0.052564535 0.019003345 0.064586245
0.012968258 -0.07408718 0.05927893 -0.08054315 0.05653169 -0.028532144 0.021144038 0.021194933
-0.010405771 0.012690462 0.030236496 -0.020480454 0.036034003 -0.03844942 -0.0016523186 0.07725401
0.027822642 -0.08245736 -0.0059943986 -0.07783513 0.028085073 0.0043603634 0.0190904 0.014461125
0.052682504 -0.06461838 -0.06312263 -0.039705176 -0.015826622 0.08204297 0.021778503 -0.08876028
-0.028517297 -0.07133012 -0.016091688 0.017559193 -0.02078223 0.068532884 -0.028875316 -0.08904728

model.4.weight f4 [1, 64]
00000000: b7c7 9bbd 14eb 843d 803f debd 3a30 aa39
00000010: 7c47 eabc a491 82bd 07df 36bd 089c 97bd
00000020: 9e41 fbbd b8e2 94bc c9db e63c b81d 04bd
00000030: 0b62 d6bd 69f4 903d 4259 123c 4b62 27bd
00000040: 4047 34bd aab8 323d b0c7 8f3d 032e cf3d
00000050: e82c ba3d 71b1 d3bd 528f fd3c f2b6 c1bd
00000060: 44ba 16bd b5a2 2f3d 18f6 34bd fdd1 c5bd
00000070: 126a dfbd 7bb9 65bc a4e3 91bd 9b21 e4bd
00000080: 40ee eabd 0278 3bb9 00e9 f63a b8b4 44bd
00000090: ca72 cdbd 58d9 d6bd badd 123d 8f4c b73d
000000a0: f6c5 883d 809d c93d 1631 c5bd bdf4 b83d
000000b0: d6fd e4bd b8ec 3fbd 0feb f6bb 8341 8d3d
000000c0: 6290 8f3c a027 d2bb 7a79 96bd 54c3 173d
000000d0: 5414 e73d c424 2f3d fad4 6dbd 6e48 a63a
000000e0: f0bc 2c3d 7c25 4f3d 08be 6c3d c5a4 d0bd
000000f0: 3aca e7bd b297 913d 529d 3f3d 8eaf 1cbd
-0.07606452 0.0649015 -0.108519554 0.00032460858 -0.02859854 -0.06375435 -0.04464629 -0.074028075
-0.12268375 -0.018174514 0.028180974 -0.032254905 -0.10467919 0.070778675 0.0089324135 -0.040865224
-0.04401326 0.04363314 0.07020509 0.10116198 0.090905964 -0.10336579 0.03095213 -0.09458722
-0.03679873 0.04287978 -0.044180006 -0.09659193 -0.10908903 -0.014021273 -0.07123497 -0.11139222
-0.11471224 -0.00017878416 0.001883775 -0.04802391 -0.1003166 -0.10490674 0.035855986 0.08950149
0.06678383 0.09844494 -0.09628503 0.09031055 -0.11181228 -0.046856612 -0.0075353454 0.06897261
0.017524902 -0.006413415 -0.073473886 0.037051514 0.11283174 0.04275967 -0.05806444 0.0012686381
0.042172372 0.050572857 0.057798415 -0.10187677 -0.113178685 0.07109012 0.04678089 -0.03825336
