models/saved_models/performance_predictor.pth (torch, 13245 bytes, 5 tensors)

model.0.weight f4 [64, 5]
0.4682009 0.24060167 0.29388627 -0.24621482 -0.35952407 0.146267 0.3936789 0.034088857
-0.12093964 0.12590064 0.18577139 -0.18742421 -0.014407509 0.42929137 -0.29282546 0.3712342
-0.3699608 0.1475483 0.100577556 0.021335201 -0.049729925 0.16077693 -0.03552717 -0.24096197
-0.14010057 -0.20211382 -0.5423004 -0.0597146 0.16869861 0.16246352 0.1838399 -0.04605298
-0.03662549 -0.19585957 0.107766025 0.012547724 -0.44389075 -0.13020383 -0.27391255 -0.12005487
0.21465203 -0.2600534 0.21471691 0.21170413 0.058715772 -0.05817876 -0.068789236 0.26635674
-0.35492378 -0.1830291 -0.03145374 0.07976193 0.3093859 0.1795848 -0.2814497 0.033067536
0.08240151 0.1621362 -0.3378757 0.22723238 0.3988402 0.17272697 -0.27804974 0.41742292
0.027398856 -0.47568223 0.02429057 0.10799275 -0.2986001 -0.38371408 -0.40101042 0.018936612
0.2667738 0.1306572 0.19758978 -0.44238093 0.06551472 -0.2741557 0.20950478 0.31494105
-0.08253306 -0.41293016 -0.31498206 0.2972957 -0.23744729 -0.4972267 -0.13347715 0.15389751
0.41179255 -0.37453443 0.0047039967 0.031159122 0.30365026 -0.35694912 -0.29510722 0.20896362
-0.12255635 0.19459388 -0.35758883 -0.03549935 0.26028547 -0.25845814 -0.24811536 -0.0019096115
0.21008393 0.4273369 0.06038431 0.431577 0.12548213 -0.2616422 0.323308 0.068094194
0.039993994 0.039428983 -0.33885393 0.11254138 -0.38999227 -0.2655055 0.20012474 0.00801786
0.23897058 0.099351555 0.33449018 0.27565494 -0.19989718 0.3220124 -0.34938258 0.3808989
0.3054622 -0.06672244 -0.32585236 0.23221043 0.092567615 0.40976444 0.09250359 0.13690443
-0.42880192 -0.12346007 0.28381532 -0.16178378 -0.054332726 -0.053396672 -0.12445945 0.10513396
0.312155 0.08575941 0.31276378 0.4948617 -0.3553094 0.21031925 -0.16660227 0.49373
-0.32833582 0.3805768 0.021806372 0.38800266 -0.41892615 -0.23314616 -0.002539438 0.26781866
-0.31689915 0.09107476 -0.28618786 -0.1485201 -0.10730679 0.22554605 -0.37828246 0.43493453
-0.26740322 0.27831042 -0.08572617 0.13284492 -0.14771052 -0.05143348 -0.24527828 0.35623795
0.102505505 0.41450962 0.35183668 0.24797028 0.38882095 -0.019252302 -0.336056 -0.23198397
-0.26040673 -0.3060616 0.47595114 0.32320875 0.033889335 -0.32897314 -0.13323069 -0.05599363
-0.01708997 -0.09384962 -0.19458006 0.41885298 0.3027195 -0.22787714 0.04051857 -0.27370507
-0.036079653 -0.06867041 0.24823429 -0.32855245 0.31235424 -0.0951873 -0.09382365 -0.12002933
0.3381006 -0.00092427037 0.013689061 -0.30157462 -0.41832918 -0.034726266 -0.030558446 -0.3773137
-0.20113845 0.10027434 0.15273936 0.30568075 0.24624403 0.08337997 0.003806808 0.16038284
-0.20659216 -0.19352981 0.2459743 0.0737061 0.43149668 0.402892 -0.06312177 0.27408457
-0.09488589 -0.21361955 -0.3641691 0.27691823 -0.06464462 0.2738871 -0.4510465 0.4154808
0.14438859 -0.39267778 -0.42796856 0.018550627 0.3178217 0.13562287 -0.0328538 -0.12439721
-0.46149424 0.18525381 0.00014542729 0.27257812 -0.06315418 -0.33800098 -0.09329064 -0.124512136
00000000: 07b8 ef3e 4960 763e 4378 963e bd1f 7cbe
00000010: 8a13 b8be 04c7 153e 4890 c93e c2a0 0b3d
00000020: 34af f7bd 19ec 003e db3a 3e3e 22ec 3fbe
00000030: 790d 6cbc 14cc db3e 38ed 95be 6912 be3e
00000040: 816b bdbe e716 173e 9bfb cd3d 29c7 ae3c
00000050: 9bb1 4bbd b5a2 243e f084 11bd bcbe 76be
00000060: 8676 0fbe edf6 4ebe 33d4 0abf 4c97 74bd
00000070: 54bf 2c3e d65c 263e 8740 3c3e 0da2 3cbd
00000080: 9c04 16bd 698f 48be 6fb4 dc3d f894 4d3c
00000090: a645 e3be 2754 05be 443e 8cbe 54df f5bd
000000a0: becd 5b3e b825 85be c0de 5b3e f8c8 583e
000000b0: f37f 703d da4c 6ebd 5fe1 8cbd e95f 883e
000000c0: 92b8 b5be fb6b 3bbe a3d5 00bd 395a a33d
000000d0: d467 9e3e 14e5 373e 2d1a 90be d371 073d
000000e0: 1fc2 a83d 0807 263e 0bfe acbe 9baf 683e
000000f0: c834 cc3e 57df 303e 895c 8ebe 75b8 d53e
00000100: 9173 e03c 9f8c f3be 04fd c63c 4e2b dd3d
00000110: 1de2 98be 2c76 c4be 3d51 cdbe f420 9b3c
00000120: 9396 883e 00cb 053e fa54 4a3e c17f e2be
00000130: 952c 863d 235e 8cbe 6c88 563e f43f a13e
00000140: 1807 a9bd 956b d3be 5445 a1be 2437 983e
00000150: 6225 73be 7f94 febe 3cae 08be 4f97 1d3e
00000160: 79d6 d23e fac2 bfbe fc23 9a3b 6a41 ff3c
00000170: 0c78 9b3e 09c2 b6be 4b18 97be 8ffa 553e
00000180: d3fe fabd 9e43 473e e215 b7be c467 11bd
00000190: 2344 853e a054 84be f411 7ebe ee4b faba
000001a0: 3e20 573e e7cb da3e 8a55 773d a9f7 dc3e
000001b0: 637e 003e f7f5 85be a088 a53e f874 8b3d
000001c0: bed0 233d 4980 213d 437e adbe 187c e63d
000001d0: 11ad c7be 56f0 87be 80ed 4c3e 585d 033c
000001e0: b4b4 743e d478 cb3d 4c42 ab3e a522 8d3e
000001f0: d9b1 4cbe cfde a43e 46e2 b2be 2e05 c33e
00000200: 8b65 9c3e c6a5 88bd 1fd6 a6be 92c8 6d3e
00000210: 1794 bd3d a5cc d13e 8672 bd3d ad30 0c3e
00000220: ed8b dbbe a2d8 fcbd 3e50 913e a6aa 25be
00000230: fe8b 5ebd 78b6 5abd 99e4 febd 7950 d73d
00000240: c8d2 9f3e a1a2 af3d 9322 a03e 835e fd3e
00000250: 1deb b5be ee5d 573e c999 2abe 2eca fc3e
00000260: a21b a8be f6da c23e 47a3 b23c 49a8 c63e
00000270: 7d7d d6be debd 6ebe b36c 26bb 871f 893e
00000280: 9b40 a2be 6785 ba3d 3787 92be a715 18be
00000290: aac3 dbbd 8bf5 663e 3dae c1be bdaf de3e
000002a0: 13e9 88be b47e 8e3e 3491 afbd 8008 083e
000002b0: 6d41 17be eaab 52bd 3b2a 7bbe d264 b63e
000002c0: 68ee d13d 9b3a d43e f023 b43e eceb 7d3e
000002d0: 8a13 c73e 01b7 9dbc 880f acbe 358d 6dbe
000002e0: 0854 85be 1bb4 9cbe deaf f33e 9e7b a53e
000002f0: 8bcf 0a3d 2b6f a8be a06d 08be 9459 65bd
00000300: 4400 8cbc 3b34 c0bd ff3f 47be e673 d63e
00000310: 0dfe 9a3e a058 69be cdf6 253d 1223 8cbe
00000320: 42c8 13bd 12a3 8cbd 2131 7e3e 0738 a8be
00000330: e5ec 9f3e 8ff1 c2bd 9d26 c0bd f0d1 f5bd
00000340: 861b ad3e bc4a 72ba 1548 603c fd67 9abe
00000350: 3e2f d6be 213d 0ebd b555 fabc 432f c1be
00000360: 3df7 4dbe a25c cd3d b567 1c3e 3082 9c3e
00000370: 6527 7c3e 1ec3 aa3d a47b 793b 663b 243e
00000380: e58c 53be ae2c 46be b0e0 7b3e 39f3 963d
00000390: 22ed dc3e dc47 ce3e fd45 81bd d054 8c3e
000003a0: 8953 c2bd 15bf 5abe 5f74 babe 3ac8 8d3e
000003b0: 6664 84bd ee3a 8c3e 91ef e6be e6b9 d43e
000003c0: 9ada 133e 100d c9be b21e dbbe 7cf7 973c
000003d0: 87b9 a23e b9e0 0a3e b591 06bd f7c3 febd
000003e0: f948 ecbe 2db3 3d3e d77d 1839 5c8f 8b3e
000003f0: fb56 81bd 770e adbe 2a0f bfbd 3800 ffbd

model.0.bias f4 [64]
0.2562293 0.00065777526 -0.20182037 -0.01245214 -0.062078394 0.17002432 -0.31055722 0.16320449
-0.20131603 -0.29823658 0.14132965 -0.10674619 -0.06466061 0.2012185 0.32440448 0.31688067
0.22301845 0.39409372 0.44992042 0.027831366 -0.30185726 -0.28720754 -0.14032167 -0.15840486
0.0433156 -0.14616187 -0.34265622 -0.21336836 -0.13384439 0.19219899 -0.25678483 -0.2674428
0.24057062 0.20884016 -0.14304136 0.13952687 0.47354758 -0.068556525 0.2650488 -0.054414928
-0.34802318 0.2979065 0.17197764 -0.10360294 -0.16503644 0.17623673 -0.013282033 -0.23283708
-0.11365662 0.03880027 0.44956285 -0.29733112 -0.428098 -0.20249608 0.46770176 0.018615017
0.25438234 0.0040868 0.4123841 0.22860578 -0.22042482 0.36733395 -0.07067789 -0.26192015
00000000: 7d30 833e 8d6e 2c3a 00aa 4ebe 1004 4cbc
00000010: ea45 7ebd db1a 2e3e 5b01 9fbe 141f 273e
00000020: ca25 4ebe 77b2 98be b8b8 103e bf9d dabd
00000030: c86c 84bd 390c 4e3e 5818 a63e 2f3e a23e
00000040: f35e 643e a7c6 c93e f85b e63e 9bfe e33c
00000050: 098d 9abe de0c 93be 7cb0 0fbe e234 22be
00000060: b36b 313d 75ab 15be a370 afbe 3c7d 5abe
00000070: 810e 09be d0cf 443e 4d79 83be 43ee 88be
00000080: 2558 763e 32da 553e 6f79 12be 22e0 0e3e
00000090: d474 f23e 5d67 8cbd 7ab4 873e 30e2 5ebd
000000a0: 1830 b2be 3387 983e e81a 303e c72d d4bd
000000b0: 50ff 28be 6777 343e e29c 59bc d86c 6ebe
000000c0: cdc4 e8bd 08ed 1e3d 1a2d e63e c93b 98be
000000d0: a92f dbbe 225b 4fbe 9b76 ef3e 857e 983c
000000e0: 673e 823e 90ea 853b 0224 d33e a217 6a3e
000000f0: 0bb7 61be 3213 bc3e 92bf 90bd 661a 86be

model.2.weight f4 [32, 64]
-0.120528474 0.044152096 -0.12062405 0.070124105 -0.11186081 0.08121432 -0.048701778 0.07059337
-0.021948889 -0.071646705 -0.06461491 -0.023101836 0.0031719804 -0.09109089 0.09220441 -0.09944682
0.0029822588 -0.10730995 -0.035756245 -0.041457593 -0.043341815 0.036409467 -0.1058753 -0.1188256
-0.09589179 -0.08733322 -0.07693195 0.05610566 -0.03762488 0.09665616 0.043702915 0.051638946
0.07842316 0.044719994 -0.04185748 -0.10601944 -0.060725555 -0.037963405 -0.05252637 0.0676264
-0.090207264 0.06536862 0.027312517 -0.07416573 0.0931595 0.1209023 -0.028829142 0.11227283
-0.12161209 0.024324238 0.09685427 -0.09557326 -0.10867061 0.019053206 -0.039292693 -0.068114236
-0.066946685 -0.06993191 -0.07691124 0.038625598 -0.022568494 0.04623349 0.09766567 0.054452226
0.116603486 0.02531707 -0.04538825 0.11480714 0.1396602 0.01854476 -0.01783655 -0.02167639
-0.06469455 -0.03268546 -0.0073580123 -0.029459236 0.2861106 -0.037056383 0.12444989 -0.12541449
-0.08314373 -0.044881146 0.047837384 -0.0419982 -0.033373535 0.8826949 0.09004073 0.042291082
-0.028444875 0.014919296 -0.021567743 -0.0926923 -0.07718998 0.19092888 -0.07872486 0.14372554
0.060551364 0.0683652 -0.102495685 -0.042408977 0.14075553 -0.06506497 0.035502248 0.12333759
-0.04797463 -0.030065095 0.105653465 0.047430586 -0.055936232 0.081336014 0.047936954 0.08605708
0.1069408 0.07724981 0.049241636 0.042035792 -0.05051875 0.024943033 -0.10077938 0.092176564
-0.037122436 0.03869675 -0.022365663 0.13300951 -0.110835984 0.16526954 0.14934649 -0.03278227
0.081684865 -0.12635867 -0.11251303 0.028848484 -0.067755744 0.13296492 -0.08943558 0.12532894
-0.08693588 0.04022956 0.042418517 0.009301936 -0.02725602 -0.07751145 0.07222401 -0.016746823
0.12256001 0.077581294 0.044052325 -0.0893062 -0.05254629 0.06492211 0.07758651 -0.060934637
-0.13938014 0.055187494 -0.12521723 0.04901741 0.06559831 0.07433926 -0.17136315 0.090297654
-0.0036487973 -0.035523716 -0.06788416 -0.10299183 0.15360329 -0.13683696 -0.04341171 -0.039299913
-0.12370032 -0.051684946 0.025973752 0.09618133 0.01755444 0.0862265 -0.065013744 0.008743025
-0.06733482 0.116146795 0.10831116 0.06066757 0.055410177 0.09711114 -0.056897774 0.105842166
-0.10767319 0.102817565 0.11129779 -0.049948346 0.11259058 -0.008963629 -0.07310635 -0.00867387
0.020363463 0.03869378 0.08958903 -0.07049147 -0.05752469 0.0304652 -0.021974098 -0.024911067
-0.109692216 0.053421006 0.06836153 0.056481127 0.07858281 -0.049047265 -0.08258515 0.042244934
0.114358544 -0.03763287 0.097161844 -0.072728515 -0.06072759 -0.070953004 -0.07712894 0.13177566
0.05643335 0.096102715 -0.0698452 0.11237376 0.00180085 -0.08496531 -0.04527257 0.07448955
0.040011 0.1569686 0.06347297 0.044208147 0.110168494 -0.056351926 -0.06822188 0.09659115
0.081238836 -0.06736216 0.0071851946 -0.12793268 -0.13049106 0.05319641 -0.0010058074 -0.105105355
0.053460967 -0.08168432 -0.07366163 0.091229595 0.019372463 0.08063275 -0.027339656 0.066146225
0.095322594 -0.04936069 -0.021685692 0.004999759 0.116802275 0.043572724 -0.07153135 0.039016433
00000000: a2d7 f6bd d4d8 343d be09 f7bd 3a9d 8f3d
00000010: 4817 e5bd b253 a63d 847b 47bd 4293 903d
00000020: 28ce b3bc 82bb 92bd d254 84bd 1040 bdbc
00000030: 00e1 4f3b dc8d babd aad5 bc3d c6aa cbbd
00000040: 0072 433b 52c5 dbbd 2475 12bd 70cf 29bd
00000050: 3087 31bd 1822 153d 26d5 d8bd d65a f3bd
00000060: ea62 c4bd c2db b2bd 808e 9dbd 0ccf 653d
00000070: 8c1c 1abd aaf3 c53d d401 333d 5c83 533d
00000080: 529c a03d 502c 373d c072 2bbd b820 d9bd
00000090: 5cbb 78bd 847f 1bbd e425 57bd b67f 8a3d
000000a0: 96be b8bd fcdf 853d 80be df3c 34e4 97bd
000000b0: 68ca be3d a09b f73d 182b ecbc 4cef e53d
000000c0: c20f f9bd a043 c73c 885b c63d eabb c3bd
000000d0: b28e debd 7815 9c3c 60f1 20bd 7a7f 8bbd
000000e0: 581b 89bd 7638 8fbd a483 9dbd e035 1e3d
000000f0: 90e1 b8bc 545f 3d3d f004 c83d 4c09 5f3d
00000100: cfcd ee3d be65 cf3c 08e9 39bd 0120 eb3d
00000110: 1503 0f3e 2eeb 973c f51d 92bc af92 b1bc
00000120: 947e 84bd 30e1 05bd 7b1b f1bb 7f54 f1bc
00000130: 177d 923e 6fc8 17bd 95df fe3d a86c 00be
00000140: 4347 aabd 4bd5 37bd 22f1 433d 4e06 2cbd
00000150: b0b2 08bd 4bf8 613f 4667 b83d 6a39 2d3d
00000160: 3a05 e9bc 1070 743c d6ae b0bc 76d5 bdbd
00000170: c815 9ebd dc82 433e 803a a1bd ca2c 133e
00000180: b504 783d 0e03 8c3d 42e9 d1bd 09b5 2dbd
00000190: 3822 103e c840 85bd ce6a 113d 6b98 fc3d
000001a0: 0c81 44bd 134b f6bc d860 d83d 9346 423d
000001b0: 641d 65bd 7f93 a63d 8a59 443d b23e b03d
000001c0: c703 db3d 2635 9e3d 99b1 493d b92d 2c3d
000001d0: c0ec 4ebd 5555 cc3c 6b65 cebd 11c7 bc3d
000001e0: b20d 18bd 7c80 1e3d 3238 b7bc a533 083e
000001f0: fafd e2bd 6b3c 293e 49ee 183e b446 06bd
00000200: 654a a73d 2b64 01be 3b6d e6bd a853 ec3c
00000210: 86c3 8abd f527 083e 002a b7bd 3b56 003e
00000220: 700b b2bd c0c7 243d 0abf 2d3d 2667 183c
00000230: 0448 dfbc 53be 9ebd 2fea 933d a230 89bc
00000240: be00 fb3d f1e2 9e3d 3670 343d 2be6 b6bd
00000250: c73a 57bd e2f5 843d ade5 9e3d 9996 79bd
00000260: abb9 0ebe 480c 623d f238 00be 7bc6 483d
00000270: 6858 863d 2f3f 983d d279 2fbe faed b83d
00000280: a920 6fbb 5181 11bd da06 8bbd 61ed d2bd
00000290: 2e4a 1d3e fd1e 0cbe 7ad0 31bd f2f8 20bd
000002a0: 9856 fdbd 98b3 53bd e8c6 d43c b8fa c43d
000002b0: 54ce 8f3c 8597 b03d ed25 85bd e83e 0f3c
000002c0: d7e6 89bd 5fde ed3d 3ed2 dd3d 8f7e 783d
000002d0: c8f5 623d 35e2 c63d a40d 69bd c7c3 d83d
000002e0: c383 dcbd 0492 d23d 19f0 e33d a396 4cbd
000002f0: e495 e63d 2fdc 12bc c8b8 95bd d91c 0ebc
00000300: 47d1 a63c 5e7d 1e3d 747a b73d d55d 90bd
00000310: 029f 6bbd 2892 f93c 0603 b4bc 4b12 ccbc
00000320: 50a6 e0bd fccf 5a3d 2101 8c3d c158 673d
00000330: 06f0 a03d c9e5 48bd 6722 a9bd 0609 2d3d
00000340: d034 ea3d ed24 1abd cafc c63d b0f2 94bd
00000350: 7ebd 78bd cf4f 91bd c7f5 9dbd 33f0 063e
00000360: a826 673d 80d1 c43d 000b 8fbd 3724 e63d
00000370: 800a ec3a 4b02 aebd bb6f 39bd fa8d 983d
00000380: 93e2 233d 60bc 203e 1efe 813d 9a13 353d
00000390: 05a0 e13d 47d1 66bd eab7 8bbd 95d1 c53d
000003a0: 8c60 a63d 2cf5 89bd c871 eb3b c900 03be
000003b0: 739f 05be 7be4 593d 4cd5 83ba 7a41 d7bd
000003c0: e3f9 5a3d 1c4a a7bd e9db 96bd 95d6 ba3d
000003d0: 00b3 9e3c c922 a53d 6af7 dfbc ac77 873d
000003e0: 7e38 c33d 6f2e 4abd 31a6 b1bc 05d5 a33b
000003f0: 0836 ef3d 5079 323d 077f 92bd b2cf 1f3d

model.2.bias f4 [32]
-0.116222575 0.014443994 -0.0374341 0.0475236 0.1888564 -0.0053028613 -0.07325644 -0.00888352
-0.13704573 -0.08928371 0.11551081 -0.050170496 0.13430539 0.12770374 -0.14999455 -0.05600995
-0.02528201 0.097988285 -0.044498138 0.067386486 0.12917033 -0.0959895 -0.045232203 0.10710204
0.15664259 -0.05326266 -0.0401933 -0.0042529907 -0.11836119 0.10453193 0.010342963 0.02809821
00000000: 1a06 eebd 80a6 6c3c 8054 19bd 1ba8 423d
00000010: 9263 413e a0c3 adbb 7907 96bd 2f8c 11bc
00000020: b755 0cbe 61da b6bd ee90 ec3d 947f 4dbd
00000030: 5a87 093e c5c4 023e 2c98 19be b06a 65bd
00000040: 381c cfbc 15ae c83d ae43 36bd ed01 8a3d
00000050: 3a45 043e 2596 c4bd 6745 39bd 5058 db3d
00000060: ea66 203e f229 5abd bba1 24bd ac5c 8bbb
00000070: 5a67 f2bd d614 d63d 8875 293c 382e e63c

model.4.weight f4 [1, 32]
0.060434893 -0.14260413 -0.056245282 -0.06786807 0.20256755 -0.11464796 0.06204738 0.24765988
-0.023373669 -0.10853865 -0.16420877 -0.11924882 -0.13208066 -0.023372877 0.050600246 -0.07694164
0.10817008 -0.14714658 0.019576974 0.15134135 0.0959172 -0.22743462 -0.048413422 -0.07861354
-0.22870919 -0.010547137 -0.13905214 -0.040947177 0.121536635 -0.12528078 0.14916682 0.107796825
00000000: 948a 773d d106 12be 7461 66bd 6afe 8abd
00000010: de6d 4f3e 8dcc eabd 6525 7e3d 8d9a 7d3e
00000020: 237a bfbc 8349 debd 5826 28be ba38 f4bd
00000030: 2740 07be 7a78 bfbc 3442 4f3d 9493 9dbd
00000040: 4688 dd3d 98ad 16be e45f a03c 3af9 1a3e
00000050: 3d70 c43d 9fe4 68be 274d 46bd 2300 a1bd
00000060: be32 6abe e6cd 2cbc af63 0ebe 3ab8 27bd
00000070: 33e8 f83d 9b49 00be 30bf 183e 95c4 dc3d
